examples/hello-world/ml-to-fl/pt/enhanced_fraudnet/jobs/workdir/server/simulate_job/app_server/best_FL_global_model.pt (torch, 68336 bytes, 22 tensors)

fc1.weight f4 [128, 30]
00000000: 2472 18bb d03a 0e3c 995a 823e 34c1 0bbd
00000010: 10ea 573e 89e8 4fbd c335 01be 68f7 45be
00000020: 124e 3ebe f0da f6bd 48aa 83be 0e8e 1c3e
00000030: ac5f afbe 2751 a1be 9a31 cdbd d439 97be
00000040: 6ea0 54be 6ffb 8bbe 4661 80be e7b2 3f3e
00000050: c25f 193e b964 7d3e 299a f63d a23c 2ebc
00000060: 455c 503d 8833 54bd 5409 163d f279 093e
00000070: 8e0a 3d3e 885b 293e ee48 383b aef8 3a3d
00000080: 0228 913d e228 e0bd 006b ba3d f38e 0cbe
00000090: d701 c8bd b6db cfbc 8567 7d3b 8ea4 b13d
000000a0: 0afb 593d 42cc 4a3e 6cd1 c2bd 2722 84bd
000000b0: 3b82 88be 668c 563d 1e4a 1abe 98b2 b6bd
000000c0: 209d 43be 0410 2a3e b0b9 173e 0ee2 2fbd
000000d0: e23a 8ebc 14ee 20be 32c2 1bbe ccff 43be
000000e0: 5ad4 5a3d 1532 3b3e 054f 553e 97dc 2ebc
000000f0: 1494 973c ade9 1b3e 98a9 e2bd 0b6c 8f3e
00000100: 1da9 26be fe5e a13d 84af 40bd 96e6 273e
00000110: b8b3 683e 5ad2 3a3d 7e2f 123d aebf aebd
00000120: f37b 8a3d 3c40 b03d 9861 b63e 620b 3e3e
00000130: ed6c 103d 5ef6 013c 20dd 763e e095 e63a
00000140: 5892 87be df63 24bc eb41 18be 3c38 6b3b
00000150: 7045 46bc a67b 6ebd 8c11 45be c665 94bd
00000160: 0a85 63be 999f 03be 4504 8fbb b0aa e73e
00000170: bc94 b9be b64b 6f3e 9283 b6be b6b0 423e
00000180: ed3b 823e 3631 cf3e 68fd 85be d9b1 a53e
00000190: 2a5b d13e fa16 d3be b402 d73e 98c5 933d
000001a0: f16a f23e 9d10 793e baa3 d33e 989c d73e
000001b0: 1a68 013e d684 94bc 8872 dcbb 601f 39be
000001c0: 3d8e 23be eb0f 56bc 02d0 e23d 9173 163c
000001d0: 802e 6d3a f444 f8bd b25c 8ebe b03a 92bd
000001e0: 582e a4ba eed5 db3e 5759 0fbf 83f2 e13e
000001f0: 9c72 42bf f6db eb3e 9ad4 533e f613 ad3e
00000200: 15bb ffbd abb4 d83e ac7d 443f 907d 03bf
00000210: f896 443f 5baa a93e c97f 493f a0c3 593e
00000220: 051d 263f 579d d53e 3c80 983e f8d1 78be
00000230: fb5f 503e 9736 09be 9ccf b83b b73a 963e
00000240: 8cc5 0bbe 14b0 7abe 341a 13bd 0f61 9ebe
00000250: f09e abbe f0dc ce3d ebf5 7dbd 1d6c 4abe
00000260: a417 1e3e 9a7f aabe ec29 823e b6b0 80be
00000270: 6272 0dbe 2851 c4bc 3a9e 55bd dd64 d8bd
00000280: d0b1 a0be cdac 633e 1455 debc e756 b93d
00000290: 8ee5 92be d00c 45bd 2807 04bc 8f2d 93be
000002a0: 903e 3dbe 52c7 44bd a432 ae3d 4ae4 273e
000002b0: 0798 33be 0630 a7bd c293 93be fb34 9f3e
000002c0: 00fe 79bd 4b6b 4abd 0f42 66bd c4fb d7bd
000002d0: 903d b3b9 a4f0 943e 00ce 21be 84d9 ad3d
000002e0: 7ac6 bcbe a136 203d 24a5 723d 2403 7e3e
000002f0: 821e 423e 1c5c fc3d b571 183e 734b b2bd
00000300: 70a9 c13e 48ad 1a3d e8e2 123e 0cac 273e
00000310: f3f1 273e 8682 a23e 69c4 1c3d 57e2 96be
00000320: 683b e13c eed9 083c d7df 28be 05c3 45bd
00000330: 528d b5bd 7c32 01be 2460 0e3e 9a8b 87bd
00000340: 8521 853d fef1 053e 517e 0ebd 103f 6bbd
00000350: 722b d33c ab5d cbbd a03e 433d 9c17 d9bd
00000360: 7e3e a13d b54c 05bd 210e 9e3d 5a57 bd3d
00000370: 1f0d c2bd 888d c3bc c003 e43a 72d7 d6bd
00000380: 6611 a5bc bef6 0c3c e693 f5bd 3211 35be
00000390: bef9 423e 1f20 c4bd d8da 3b3d 002f 3a3a
000003a0: 98ce 643d 0c8b b3bd 4ec9 573e a47c ad3d
000003b0: 8869 6d3c 00c5 bebd 78c0 a6bd e805 7b3d
000003c0: e5c7 33bb 5e46 833e b2fd 08be 46ad 403e
000003d0: 621c e3be 5d7b 32bd 1203 273e 189b c9bc
000003e0: c67a 123e 0425 873e 3a12 a83e 0e43 c3be
000003f0: 30fd f33e d8a2 6d3e a4d7 b73e 1baf 33bd
-0.0023261392 0.008681014 0.25459746 -0.0341198 0.21085382 -0.050758872 -0.12618165 -0.19332659
-0.18584469 -0.12053478 -0.25715852 0.15288565 -0.3425268 -0.31507227 -0.10019226 -0.29536307
-0.20764324 -0.27340266 -0.25074214 0.1872059 0.14977935 0.24745454 0.120411225 -0.010634573
0.050869245 -0.051806957 0.03662999 0.13425425 0.18461058 0.16538823 0.0028119641 0.045647316
0.07087709 -0.10945298 0.0910244 -0.13726406 -0.09765976 -0.025373321 0.0038666439 0.086739644
0.053217925 0.1980448 -0.095126 -0.064518265 -0.26661858 0.052379988 -0.15067336 -0.08920783
-0.19102907 0.16607672 0.14816928 -0.042940192 -0.017362062 -0.1571582 -0.15210798 -0.19140548
0.05342517 0.18280824 0.20830925 -0.01067271 0.018503226 0.15225859 -0.11067504 0.28012118
-0.16275449 0.078794464 -0.047042385 0.16396555 0.22724807 0.045610763 0.035689823 -0.08532654
0.06761923 0.08606002 0.35621333 0.1855903 0.03526013 0.007932274 0.2410779 0.0017592274
-0.2647884 -0.010033577 -0.14868896 0.0035891673 -0.012101516 -0.05822339 -0.19244975 -0.07245974
-0.22218719 -0.1285385 -0.0043645226 0.45247412 -0.36246288 0.23368725 -0.35647255 0.19012722
0.25436345 0.40467232 -0.26169896 0.3236225 0.40889865 -0.41228467 0.4199425 0.072154224
0.47347215 0.24322744 0.4133585 0.4211166 0.12637368 -0.018129747 -0.0067275204 -0.18078375
-0.15972228 -0.013065319 0.110748306 0.009182827 0.00090477616 -0.12122527 -0.27805096 -0.071401
-0.0012526019 0.42936653 -0.55995697 0.44130334 -0.7595613 0.46066254 0.2068657 0.3380429
-0.12486855 0.4232534 0.7675426 -0.5136347 0.7679286 0.33137783 0.7871061 0.21266031
0.6488803 0.41721603 0.29785335 -0.24298847 0.20349114 -0.1339973 0.0056399833 0.2934167
-0.13649577 -0.24481231 -0.03591366 -0.30933425 -0.33519697 0.10100734 -0.062002104 -0.19767804
0.15438706 -0.33300477 0.2542261 -0.2513482 -0.13813165 -0.02396448 -0.05215285 -0.10566113
-0.3138566 0.22233887 -0.027140178 0.090497784 -0.2869076 -0.048107922 -0.008058347 -0.28745696
-0.18480897 -0.04804165 0.08505753 0.16395679 -0.17538463 -0.081634566 -0.28823668 0.31095108
-0.06103325 -0.04941873 -0.056215342 -0.10546067 -0.00034187408 0.29089844 -0.15801239 0.084887534
-0.36870176 0.0391146 0.05923952 0.24805886 0.1895695 0.12322256 0.14887126 -0.08705797
0.37824583 0.03776291 0.1434437 0.16374224 0.1640089 0.31740206 0.03827325 -0.2946956
0.027494147 0.00835274 -0.16491638 -0.04828169 -0.08864845 -0.12616915 0.13903862 -0.06618424
0.06500534 0.13080594 -0.034788433 -0.057433188 0.025777552 -0.09929975 0.047667146 -0.10600206
0.078732476 -0.032543857 0.077175386 0.092451766 -0.09475159 -0.023871198 0.0017396137 -0.10490312
-0.020149898 0.00860375 -0.119911 -0.1768234 0.19040582 -0.09576439 0.045863003 0.00071023405
0.055861086 -0.087667555 0.21072885 0.08471039 0.014490493 -0.093149185 -0.08142179 0.06128493
-0.002743238 0.25639623 -0.13378027 0.18816099 -0.44357592 -0.04357468 0.16309765 -0.024610087
0.14304647 0.26395428 0.32826406 -0.38137096 0.47654104 0.23206651 0.35906708 -0.043868165

fc1.bias f4 [128]
00000000: dc1b 673d 3036 463c 517e 023e b95c 0cbe
00000010: d056 fdbd 9e83 213e 36fb 21bc 2c63 a13d
00000020: 6060 33be 0906 1b3e 91c4 cdbd b26b 913d
00000030: 31b8 babd de27 2fbe cdeb 82bd 0948 943d
00000040: 107d e83d 73e8 0ebe e751 a4bd d000 e53d
00000050: 1453 36be 35e6 873d c33d 233e 8e55 9d3d
00000060: fa66 f7bd cd1e 783b f691 74bd f8c4 e5bd
00000070: 3e20 9a3d dd40 b93d bec8 b3bd 15b1 27be
00000080: 678b 19bd ba27 f13d bcb0 2cbe e6ed 033c
00000090: d9a2 133e 5855 c3bd 8a85 383e 53b7 2bbe
000000a0: c85d 9ebd 5e5b c33d 35aa e53d c08e 5abd
000000b0: 60b7 f5bd dd04 2e3e 2309 cb3d 707d e73c
000000c0: 0d17 aa3d 5f64 30be b84f 0f3e 247c 54bd
000000d0: 45b4 133e 09b7 8e3d 6070 1bbe 1ebb 4f3d
000000e0: 3a38 fabb aed2 693d 8206 2cba ae10 793d
000000f0: 996b 0dbe 9a84 dcbd 5ebc d2bc 5810 06bd
00000100: 9685 173d feb3 b2bd 2073 133e 7a1a 30bb
00000110: 1ac7 a63d 2dcc d33c cc08 35be a0d9 23be
00000120: a8d3 243d f37a f03c ef22 943d a2e5 333e
00000130: 58dd 833d 88a0 79bc aa2c d7bd 3074 093d
00000140: 515f 1fbe 1442 2f3c 6e3c cf3c c296 07be
00000150: 7005 46bd aea8 37be 8376 943d b89a b03d
00000160: d947 c0bd 6e25 28be c60c f63c 631e 143e
00000170: 866d e2bd 6d7b cb3c 5fdd 16be 3e97 e33d
00000180: 6e6b cc3d 0d85 12be af5c b6bd 0ea8 c7bd
00000190: d13a 15be a1f0 9ebd 54e8 2ebe f897 0bbe
000001a0: 7269 3fbd 183d ddbd c46e 033c 3ecb de3b
000001b0: 38c9 503d dc69 553d 3210 093e 76e0 cebd
000001c0: efe8 e1bd 1466 903c 242f 59bd 70da 6fbd
000001d0: f62e 16bc 312b 033e 5429 ab3d e43b 993d
000001e0: ab3b 3ebd de27 7a3d c695 ac3d 92bb bdbd
000001f0: fecd 38bc 829d 9f3d 1212 a83d d4c3 aabb
0.056423053 0.01209788 0.12743498 -0.13707246 -0.12370074 0.15772864 -0.0098865535 0.07880244
-0.17517233 0.15139021 -0.10047258 0.071006194 -0.09117163 -0.17105052 -0.06392632 0.07240302
0.11351979 -0.1395586 -0.08023434 0.111817956 -0.1780513 0.066357054 0.15941529 0.07682334
-0.12080188 0.0037860156 -0.05970951 -0.112192094 0.07525681 0.09045575 -0.08778523 -0.16376145
-0.03748646 0.11775155 -0.16864294 0.008052325 0.1441759 -0.095377624 0.18019691 -0.16769151
-0.07732731 0.09538911 0.11214105 -0.053358793 -0.11997867 0.16994043 0.09913852 0.028258055
0.08305178 -0.17225789 0.13995254 -0.051876202 0.14424236 0.06968505 -0.15179586 0.05071556
-0.0076360973 0.057085685 -0.0006562249 0.060806923 -0.13810576 -0.10767479 -0.025724586 -0.03273043
0.03699263 -0.08725737 0.14399385 -0.002687125 0.08143444 0.025854195 -0.17679137 -0.16000986
0.040240914 0.029355502 0.072332256 0.17568067 0.06438702 -0.015236028 -0.10506566 0.03355807
-0.15563704 0.010696907 0.02529737 -0.13241103 -0.04834503 -0.1793544 0.07249167 0.0862326
-0.09388704 -0.16420528 0.030035388 0.14464717 -0.11056046 0.024839127 -0.14732884 0.111128315
0.09981428 -0.14308567 -0.08904397 -0.09748851 -0.14573218 -0.0776074 -0.17080814 -0.1363219
-0.04673142 -0.10802668 0.008022014 0.0067991307 0.050973147 0.05210291 0.13385084 -0.10101406
-0.11030757 0.0176268 -0.053023472 -0.058557928 -0.00916647 0.12809445 0.08357492 0.07482126
-0.046443623 0.061073177 0.084270045 -0.09264292 -0.011279581 0.07793714 0.08206572 -0.005211333

bn1.weight f4 [128]
00000000: 1849 733f 77c5 763f 7234 753f 9c8f 6f3f
00000010: 269c 793f 1c8c 6d3f 0653 7c3f 2cee 653f
00000020: 6bf4 6e3f 5cff 6e3f 6be3 723f 8741 723f
00000030: 2f82 733f 824a 703f e7ae 783f cedc 753f
00000040: 9c8e 6b3f 5c73 753f 3a4a 793f aabb 723f
00000050: 8a97 6c3f 02e4 6c3f de90 6e3f 72e9 7d3f
00000060: 44ed 783f 0ce5 6c3f 1452 733f 9271 763f
00000070: cd46 753f 523e 7b3f a980 793f 9881 763f
00000080: 52be 7a3f cec2 713f 1ed7 753f 4ebe 773f
00000090: f0a3 753f 2371 7d3f 89e2 703f 603f 6b3f
000000a0: 9ccd 6d3f 3423 863f 6aad 753f 18e4 6b3f
000000b0: 52fa 733f a229 763f 1cb6 783f 8e82 793f
000000c0: 2d7a 6f3f f3c9 723f 130c 7e3f 7868 693f
000000d0: a88f 6f3f 09f0 723f 2b65 833f 0a5f 723f
000000e0: 080b 6d3f 0817 6d3f c385 773f c99f 783f
000000f0: 205e 783f 8133 763f 1ed0 7d3f 1143 743f
00000100: d3ed 733f 9a63 6f3f 487e 7d3f 849e 793f
00000110: 1b77 893f 98e8 6d3f 52a6 693f 4407 783f
00000120: 6cfb 773f 7beb 6d3f ec86 763f cc6e 773f
00000130: 9671 6f3f f2d8 743f 0529 723f 9147 723f
00000140: bddc 773f 618a 773f ef89 6e3f 1280 783f
00000150: 7a83 753f 0d5f 6c3f b9e9 703f 7a7f 733f
00000160: ce35 763f 68ff 713f 5022 863f 5fd6 723f
00000170: 6637 763f b0f1 723f 3c43 753f a8a5 6a3f
00000180: 42ac 723f 1e3b 7d3f 4c0f 6d3f 00eb 703f
00000190: fc4f 743f 02c9 6f3f c252 763f 8298 643f
000001a0: c1fe 743f ca4b 733f 0f01 733f 8006 713f
000001b0: c59b 723f ef83 783f aeef 763f 107d 723f
000001c0: 622c 723f 462d 6e3f 7c3c 773f e1b9 7d3f
000001d0: 2202 713f 5ad2 793f f2d5 773f 20da 653f
000001e0: f650 733f 7ee2 763f 8457 933f f49c 6e3f
000001f0: 3452 873f a231 793f e2ed 703f f125 763f
0.9503341 0.9639506 0.9578315 0.93578506 0.9750389 0.92791915 0.98564184 0.89816546
0.933417 0.933584 0.9487826 0.94631237 0.9512052 0.9386369 0.9714188 0.96040046
0.9201448 0.9587915 0.97378886 0.948176 0.9241873 0.9253541 0.931898 0.99184334
0.9723704 0.92537 0.95047116 0.96267045 0.9581116 0.9814197 0.97461945 0.96291494
0.97946656 0.94437873 0.9603137 0.96774757 0.95953274 0.9900076 0.94095665 0.9189358
0.9289186 1.0479493 0.95967734 0.9214492 0.95303833 0.96157277 0.97152877 0.97464836
0.935458 0.948394 0.99237174 0.9117503 0.9357858 0.94897515 1.0265249 0.9467627
0.9259496 0.9261327 0.9668848 0.9711881 0.97018623 0.9617234 0.99145687 0.95414835
0.95284766 0.93511355 0.99020815 0.975075 1.0739473 0.92933035 0.9126941 0.96886086
0.96868014 0.9293744 0.96299624 0.9665344 0.93532693 0.9564353 0.9459384 0.9464045
0.96821195 0.96695524 0.9317922 0.9707042 0.9590374 0.92332536 0.9410663 0.9511639
0.9617585 0.94530344 1.0479221 0.94858354 0.9617828 0.94900036 0.95805717 0.9165902
0.94794095 0.9891833 0.92601466 0.9410858 0.95434546 0.9366609 0.9622003 0.8929521
0.95701224 0.9503752 0.9492349 0.94150543 0.94768935 0.97076315 0.9645947 0.9472208
0.9459897 0.9303783 0.96576667 0.99111754 0.9414388 0.97586596 0.9681083 0.8978596
0.9504541 0.9643935 1.1511083 0.9320824 1.0571961 0.9734136 0.9411298 0.96151644

bn1.bias f4 [128]
00000000: 43b4 75bd c0d7 3dbd fb35 35bd 86a5 54bd
00000010: b50e 56bd 1c64 a0bd c7c2 4bbc b6c9 b9bd
00000020: 1659 e3bd 50da 80bd ddf8 6abd 2c5c 58bd
00000030: 50a2 71bd f83b edbb 265c 51bd 41ed 88bd
00000040: 17f0 86bd dcb1 1cbd 50d4 4fbd 96a7 92bd
00000050: 7817 6abd 9231 97bd b230 60bd 94d5 efbc
00000060: ee70 21bd d16c 99bd 9e4c 58bd 17f1 01bd
00000070: da7d 4dbd da6c 0dbd ca41 79bd 3ee6 bfbc
00000080: a1cd 0bbd 45ad 8dbd b06c 79bd fb75 99bc
00000090: 0058 2bbd 4b33 e3bc f6f3 86bd 257e b7bd
000000a0: 3c0d a33b ae38 dbbc 58e6 81bd 2a7a b4bd
000000b0: fb27 86bc 74c7 fabc faf8 23bc 0534 afbc
000000c0: dd58 adbd f4ed 02bd a20b 4cbc 4277 c7bd
000000d0: b687 a8bd 8622 a9bd 0056 4b39 b655 61bd
000000e0: aa64 84bd 4a9c 2dbd 41aa adbc 5b42 3bbd
000000f0: c84d 19bd a652 81bd 9bec e5bc 4231 a1bc
00000100: 3206 5dbd 89ef 7bbd 21d0 15bd d45c 3cbd
00000110: 8c1b 353e 14ab 6fbd 8b1f 9dbd f800 dfbc
00000120: 732f 41bd 7422 a4bd b01d 99bc ec34 90bc
00000130: d28a 56bd 5c16 33bd b920 4bbd cc1c 6bbd
00000140: f853 2ebc 0624 71bd 2a62 b1bd 7c30 b2bd
00000150: 1ced 5fbd e50d b9bd d34e e6bc 499e 8fbd
00000160: 7d85 2abd 2435 60bd 4aac 8e3c 002f 91bd
00000170: 7256 5cbd 0aa7 69bd 1c45 b1bc 6504 88bd
00000180: 5bbb 8abd 65a1 14bd 2a22 bebd 7a0b 96bd
00000190: b452 8abc 4abc 9dbd e0b0 16bd 6488 dabd
000001a0: 3794 05bd dca4 83bd 37f2 27bd 0cf2 23bd
000001b0: 5083 60bd ee05 8bbd 2615 4ebd f203 fabc
000001c0: e63c bfbd bc51 90bd 83f7 57bd f847 85b9
000001d0: 0e49 a5bd adf2 c2bd b692 1fbd 96c8 c0bd
000001e0: 02ec 1fbc 423e 07bd 1269 8b3e aa52 8ebd
000001f0: 32a2 c13d 5c4e 67bd 8516 1ebd df52 47bd
-0.059986364 -0.046348333 -0.044240933 -0.051915668 -0.05226012 -0.07831594 -0.012436575 -0.090716764
-0.11100976 -0.0629164 -0.05736624 -0.052822277 -0.058992684 -0.007239815 -0.05111327 -0.066858776
-0.06588762 -0.038255557 -0.050739586 -0.07160871 -0.057151288 -0.07382502 -0.05473394 -0.029276647
-0.03941434 -0.07491458 -0.052807443 -0.03172406 -0.05016885 -0.034527637 -0.060853757 -0.023425218
-0.03413165 -0.06917814 -0.060894668 -0.018733015 -0.04183197 -0.02773442 -0.065895006 -0.08959607
0.004975943 -0.026760425 -0.06342763 -0.088123634 -0.016376486 -0.030612685 -0.010008091 -0.02138711
-0.08464215 -0.03196521 -0.012453945 -0.097395435 -0.0822901 -0.08258538 0.00019391626 -0.05501338
-0.06464513 -0.042385377 -0.021199347 -0.04571758 -0.037427694 -0.06314592 -0.028066924 -0.019676808
-0.053960986 -0.061507735 -0.03657544 -0.045986965 0.1768629 -0.058512762 -0.07672032 -0.027222142
-0.04716439 -0.08014384 -0.018690914 -0.01760336 -0.052378483 -0.043722495 -0.049591754 -0.05740051
-0.010640137 -0.058872245 -0.086613014 -0.08700654 -0.054669484 -0.09035853 -0.028113758 -0.070126124
-0.04163121 -0.05473818 0.017416138 -0.07089043 -0.05379338 -0.057044066 -0.0216394 -0.06641463
-0.067740165 -0.03628673 -0.0928386 -0.07326408 -0.016885139 -0.07701929 -0.036789775 -0.10670546
-0.03261205 -0.06427929 -0.04100248 -0.040025756 -0.05481273 -0.067882404 -0.050313137 -0.03051946
-0.09337787 -0.070468396 -0.05272628 -0.00025421358 -0.08070575 -0.09518943 -0.038958274 -0.09413259
-0.0097608585 -0.033018358 0.272286 -0.06949361 0.094547644 -0.056471214 -0.038595695 -0.048663016

bn1.running_mean f4 [128]
00000000: ea2f 36c3 8a0e 8043 ef56 c944 a5fe c7c3
00000010: fa20 17c3 2847 acc5 60b3 48c1 6261 41c5
00000020: 20f8 97c3 463d 44c6 663d 40c6 b8c2 f2c5
00000030: 9879 b843 a544 0443 f082 b141 3db9 7445
00000040: 4ecd 65c6 c269 5fc6 d234 5a46 0ad8 7443
00000050: 94ee 8d44 455d 15c6 f831 2845 2e9f 2b46
00000060: ad19 ab45 cc87 55c4 b359 63c6 e0b5 0ec6
00000070: 20ab bb45 9f16 9645 bdc5 5b43 53ba 0246
00000080: 7ca4 97c2 bcec c1c5 e8c5 e1c2 a8f9 7ac5
00000090: ee24 6845 c303 0246 e4fd 9dc3 407e bbc3
000000a0: 9c7b b444 e795 cac0 05a5 03c5 6c00 24c6
000000b0: 7679 2645 3f34 7a46 80c4 56c6 0b70 e845
000000c0: a899 1245 3307 8dc5 383d 9540 1c6e 0443
000000d0: ed04 79c5 f1ed 3645 67c2 7743 c685 58c4
000000e0: 6ad6 69c6 2fa2 a1c3 a844 7544 a271 6346
000000f0: b049 9143 f8d8 2a42 b8bf bf42 6af0 8943
00000100: 47b4 89c3 1e4e 85c3 6487 cc42 13ce 0f46
00000110: 6072 b642 a2c6 46c6 09d7 20c3 c7da 1ec5
00000120: 6d1a 4346 6259 c243 a461 d545 ace5 1945
00000130: 1d4b 9bc5 3c9b 0244 7f99 80c5 eb56 64c5
00000140: d0e1 0746 0c17 f543 2ee1 b0c5 cc8f e943
00000150: 9000 12c5 33df 93c5 ed67 e843 1826 c545
00000160: f45f e445 4cfd 4546 f923 0344 7413 6a45
00000170: 77d7 5845 ae71 57c6 741f 0946 bf9f 2744
00000180: 3341 8945 b0c4 8845 1f00 5bc5 6768 2cc4
00000190: 12e7 b245 306f 72c6 2876 5c44 fcc7 1444
000001a0: f19c f845 00ab 60c5 3768 35c5 1a4f 55c3
000001b0: 803e 1140 80e0 2d40 9e9f 1f46 62c1 0ec5
000001c0: a31a 91c3 a54f 75c2 45b0 1645 9ca8 2a46
000001d0: 14bd 0fc6 5abc ae43 f1ff 2345 dafc 3b43
000001e0: 1a3a d445 1216 e844 5c3a db40 a29c a944
000001f0: 2274 aa42 601d 8bc1 6df8 aa45 9f8c b9c5
-182.18716 256.1136 1610.7167 -399.9894 -151.12881 -5512.8945 -12.543793 -3094.0864
-303.93848 -12559.318 -12303.35 -7768.34 368.94995 132.26814 22.188934 3915.5774
-14707.326 -14298.439 13965.205 244.8439 1135.4556 -9559.317 2691.123 10983.795
5475.2095 -854.1218 -14550.425 -9133.469 6005.3906 4802.8276 219.77242 8366.581
-75.82126 -6205.592 -112.886536 -4015.6035 3714.308 8320.94 -315.98352 -374.98633
1443.8628 -6.3307986 -2106.3137 -10496.105 2663.5913 16013.062 -13745.125 7438.0054
2345.6035 -4512.9 4.663723 132.43011 -3984.3079 2926.8713 247.75938 -866.0902
-14965.604 -323.26706 981.07275 14556.408 290.57568 42.711884 95.87445 275.87823
-275.40842 -266.6103 102.264435 9203.519 91.22339 -12721.658 -160.83998 -2541.6736
12486.606 388.6983 6828.205 2462.3545 -4969.389 522.42554 -4115.187 -3653.4324
8696.453 490.18005 -5660.1475 467.1234 -2336.0352 -4731.9 464.81192 6308.7617
7307.994 12671.324 524.5621 3745.2158 3469.4666 -13788.42 8775.863 670.49603
4392.15 4376.586 -3504.0076 -689.6313 5724.884 -15515.797 881.8462 595.12476
7955.6177 -3594.6875 -2902.5134 -213.30899 2.2694397 2.7168274 10215.904 -2284.0864
-290.2081 -61.327778 2411.0168 10922.152 -9199.27 349.4715 2623.9963 187.9877
6791.2627 1856.6897 6.850874 1356.8948 85.22682 -17.389343 5471.053 -5937.5776

bn1.running_var f4 [128]
00000000: 372f 7e46 3da5 b946 bcb2 494a c7e2 6f47
00000010: 8a77 4f46 1948 994b 5c98 3147 ac99 894a
00000020: b306 5047 cc35 314c a658 284c 20d3 874b
00000030: 0ee5 c247 aafe 8e45 fa6a 5e47 0015 ec4a
00000040: edc9 6f4c 9c37 5f4c 9d7d 764c 0a81 d747
00000050: 16a7 b248 7251 ca4b ab27 b54a fa54 074c
00000060: 7544 754b 6085 2949 adb5 674c 1e98 1e4c
00000070: 175c 434b 6412 dd4a eadc 7747 895b 1f4c
00000080: d6d7 6545 eed4 2b4b cc7d 0247 a0bb 0d4b
00000090: 0efc 874a f5eb 994b b674 8f48 e0a3 3c47
000000a0: 64d3 1e49 491e f643 d607 d249 e2dc ef4b
000000b0: 1bd9 514a 47d2 944c 5c40 4f4c 1f8a 9a4b
000000c0: 7069 c149 72c8 f14a fd3e 4d45 2664 a747
000000d0: 5c7d 0f4b c681 964a 5303 1347 2646 2749
000000e0: 5d67 844c 1019 2948 ea3f 1b49 9d2a 664c
000000f0: 98df a147 7b0d d645 d577 9b47 da19 5d47
00000100: 2446 0047 0ee8 4248 6c96 5b46 90e6 cb4b
00000110: 633e 7e45 fe95 304c 9b0f 4d47 5e9f 1e4a
00000120: 7716 3e4c 6eb2 2e47 2b27 b84b 757f 1d4a
00000130: 9c71 f94a e5f6 9247 af96 ff4a ec77 ba4a
00000140: 1902 334c 3c83 a047 41d4 684b c2d2 b747
00000150: ef21 4e4a 0abb 174b 1a89 7e47 5e62 2f4b
00000160: 6aaa 874b 8aba 2f4c 6b4e 0c48 f78d ab4a
00000170: dcd4 b34a 2aae 504c 5624 b14b 3e1b 0448
00000180: b6ae b34a 4820 d44a 3072 5c4a c0ad 9748
00000190: c0f8 0e4b 20b8 824c 205c 8448 90a5 cf47
000001a0: 2b6a e94b 1fe9 104b 7378 704a d37b b147
000001b0: bcba f046 b82e 9d45 9ea6 eb4b 62da 734a
000001c0: 8bdf 8647 5a70 2146 9a6b 264a fedf 014c
000001d0: e0dd bd4b 89af 1147 3dfd 5b4a 3c81 7f48
000001e0: 2542 dc4b 9c14 e049 4ec4 1143 984e df49
000001f0: 6a62 6845 8eef 7347 99d8 4a4b 7666 a94b
16267.804 23762.62 3.304623e+06 61410.777 13277.885 2.009093e+07 45464.36 4.508886e+06
53254.7 4.6454576e+07 4.413097e+07 1.7802816e+07 99786.11 4575.833 56938.977 7.735936e+06
6.2859188e+07 5.8515056e+07 6.4616052e+07 110338.08 365880.7 2.6518244e+07 5.9360855e+06 3.5476456e+07
1.6073845e+07 694358.0 6.07413e+07 4.157452e+07 1.2803095e+07 7.244082e+06 63452.914 4.1774628e+07
3677.4897 1.1261166e+07 33405.797 9.288608e+06 4.455943e+06 2.0174826e+07 293797.7 48291.875
650550.25 492.2366 1.7205708e+06 3.14393e+07 3.4381508e+06 7.802527e+07 5.432971e+07 2.0255806e+07
1.58443e+06 7.922745e+06 3283.9368 85704.3 9.40374e+06 4.931811e+06 37635.324 685154.4
6.9417704e+07 173156.25 635902.6 6.0336756e+07 82879.19 6849.685 79599.664 56601.85
32838.14 199584.22 14053.605 2.6725664e+07 4067.8992 4.6290936e+07 52495.605 2.5988715e+06
4.9830364e+07 44722.43 2.4137302e+07 2.5804452e+06 8.173774e+06 75245.79 8.3751275e+06 6.110198e+06
4.6925924e+07 82182.47 1.5258689e+07 94117.516 3.3772758e+06 9.943818e+06 65161.1 1.1493982e+07
1.7781972e+07 4.6066216e+07 143673.67 5.6214995e+06 5.892718e+06 5.4704296e+07 2.3218348e+07 135276.97
5.887835e+06 6.950948e+06 3.611788e+06 310638.0 9.369792e+06 6.853453e+07 271073.0 106315.125
3.0594134e+07 9.496863e+06 3.9398688e+06 90871.65 30813.367 5029.84 3.0887228e+07 3.9952885e+06
69055.086 10332.088 2.7266305e+06 3.4045944e+07 2.4886208e+07 37295.535 3.6043032e+06 261636.94
2.8869706e+07 1.8356675e+06 145.76682 1.829331e+06 3718.151 62447.555 1.3293721e+07 2.2203628e+07

bn1.num_batches_tracked f8 []
00000000: 0000 0000 0024 a340
2450.0

fc2.weight f4 [64, 128]
00000000: ba8e 283d f4f0 633d 9ff8 c93b ade2 703d
00000010: 9721 4c3d e040 543d 75e3 823c b499 43bd
00000020: bef6 573d f040 14bd dc42 553c 0008 8cbd
00000030: 2e8f 453c afdb b1bc 06b0 8ebd 4ee3 2dbc
00000040: 68e2 8abc da48 683c e75f 593c 9adb 73bb
00000050: be0a b4bc 4729 2b3d 6b27 cfbc 9ca5 05bd
00000060: 28cf 4bbc 6b0c dcbc 9c24 d53c 98c4 faba
00000070: bcd9 3c3d 52f5 373c 401a ae3d 5865 9e3d
00000080: 641f 6ebc 77ff 683d 1801 a3ba bd53 70bd
00000090: 794b 763c 38fc 57bd 2b88 023d 7043 debc
000000a0: 91b0 85bc e8e3 5fbc 1c53 86bd 8e9d 463d
000000b0: 81ce 04bd f3fc 3b3d 2cfd 593d 3a07 70bd
000000c0: 7e24 8c3c a27b 593d 983c 983d 6f96 553d
000000d0: a5bb 86bd 47e0 14bd 3f07 333c f29b b3bc
000000e0: f532 30bd 8924 ac3c 4fb1 91bd 0801 78bd
000000f0: 702a 313b aeef 823c 73ac 9c3c 40c3 223d
00000100: 9a0b 5c3c 837a 153d 502e 6dba 8482 35bd
00000110: fd22 c9bd aa2a 9a3d 39c9 a8bd ceb5 913d
00000120: a865 abbb 0e32 36bd c490 883d e3f4 1fbd
00000130: 3390 873c 0877 143d eac9 e73b d3bb 54bd
00000140: 39ed aa3d 0870 ecbc 99a2 97bd 0057 5838
00000150: d341 f0bb eecf 03bc ca3d 85bd 94af 5fbb
00000160: 45fe 3bbd 5a95 71bd 68e0 933c d3a7 3d3d
00000170: 2a07 013d 38ed 733c 6d9a 8ebc 19ff c9bc
00000180: 0495 7dbc 8e04 933d 3008 763d 99e2 40bc
00000190: 00b3 183d ac23 fc3c bb2c 8c3d 98b8 20bd
000001a0: 5647 73bd 3492 a03d 8c53 a3bd 9a1c 2c3d
000001b0: 1a30 173d 62b9 2abd 9ef1 203d 57ff a13c
000001c0: c5f6 ed3c 7eef 9f3d 8c0a aa3d f281 7e3d
000001d0: 0ab1 bc3c 3c89 8f3d ec2a 283d 76e8 3bbd
000001e0: 5a3f 80bd 3bb9 c83c 19ba 19be 5a36 403d
000001f0: cfac 62bd fb6b 0bbd e779 323d 204a 84bc
00000200: 0df3 353d 1e62 7a3d 0c68 58bd cf42 23bd
00000210: cdde 4bbd 90f5 90bd 94dc 423d dcbd 4ebd
00000220: 3d95 7abc f16f 52bd 0c3c 88bd 71b6 acbd
00000230: c275 0b3d 4d02 9bbd 5277 e5bc 3f1c 7b3d
00000240: 4e7e c5bc 16c6 17bd cae4 813d b172 af3d
00000250: 652f a43c 924f 023d 72b5 9d3d cb7f 3ebd
00000260: b24e 7f3d bf3d 00bd e620 a6bd 6ac7 ba3c
00000270: f0b8 0f3d f0a6 873d 7cae 233c 1ca0 84bd
00000280: c258 663d 558d 98bd d41a 02bc 98bc 70bd
00000290: d920 73bd 9431 053d 316a 13bd 3bda 423d
000002a0: 188d c83b 8f5b 8d3c 0470 dabd 03dc 4dbc
000002b0: 3593 7fbd b029 583b 1e50 f3bd 3443 813d
000002c0: 4aaa 383d a9b7 4cbd 4074 2fb8 7c8c 183d
000002d0: b273 503b d829 b83c a050 bcbc 0cb5 a73c
000002e0: 7858 74bd 00c2 fabc e0ce 993d 26da 39bc
000002f0: 7a4e 5dbd aaa9 06bc 8771 80bc 2950 0c3c
00000300: f0bb b43d 2021 0d3d 1296 4f3d a4b0 673d
00000310: 1bfa 5f3c b3b3 c13c ce05 a1bd bc94 acbd
00000320: 0f86 0d3d cc6a 09bd d4ec 8d3d 7616 91bc
00000330: 5a0b e1bc 1b4e 623d 7d45 c23b 0c3b a7bd
00000340: 7279 59bd 1943 ac3d 544c 88bd 05ad 00bd
00000350: 3008 efbd d84b 01be 5654 05bd b227 813d
00000360: 8ef6 c03d 1cfc 7fbc a223 093d 22a6 143c
00000370: e5e0 d23c f8a2 c5bd 35a0 683d 270e dc3c
00000380: 14b3 1dbd 0e62 29bd 5089 97bd 343a f3bc
00000390: 9052 cc3c 9820 f4bd aca3 e73c 1a4d 17bd
000003a0: c326 f6bb 70c7 e1bd 08b9 10bd 37dc 2ebd
000003b0: 13e9 933d fd9b 153c 5f6b 153d 19eb 40bd
000003c0: d8f5 67bc b849 b93a b6fc aabc 588b b53c
000003d0: b256 a0bd f700 a93c d4c1 a13c e2af 94bb
000003e0: 7428 963d eae7 c5bc aa8d 663c 729a 513c
000003f0: a28e 0c3d 00fc e5bc eae5 273d 7c6d debd
0.04115174 0.055649713 0.006163671 0.058809925 0.04983672 0.051819682 0.0159776 -0.047754005
0.052725546 -0.03619474 0.013016429 -0.068374634 0.0120580625 -0.021711199 -0.069671676 -0.010613276
-0.016953662 0.014177525 0.013267494 -0.003720975 -0.021977779 0.041787412 -0.02528735 -0.03262864
-0.012439527 -0.02686139 0.026018433 -0.0019132076 0.046106085 0.0112279225 0.085011005 0.077341735
-0.014533851 0.056884255 -0.0012436239 -0.05867361 0.0150326425 -0.05273077 0.03186814 -0.027131766
-0.016319545 -0.013665177 -0.065588206 0.0484901 -0.0324235 0.045895528 0.05321996 -0.05860064
0.017107245 0.05309642 0.07433432 0.052145418 -0.06578759 -0.0363467 0.010927021 -0.021924946
-0.043017346 0.021013515 -0.07113897 -0.06054786 0.0027033351 0.015983429 0.019125199 0.039736986
0.0134305 0.03649379 -0.00090477336 -0.044313923 -0.098211266 0.07527669 -0.08241505 0.071147546
-0.005230624 -0.04448133 0.06668237 -0.0390519 0.016548252 0.03624633 0.0070736306 -0.051936936
0.08346028 -0.028862014 -0.0740406 5.1579438e-05 -0.0073320656 -0.00804518 -0.06505926 -0.0034131752
-0.045896787 -0.058980323 0.018051341 0.046302628 0.031500973 0.0148881 -0.01740762 -0.024657773
-0.015477423 0.07178603 0.060066402 -0.011772775 0.037280083 0.030778728 0.06844469 -0.039238542
-0.059394203 0.07840386 -0.0797492 0.042019464 0.036911108 -0.0416807 0.039292924 0.019775076
0.029048333 0.078093514 0.08302793 0.062135644 0.023033638 0.07008597 0.04105656 -0.04587599
-0.06262083 0.024502387 -0.15012397 0.046926834 -0.055340584 -0.034038525 0.043573286 -0.016148627
0.044421244 0.061128728 -0.0528336 -0.039858636 -0.049773026 -0.07078087 0.04757364 -0.050474033
-0.01529437 -0.051376287 -0.06652078 -0.084332354 0.03404785 -0.07568798 -0.028010998 0.061306234
-0.024108078 -0.037054144 0.06342466 0.085667975 0.02004213 0.031814165 0.077006236 -0.04650859
0.06233091 -0.031308886 -0.08111744 0.022800166 0.03508848 0.06623638 0.009990331 -0.06475851
0.05623699 -0.07448832 -0.007940967 -0.058773607 -0.059357498 0.032517985 -0.035989944 0.047571402
0.0061203353 0.017255573 -0.106658965 -0.012564662 -0.062396247 0.0032983832 -0.118805155 0.06311646
0.045084275 -0.04997984 -4.1831518e-05 0.03724335 0.003180724 0.02248089 -0.022987664 0.020472072
-0.059654683 -0.030610085 0.075101614 -0.011343515 -0.05402992 -0.008219162 -0.015679134 0.008564034
0.08824909 0.03445542 0.050680228 0.056564942 0.01367047 0.023645258 -0.07862435 -0.08426806
0.034551676 -0.033549115 0.06929937 -0.017710906 -0.027471233 0.05525027 0.005928694 -0.08165559
-0.053094335 0.08411235 -0.066551834 -0.031415004 -0.116714835 -0.12626588 -0.032551132 0.063063994
0.094220266 -0.015624072 0.033481248 0.009072812 0.025742004 -0.096502244 0.05679341 0.026862217
-0.03850086 -0.041353278 -0.07399237 -0.02969084 0.024941713 -0.11920279 0.028276287 -0.036938764
-0.007511945 -0.11024368 -0.03533271 -0.042690482 0.0722219 0.009131429 0.03647935 -0.047099207
-0.014157735 0.001413635 -0.020872455 0.02216117 -0.07829036 0.020630343 0.019745745 -0.0045375684
0.073319346 -0.024158437 0.014071861 0.01279317 0.034315713 -0.028074265 0.040990748 -0.10860726

fc2.bias f4 [64]
00000000: ca60 fe3b 0e6f a3bd 0cc4 8fbc df6b f2bc
00000010: e09a 82ba 84d6 a03d 1483 c13c 8257 adbd
00000020: 16f4 90bd 0693 863d 255e 183d 3f53 17bd
00000030: 7ae9 fcbb 5de8 8e3d 82cf adbd fc60 a53d
00000040: 7ec6 7d3d 0e7d b23d e6f2 0ebd d181 4fbd
00000050: e2b9 4ebd f2fd 113d fb42 62bd c15d 74bd
00000060: e496 a83d 79cd 9d3d b25e 7ebd 96fe 8f3d
00000070: eb8b 8eba 382e f7bc 5387 8fbd d16b 68bd
00000080: d6d2 0abd 136d a53d 72c2 1ebd a290 6fbb
00000090: 7e67 423d 74cf 373d 01bc 293d 3c6c 5d3b
000000a0: 0733 813d 274b 8c3d b3bf a6bd fee6 283d
000000b0: 7eaf 373d e4dc 873d 7c8b 693d 6e8f 873d
000000c0: ee4e a1bb 5cac cc3c e620 523d e033 d93c
000000d0: 1439 863d ec24 b3bd 94af ab3d 7ec8 38bd
000000e0: 50a5 a3bd bebb 1ebd 1219 8c3c 92c5 fabc
000000f0: c29a 57bd 32b6 5dbd d04d 3dbc a743 633d
0.007763003 -0.079801664 -0.017549537 -0.029592453 -0.0009964369 0.078534156 0.023622073 -0.084639564
-0.07077806 0.06571011 0.03719916 -0.036944624 -0.0077182623 0.069779135 -0.084868446 0.08075139
0.061956875 0.087152585 -0.034899615 -0.050660912 -0.05047024 0.03564257 -0.05523966 -0.059659723
0.08231905 0.077052064 -0.062102027 0.0703098 -0.0010875439 -0.030173406 -0.07008233 -0.056743447
-0.033892475 0.08077445 -0.038759656 -0.0036554714 0.04746198 0.044875577 0.04143906 0.0033786437
0.06308561 0.06850272 -0.081420325 0.041235916 0.044845097 0.066339284 0.05701779 0.06619154
-0.004922739 0.024984531 0.051300906 0.026513994 0.065538555 -0.08747277 0.08383098 -0.04511308
-0.07990515 -0.038753264 0.017101798 -0.030611787 -0.052637823 -0.054128833 -0.0115541965 0.05548444

bn2.weight f4 [64]
00000000: 6c9b 6f3f 3089 773f 9523 763f aa45 903f
00000010: 5209 893f f71b 723f bb89 783f 5dd6 8b3f
00000020: 083b 7a3f d890 813f f38b 8d3f 3e74 703f
00000030: 7cef 7b3f a0f0 753f 3cf4 7a3f 3a95 7e3f
00000040: 082b 773f 0e9e 713f d269 7b3f fce1 743f
00000050: 192e 6d3f 7b5d 783f 3ef4 7a3f cad2 873f
00000060: 7970 713f 17bd 853f e980 713f 7651 7c3f
00000070: 8c91 773f 88f6 663f a320 813f 824a 763f
00000080: fbe5 723f a2ab 8a3f e84c 733f 74fe 803f
00000090: 8e11 8e3f ccb9 7c3f 79ad 803f deb3 903f
000000a0: b4e9 823f a378 7c3f f8f0 743f 702a 7e3f
000000b0: 48e0 823f d48e 813f a116 803f c2e7 7d3f
000000c0: 4e4b 733f 006d 7a3f cc77 743f d4d6 863f
000000d0: 0488 6d3f bf14 793f e6b2 823f 28a0 7c3f
000000e0: c653 893f 1c09 7b3f 64c5 763f 46a2 6f3f
000000f0: b201 7c3f a8e4 713f a324 753f b786 753f
0.9359653 0.96693707 0.96148044 1.127126 1.0705969 0.9457392 0.9708516 1.0924793
0.97746325 1.0122328 1.1058334 0.9392737 0.984123 0.9607029 0.9802892 0.9944645
0.96550035 0.943818 0.98208344 0.95657325 0.92648464 0.9701764 0.98028934 1.0611203
0.94312245 1.0448331 0.94337326 0.985618 0.9670646 0.90219927 1.0088085 0.9620744
0.9488217 1.0833628 0.95039225 1.0077653 1.1099107 0.98721004 1.005294 1.1304891
1.022757 0.9862158 0.9568019 0.99283504 1.0224695 1.0121713 1.0006906 0.9918176
0.9503678 0.9782257 0.95495296 1.053431 0.9278567 0.9729728 1.0210845 0.9868188
1.0728691 0.98060775 0.96394944 0.93606985 0.98440087 0.94489527 0.9575903 0.95908684

bn2.bias f4 [64]
00000000: e833 3ebd 90e5 90bc 48ee 3fbc bac6 783d
00000010: b782 a73c 80b6 ac38 bcef cabc f868 7bbc
00000020: 24ab 853d e0b4 34bb 8c4c 3a3d fe3d edbc
00000030: 5cec 26bb e4de a83b 7605 ac3c a6d1 9abc
00000040: 426e 1cbd 9664 27bd a0d4 a23a 38a1 3ebd
00000050: 667b b8bc 39be 7d3d 4027 90ba fed5 eabc
00000060: e0fa 0abd a8f6 6e3d d05d 00bb c645 d43b
00000070: 0ce8 1f3c 8221 2bbd 9955 5b3c c60a 39bc
00000080: 31b2 47bd 627a 27bd 8279 6dbb 88f0 63bb
00000090: 0475 f73c bc34 07bd 14ad e2bb 5b90 db3d
000000a0: 2638 3e3d b1c3 c63c a02c 88bb 72f1 e0bc
000000b0: 0865 c2bb 4093 c23c f107 46bc 350a 29bd
000000c0: a6fd 1ebd 545d 243d da21 0fbd b832 42ba
000000d0: d385 77bd 7e25 bbbc 1b05 40bc 6070 c8ba
000000e0: c24c c13c fa66 afbc 3965 a13d e088 1cbd
000000f0: edd6 f23c 5bb3 95bc 0a55 60bd 1bfb bbbc
-0.04643622 -0.017687589 -0.0117145255 0.060736395 0.020448072 8.2355924e-05 -0.024772517 -0.015344851
0.06526783 -0.002757363 0.045483157 -0.028960224 -0.002547047 0.0051535238 0.020998698 -0.018898796
-0.038191088 -0.04086741 0.0012422986 -0.04654047 -0.022519778 0.06194899 -0.0010998026 -0.028666493
-0.03393066 0.0583407 -0.0019587167 0.006478044 0.009759914 -0.041780002 0.013387107 -0.0112940725
-0.04875392 -0.040888198 -0.0036235754 -0.003478082 0.030207165 -0.033009276 -0.006917605 0.10720893
0.046440266 0.024263235 -0.0041557103 -0.02745888 -0.005932454 0.023751855 -0.012086854 -0.0412695
-0.038816117 0.040128067 -0.034944393 -0.00074080704 -0.06043036 -0.022845026 -0.011719967 -0.001529228
0.023596171 -0.021411408 0.07880635 -0.03821647 0.0296435 -0.018274 -0.0547686 -0.022946885

bn2.running_mean f4 [64]
00000000: 2843 fd3d 9036 ddbe 5dca 7f3e 717a 1abe
00000010: d449 b6bd 99c2 7abf a3ac ec3e 169a d5be
00000020: 4c95 c8be 2e35 11be b2ed 3abe b6e8 3e3e
00000030: 6e80 cabc bcc0 e03e 3acd a8bf 30d5 f7be
00000040: 4a0c d63d e9b4 9e3e 7a5a fcbd b203 3d3e
00000050: 5c7e adbe fb8e 6abe e40b dc3c e7cb 93be
00000060: d26b 093f 133b 3abe b8eb 4fbf 252e 67be
00000070: 7828 6bbf 4e59 afbe 3d78 99bf 7dc5 f73e
00000080: c189 533f 6fbc 8abe 8478 6bbf 08b7 063f
00000090: acf3 81be 108c f43e 4553 133e c426 a4be
000000a0: 24b8 57be a420 6dbf d683 2cbf a68c 1b3f
000000b0: 807b 1ebf 06bd f0be 834a ff3d 16f6 8fbe
000000c0: 9692 9d3e 9106 53be 6c95 983d 4731 c4bd
000000d0: 44b8 6c3e 82ae 41bf 98eb d9bd 38d7 debe
000000e0: 82a8 3dbe 46fd 943e 3508 a7bd 02e7 02bf
000000f0: 1dfe 83be bed7 e73d 680b ae3c 6786 f93e
0.12366325 -0.4320569 0.24979539 -0.1508577 -0.089008 -0.9795318 0.4622546 -0.4171912
-0.39176404 -0.14180443 -0.18254736 0.1864346 -0.024719443 0.43897045 -1.318763 -0.48404837
0.10451563 0.30997398 -0.123219445 0.18458441 -0.33885467 -0.22906105 0.026861139 -0.28866503
0.53680146 -0.18186598 -0.81219053 -0.22576196 -0.91858625 -0.34247822 -1.1989819 0.4839286
0.8263207 -0.27096888 -0.9198077 0.52623034 -0.2538122 0.4776311 0.14387234 -0.32060826
-0.21066338 -0.9262793 -0.67388666 0.6076149 -0.61907196 -0.47019213 0.12465384 -0.28117436
0.307759 -0.20607974 0.07450375 -0.095797114 0.23117167 -0.756569 -0.10640639 -0.43523574
-0.18521312 0.29099482 -0.08155862 -0.5113374 -0.2577981 0.113204464 0.021245673 0.48735353

bn2.running_var f4 [64]
00000000: e6cc b33e dd28 933f 399d 2b3f 26c2 ec3e
00000010: 80d6 b13e bdfc db3f bdce 5c3f fc3c 003f
00000020: b867 7d3f 7e68 083f 7abe 1c3f 2681 1e3f
00000030: 3d2a 8e3f 4274 9c3f 20c3 1740 1696 143f
00000040: 9a93 af3e 4a1e 0e3f 2b80 003f 93cc 093f
00000050: eaa0 153f 4584 053f b28a 3d3f 7e85 063f
00000060: 4e18 823f 3c56 e23e 28e0 443f a67f dc3e
00000070: 1cd4 b53f 5fae e23e de22 ad3f 1e8c 653f
00000080: a1f6 483f a63d d83e 836c bc3f 83fb 033f
00000090: dcd4 0d3f 0a40 413f 4087 0f3f 08c0 fb3e
000000a0: f9ed b53f 4d90 9c3f a504 5e3f a330 7e3f
000000b0: c862 503f cb13 643f 66a0 4d3f 35aa 043f
000000c0: bcc6 003f 70d5 363f 6322 873f e093 203f
000000d0: 187e 073f 1881 f13e 00e2 133f e8a7 313f
000000e0: de59 343f b5a8 ea3e 4ad9 d03e dc9b f13e
000000f0: 8850 593f 37be 5d3f 5585 3a3f cb5d 4a3f
0.35117263 1.1496845 0.6703678 0.46241874 0.34733963 1.7186505 0.8625296 0.50093055
0.9898639 0.5328444 0.61228144 0.61915815 1.110664 1.2222979 2.3712845 0.5804151
0.342923 0.5551497 0.5019557 0.5382778 0.5844866 0.5215495 0.7403976 0.5254744
1.0163667 0.44206417 0.76904535 0.43066138 1.4205356 0.4427366 1.3526266 0.89666927
0.78501326 0.42234534 1.4720615 0.5155565 0.5540292 0.7548834 0.5606575 0.49169946
1.4213248 1.2231537 0.86725837 0.99292964 0.8140073 0.890927 0.80322874 0.51822215
0.50303245 0.7141943 1.0557369 0.6272564 0.5292678 0.47168803 0.57766724 0.6939683
0.70449626 0.45831838 0.40790778 0.47189224 0.84888506 0.8661837 0.728597 0.79049367

bn2.num_batches_tracked f8 []
00000000: 0000 0000 0024 a340
2450.0

fc3.weight f4 [32, 64]
00000000: bd66 ce3c ed9c 233d 9ed1 ecbc 3674 2dbd
00000010: ce94 b0bc fe5c d7bd d56a a0bd c992 51bc
00000020: 8e2b 11bc c9f3 463c c1d6 4e3e 8a41 c43b
00000030: 42c6 52bd 919e 963d 1cbb ae3d c7a6 90bd
00000040: 5f4e d6bc 663c 54bd 281f 83bd 805b bb3c
00000050: 85d5 383c f421 ddbd 72c7 c7bc eae2 70bd
00000060: 2062 4cbd 650e fb3d 0afa 803d 9c8b aabd
00000070: 5f17 823d 176e 20bd 7868 173e aa76 0bbd
00000080: d6d8 493d b44a e1bd aa92 f0bd 3f73 06bd
00000090: 065c 413e 02d0 c13d 48fe 1e3d 5f11 0c3e
000000a0: a8f8 093d 2a75 cabc 68bb bd3b d282 66bd
000000b0: 6294 5cbd 448b 20be 87e0 cd3d c5e4 8a3d
000000c0: 9271 263d 9ee3 3d3d 141f c63d 30df 203d
000000d0: 7c80 17bb 2cba a83d 84eb f63c 626f a2bd
000000e0: 4417 c53c d2e3 ab3d 802d 0f3b 63d8 9f3d
000000f0: d065 713c b59f 9ebd 327e b2bd d5ef 17bd
00000100: 07b9 47bd c936 18bc 0c00 593d 33c1 f03d
00000110: 5a56 423d c841 ff3d d6e9 abbd d80f a03d
00000120: 942c 76bd f9a4 edbc 7a8f b7ba f55a 473c
00000130: 5a7c 2c3c cc8e 503c 9847 c73d c467 843d
00000140: b8fe 7cbd a4ea b23d 5058 c03d b2b8 4fbd
00000150: e3f7 12bd caa9 8bbd f019 aebd 2017 3c3e
00000160: 62ee bbbd da48 013e e873 65bd c2c3 85bd
00000170: 8e36 a43d 074d f03b e523 7dbc cf21 48bd
00000180: 7318 4cbd 6c2d 493d da0a dc3d 601b 11bd
00000190: 02c6 063e 4a86 b83d 9233 c53b c5b4 df3d
000001a0: cb67 ac3d 104c 82bd da23 e53d 29bf 423d
000001b0: 8ee3 c43d 0473 86bd cb11 b2bd 64b1 1cbd
000001c0: 5044 8e3d 0200 4cbc c241 a83d c874 c23d
000001d0: 45ed 003e 4544 c2bd 92f3 8d3d af17 f03b
000001e0: 6fa0 d83c b664 d6bd 1eb0 a4bd 2f72 7b3c
000001f0: d362 98bd 1a84 78bd abfb e13d 9a33 67bc
00000200: 6e24 7dbd dfa7 ddbd 04cc 0ebc 245a 823d
00000210: 50ec 8d3c ad9b 673d 6e05 86bd f493 353b
00000220: 5e2e 89bd 7c3d 1a3e 1e33 e43d 5dd9 643d
00000230: 66a8 573d b623 52bd 502b 5bbd 6a0b 60bd
00000240: 6cd5 053d 3dd8 e53c 9682 93bd e74d dc3d
00000250: f24d 23bd 78b0 b5bd f28d 433d 78fc 183b
00000260: dbfd cbbd b016 503d 44a7 073d a024 8bbc
00000270: 31f5 3e3d 271f dbbc 7aaa d53a 746e f9bd
00000280: def8 68bd 794b e13c 2453 24bd c696 de3c
00000290: 121f d23d 52fe dbbd 80c3 0f3d 4df6 1c3e
000002a0: c572 a8bd 2cc5 9b3c 98c3 8cbd 2c27 87bd
000002b0: 2f34 a4bd 604d e2bd 1c08 123e 6708 ba3d
000002c0: 54ce 6e3d 4a8c 7cbd ac43 13bd 20f9 963d
000002d0: d838 a13d acd2 fd3b 4531 073d 1b73 a4bd
000002e0: 6dcb 00bd 9639 053d 951f 093c 8c7d af3c
000002f0: a8a7 a93c 2859 a23b 9839 81bd b961 1e3d
00000300: e85d 753a c0eb 543c 4469 bf3c 92e4 683d
00000310: 55b3 063c a416 f4bb 42ff 8ebd 86f9 423e
00000320: 6862 8fbd f0c0 22bd 9f16 cc3d ba13 74bd
00000330: 32da f8bd e175 11bd ee65 ec3d eb3d 9b3d
00000340: d24c b83d 1a60 aa3b 6267 b7bc 9a44 c8bb
00000350: d5e0 b93c cf79 903b 13e4 6dbd c64e 393e
00000360: 2c11 84bd 11ef 9c3d f890 8d3d 3a0a c2bd
00000370: d635 103d 0866 66bd faf1 b8bd b876 6abd
00000380: f06b 5f3d 40b8 233e 8371 9cbd 6290 9bbc
00000390: db95 abbd c179 09bd 822d 403d 88cb e43d
000003a0: fa55 133d e530 d5bc 2200 873d 389a 853c
000003b0: 6a5e d03d 5a68 703d c32d bb3d a058 203d
000003c0: 44c6 313d dc07 8f3a 1219 46bd df2d dc3c
000003d0: 4452 943d d05d 4cbd e173 943d ef48 4b3d
000003e0: 84d3 dbbd 1013 9f3d 4af1 04bc 2e70 fe3c
000003f0: a7ff b3bd 85a6 89bd 1b47 0ebd ced4 d83d
0.025195474 0.039944578 -0.028908547 -0.042347156 -0.02155533 -0.10515784 -0.078328766 -0.012791344
-0.008860482 0.012143084 0.2019911 0.005989258 -0.051458605 0.07354463 0.08531782 -0.0706306
-0.026160417 -0.051815413 -0.06402427 0.022870779 0.011281376 -0.10797492 -0.024387095 -0.058810152
-0.049898267 0.12258605 0.06297691 -0.083274096 0.06352114 -0.03916749 0.14785945 -0.034048714
0.049279056 -0.110005766 -0.11746724 -0.03282475 0.1888276 0.094635025 0.03881672 0.13678502
0.033684403 -0.024714071 0.005790163 -0.056277104 -0.053852446 -0.15678126 0.10052591 0.067819156
0.040635653 0.04635965 0.096738964 0.03927535 -0.0023117354 0.082386345 0.0301416 -0.07931401
0.024058945 0.08393063 0.0021847188 0.07804944 0.014733747 -0.077453054 -0.08715476 -0.037093956
-0.04876044 -0.009290406 0.05297856 0.117556 0.047445633 0.12463719 -0.0839421 0.07815522
-0.060101107 -0.02900933 -0.0014004551 0.012167682 0.010527695 0.012729358 0.09730452 0.06465104
-0.061766356 0.087361604 0.09391844 -0.05071325 -0.035880934 -0.06819494 -0.08501041 0.18368196
-0.09176327 0.12625447 -0.05601874 -0.065314785 0.08018218 0.007333401 -0.015450452 -0.048860367
-0.049828004 0.049115583 0.10744257 -0.035426497 0.13161471 0.090099886 0.0060181106 0.10923151
0.084182344 -0.06362164 0.11188479 0.047545586 0.09613715 -0.06564906 -0.086948 -0.03825511
0.06946623 -0.012451174 0.08215667 0.094949305 0.12590511 -0.09485678 0.06931223 0.007327042
0.026443688 -0.10468428 -0.08041404 0.015347048 -0.07440724 -0.060672857 0.1103433 -0.014111424
-0.06180232 -0.108230345 -0.008715633 0.06364849 0.017324597 0.05654495 -0.065440044 0.0027706595
-0.06698297 0.15062517 0.11142562 0.055871356 0.05265083 -0.051303588 -0.053508103 -0.054698385
0.032674238 0.028057212 -0.07202642 0.10757046 -0.039869256 -0.08871549 0.04774279 0.0023343842
-0.099605285 0.050802886 0.0331185 -0.016985238 0.04662055 -0.026748253 0.0016301416 -0.121792704
-0.056877963 0.027501808 -0.04011835 0.027171504 0.102598324 -0.10741867 0.035098553 0.15328331
-0.082250156 0.019014917 -0.06873244 -0.06599268 -0.08017766 -0.11049914 0.14260906 0.09083634
0.05830224 -0.061657228 -0.03595321 0.073717356 0.0787217 0.0077460613 0.03300597 -0.08029767
-0.031444002 0.03252562 0.008369346 0.02142217 0.020709828 0.004954476 -0.06309813 0.038667414
0.00093600014 0.01299566 0.023365624 0.056858607 0.008221467 -0.007448988 -0.0698228 0.19040498
-0.070011914 -0.03973478 0.09965252 -0.059589125 -0.121509925 -0.03551281 0.11542879 0.07580169
0.08999027 0.0051994445 -0.022388164 -0.0061116936 0.022690216 0.004409052 -0.058078837 0.18096456
-0.06448588 0.07662786 0.06912416 -0.09474607 0.035207592 -0.05624965 -0.09030528 -0.057242125
0.054546297 0.15988255 -0.07638838 -0.018989746 -0.08378192 -0.03356338 0.0469184 0.11171633
0.035970666 -0.026024291 0.06591822 0.016308889 0.10174258 0.058693267 0.09139588 0.03914702
0.04340197 0.0010912376 -0.048363753 0.026877342 0.072422534 -0.049894154 0.07248665 0.0496301
-0.10733703 0.07767308 -0.008114168 0.03105935 -0.08788996 -0.06721214 -0.03473578 0.10587464

fc3.bias f4 [32]
00000000: 8650 d93d 0d7f 2c3d 3497 bbbd 7237 3ebd
00000010: 96cf 2abb 5c2b f93d 4481 f53d 94ca a3bd
00000020: 856a 7abc a421 e9bb f8f2 d83d 2d85 bdbd
00000030: 7c69 543c dafb 683d decf ccbd b98c b5bd
00000040: 3c43 edbd 7c28 4ebd 1d7d cc3d 54d6 f93d
00000050: 9aa6 213d ae71 ee3c eb0a 96bd 5423 a3bb
00000060: a290 123b 66c3 38bc 8fae bf3d 7ec5 e43d
00000070: 7295 f6bb 08ab 4bba 5a7f fabc 6468 b63c
0.10611062 0.042113353 -0.09159699 -0.046439596 -0.0026063672 0.12166473 0.11987546 -0.07997623
-0.015284185 -0.007114606 0.105932176 -0.09253917 0.012964603 0.05688081 -0.10000585 -0.08864731
-0.115850896 -0.050331578 0.09984801 0.12199083 0.039465524 0.029106941 -0.07326301 -0.0049785767
0.002236404 -0.011277055 0.09359466 0.11170481 -0.0075251395 -0.0007769321 -0.030578304 0.022266574

bn3.weight f4 [32]
00000000: e302 ab3f 2a4b b23f 100c ab3f 44b2 a13f
00000010: b660 893f 7a29 a63f b633 8d3f 5f83 a83f
00000020: 88fc 8d3f 2561 873f 1092 8e3f 46d1 8c3f
00000030: 4975 883f 0c23 ae3f a66e a43f db9f a23f
00000040: d224 a93f 4a32 b23f 3a1c a83f 79be 8d3f
00000050: 54b8 b63f f826 8f3f 22df 893f ee31 aa3f
00000060: f6d7 8e3f a4e1 873f 199a 8f3f de74 a53f
00000070: b874 a33f 8436 8d3f 7bbd 8d3f f494 8c3f
1.3360256 1.3929188 1.3363056 1.2632527 1.0732639 1.2981408 1.1031406 1.3165091
1.1092691 1.0576521 1.1138325 1.1001365 1.0660793 1.3604445 1.2846267 1.2705034
1.3214362 1.3921597 1.3133614 1.1073753 1.4275002 1.1183767 1.077122 1.3296487
1.1159656 1.0615735 1.1218902 1.292629 1.2769995 1.1032262 1.107345 1.0982957

bn3.bias f4 [32]
00000000: 2eab 963e af9f a83e 6bdd 9c3e 1c04 5a3e
00000010: a33c 3a3c f2cf 883e 3435 f03c 729e 8d3e
00000020: 4ab5 f83c 36aa d63b ca0b 0f3d 6267 a23c
00000030: fa4f 2fbc 8642 9f3e aad7 6b3e 3a2e 503e
00000040: ad3e 8b3e a63e a53e 5689 9b3e e7f4 633c
00000050: f05f c13e 9d1d ec3c 8cdc 523b 7bf5 913e
00000060: c8d4 973c 0090 9838 0abd a83c f51d 813e
00000070: 86a6 773e 0409 da3c 7848 b23c a330 633c
0.29427475 0.3293433 0.30637679 0.2129063 0.011366996 0.2672115 0.029322244 0.27659947
0.030359883 0.0065510524 0.034923352 0.019824687 -0.01070022 0.3110544 0.23031488 0.20330134
0.27196255 0.3227436 0.30378217 0.01391337 0.37768507 0.028822714 0.0032174913 0.285076
0.01853408 7.274747e-05 0.020597953 0.25218168 0.24184617 0.026615627 0.021763071 0.013866576

bn3.running_mean f4 [32]
00000000: fac6 713e 7a1e f13e 04cf e4bd ec8c 8e3e
00000010: cad3 87be 2e3b 533e 2f26 73be 6645 b6bd
00000020: 7e60 e2be 5ca5 d0be 47b0 7abe c645 17bf
00000030: 4a9c 93be bb94 643e f4ff 953e ff5f 8d3e
00000040: bc70 623e efd3 8c3e 7a5c 9bbd 0693 a8be
00000050: 9361 913e 780c 05bf 4624 e0be c735 933e
00000060: 3ddb d7be 1a92 e7be 346d e4be 0c5d d33e
00000070: d24c 263e ca2f e2be ddfa 99be 33d5 8abe
0.2361106 0.47093564 -0.111722976 0.2784189 -0.2652877 0.20628044 -0.23745035 -0.088999555
-0.44214243 -0.4075116 -0.24481307 -0.5909084 -0.28830177 0.22322361 0.2929684 0.27612302
0.22113317 0.27505443 -0.07585998 -0.3292467 0.28394756 -0.5197215 -0.43777674 0.28751966
-0.42159453 -0.45228654 -0.44614565 0.41281927 0.16240242 -0.44177085 -0.30074206 -0.27115783

bn3.running_var f4 [32]
00000000: 886f 373e 574d 5c3e 832e 073e d448 393e
00000010: ca8a 723e 665d 093e 0014 1b3e 4b7e 333e
00000020: a06b 013e 4aea 343e c09e ba3d f0a7 f03d
00000030: ba39 353e f82c 333e e625 5f3e 4604 2c3e
00000040: 5864 843e 8344 623e 1c27 eb3d f950 b53d
00000050: 2d14 293e d629 c93d 21bf 113e e01e 383e
00000060: e0a1 ec3d 8c34 263e 4e17 9e3d 50a5 4f3e
00000070: ee6c 803e 7a86 193e 6556 bb3d 6a42 093e
0.1791364 0.21513878 0.13201337 0.18094188 0.23685756 0.13414535 0.15144348 0.17528646
0.12638712 0.17667499 0.091123104 0.117507815 0.17697802 0.17497623 0.21791801 0.16798505
0.25857806 0.22096448 0.11482069 0.08853335 0.16511603 0.09822433 0.14233066 0.17980528
0.11554313 0.16230983 0.07719289 0.20277905 0.25083107 0.14992705 0.09147338 0.13404241

bn3.num_batches_tracked f8 []
00000000: 0000 0000 0024 a340
2450.0

fc4.weight f4 [1, 32]
00000000: b694 9fbe 4410 63be be2e 9abe 28ee b7be
00000010: f431 f63d 7dbd a1be fc84 433e 687d 45be
00000020: 2243 373e 26ab 463e d268 663e fc13 fb3d
00000030: 2252 303e 713c 84be d6ac 9abe 3053 3abe
00000040: 5696 89be 2048 71be 6657 9cbe 26fe 213e
00000050: 8ce4 6ebe 9671 593e 650d 1b3e 8f14 a5be
00000060: c0d6 6e3e 8e61 4b3e d672 373e d067 bebe
00000070: 32d5 c4be 8c9b 6f3e 1e30 4c3e c0d5 663e
-0.31168145 -0.22174174 -0.30113786 -0.35923886 0.120212466 -0.3158988 0.19093698 -0.1928612
0.17896703 0.19401225 0.22500923 0.12259671 0.17218831 -0.25827363 -0.30209988 -0.18195796
-0.2687251 -0.2356267 -0.3053543 0.15819606 -0.23329371 0.21234736 0.15141828 -0.32242247
0.23324108 0.19861433 0.179149 -0.37188578 -0.38443905 0.2339918 0.1994023 0.22542477
