examples/hello-world/ml-to-fl/pt/enhanced_fraudnet/jobs/workdir/server/simulate_job/app_server/FL_global_model.pt (torch, 68201 bytes, 22 tensors)

fc1.weight f4 [128, 30]
000000 9f 78 33 bb 20 a7 12 bd 4a 07 94 3e 73 2e 09 be
       -0.0027385128 -0.035803914 0.2891181 -0.13396625
000010 0a d4 b3 3e 7c c4 63 bd dc 91 62 be 93 51 8e be
       0.3512271 -0.055607304 -0.22125953 -0.2779661
000020 a0 2f 74 be 38 c2 21 be fa 16 cb be 99 a1 8f 3e
       -0.23846292 -0.15796745 -0.39665967 0.28052977
000030 4a e3 f5 be 4c 91 bf be 51 58 8b be a1 3d 82 be
       -0.4802497 -0.3741554 -0.27215818 -0.25437644
000040 f2 fb 9c be 82 c6 a8 be a8 ed 89 be 9e 25 68 3e
       -0.3066097 -0.3296395 -0.2693913 0.226706
000050 70 1c 39 3e ff 3f 86 3e 08 79 43 3e 02 8e d0 bd
       0.18077254 0.262207 0.19089139 -0.10183336
000060 d5 6d 9c 3d 12 6e 52 3c 94 46 34 3d 20 86 45 3e
       0.07638136 0.012843626 0.04401262 0.19289446
000070 ac 8a 91 3e e4 89 4b 3e d8 8b 27 3a 1d 1a d7 3d
       0.2842611 0.1987682 0.0006391383 0.105030276
000080 a4 dd c1 3d 50 99 d5 bd e2 b6 0c 3e dd 4c f3 bd
       0.09466103 -0.10429633 0.1374164 -0.11879895
000090 ae f3 cf bd e4 49 88 bc dd bf 49 3d d3 08 b6 3d
       -0.101539 -0.016636796 0.04925524 0.08888402
0000a0 df 21 1b 3d 9e a3 5d 3e 13 b3 f7 bd 40 1f 34 bd
       0.0378741 0.21644446 -0.120947026 -0.043975115
0000b0 60 5e a3 be 36 bc 15 3d 34 b1 24 be 84 19 be bd
       -0.3190794 0.036556445 -0.16083223 -0.092822105
0000c0 c4 16 40 be 2b 18 f9 3d 29 9f 0e 3e 87 12 5c 3c
       -0.18758684 0.12162813 0.13927902 0.013432152
0000d0 79 c1 aa bd 06 3a 42 be 90 34 34 be 43 3c 48 be
       -0.08337683 -0.18967447 -0.17598176 -0.19554238
0000e0 00 12 71 3d cf 36 68 3e 4b 35 5f 3e 0b 7f 28 bd
       0.058855057 0.22677158 0.21797673 -0.041136783
0000f0 96 00 45 3c 03 84 2e 3e 46 b1 1c be 70 d9 b7 3e
       0.0120240655 0.17042546 -0.15302 0.3590808
000100 0f 2c 85 be e0 f0 d4 3d 69 9e 50 bd 6a 13 7d 3e
       -0.26010177 0.10397506 -0.05093232 0.24714437
000110 16 2f 7b 3e 57 1f 9d 3d 5a 5b fd 3d 18 41 39 be
       0.2452968 0.07671993 0.123709396 -0.18091238
000120 3e 73 3b 3e 95 09 95 3d c4 bf e9 3e 57 88 83 3e
       0.1830568 0.07277218 0.45654118 0.25689957
000130 8e 1e fd 3d aa f0 95 3d 68 7e a0 3e 3b 74 06 bc
       0.123593435 0.07321294 0.3134644 -0.008206422
000140 0b bb 93 be b0 2d 9c bc 36 29 33 be dc 96 a1 3c
       -0.2885364 -0.019064754 -0.1749619 0.019725256
000150 20 7c 25 bc 40 72 e3 ba da b6 35 be 18 9f 1b bd
       -0.0101003945 -0.0017352775 -0.17745534 -0.03799352
000160 57 c6 66 be f0 cf 15 be ce 6e e5 b9 84 c1 df 3e
       -0.22536598 -0.14630103 -0.0004376084 0.43702328
000170 9d 8f cd be 0a 13 d8 3e 00 ee 29 bf e8 9f 52 3d
       -0.4014863 0.42202026 -0.66378784 0.05142203
000180 7a 59 d1 3e f5 fc 0c 3f e6 82 5d be 54 1c e9 3e
       0.40888578 0.5507348 -0.21631965 0.45529425
000190 7a bf 34 3f b3 24 37 bf d6 ac 4a 3f d2 6a 55 3e
       0.7060467 -0.71540374 0.79169977 0.2084153
0001a0 28 b6 5a 3f 52 e9 9b 3e 55 b5 16 3f 5e 51 0a 3f
       0.854342 0.30451447 0.5887044 0.54030406
0001b0 56 f4 0a 3e 07 d7 45 bc a2 e9 3a 3c 82 e8 5f be
       0.1356977 -0.012075192 0.0114082415 -0.21866038
0001c0 3a 69 8e be cf b3 51 3d 9d 72 59 3d 07 b7 44 bd
       -0.27814656 0.05119687 0.05308782 -0.04802611
0001d0 08 b1 cb bc 85 39 81 be d4 87 c6 be 3c bf 05 bd
       -0.024864689 -0.25239196 -0.38775504 -0.03265308
0001e0 50 21 2d b8 58 15 bb 3e ee d2 29 bf 86 42 1b 3f
       -4.127744e-05 0.3653972 -0.6633748 0.6064838
0001f0 52 36 89 bf 48 05 cf 3e 79 31 98 3e f4 37 ab 3e
       -1.0719702 0.40433717 0.29725245 0.33441126
000200 84 ff d0 bc de 8c fe 3e e6 08 89 3f 85 75 47 bf
       -0.025512464 0.49716848 1.070584 -0.77913696
000210 ca 2b 8e 3f 6d 7b 04 3f 70 9d 9b 3f 45 10 58 3e
       1.1107113 0.5175083 1.2157421 0.21099956
000220 7a de 4d 3f a7 51 00 3f 94 79 8a 3e 86 75 69 be
       0.804176 0.5012459 0.27045882 -0.22798738
000230 6b a1 85 3e 63 2a 3e be ad f5 d4 bd fe ed b3 3e
       0.26099715 -0.18570857 -0.103984214 0.3514251
000240 34 76 2b be d8 0b c0 be 7e 4a 35 3d f2 cd d5 be
       -0.1674431 -0.37509036 0.044260494 -0.41758686
000250 58 ab b4 be 2b e7 34 3b 70 19 ed bc 15 2c 44 be
       -0.35286975 0.0027603607 -0.028942794 -0.19157441
000260 c8 89 29 3e ab 0d bb be 10 c6 e2 3e 68 59 54 be
       0.16556466 -0.36533865 0.44291735 -0.20737231
000270 a3 20 26 be b4 fd 56 bd 2a 0d 96 bd d0 b8 b9 bd
       -0.16223387 -0.052488044 -0.073267296 -0.09068453
000280 8a ee f4 be ec 63 ae 3e 1b de 05 be 61 99 63 3d
       -0.4783824 0.3406061 -0.13073008 0.055566195
000290 0c 30 f3 be b4 1f 1f be b4 98 45 bd fa 5b 8d be
       -0.47497594 -0.15539438 -0.048241332 -0.27609235
0002a0 95 de 13 be e2 d1 8a bd a7 b0 45 3d 58 f0 21 3e
       -0.14440377 -0.06778313 0.048264172 0.1581434
0002b0 82 05 11 be 33 89 54 be 40 b4 a9 be 5a 97 cb 3e
       -0.14162257 -0.20755462 -0.33145332 0.3976391
0002c0 81 3c 09 be 6f da 99 bc 96 84 bf bc 02 34 e0 bd
       -0.13401987 -0.018780915 -0.023378652 -0.1094742
0002d0 04 75 bc ba 6c 52 9c 3e fd 51 82 be de ea 1a 3e
       -0.0014378135 0.30531633 -0.25453177 0.15128657
0002e0 80 6f f5 be 28 06 a8 3d 7c 09 7a 3d b7 15 8f 3e
       -0.4793663 0.08204299 0.0610442 0.27946255
0002f0 86 50 6f 3e 4b 1f 2d 3e 0e 87 7d 3e d8 f8 36 be
       0.23370561 0.16906469 0.2475855 -0.17868364
000300 d4 8e fa 3e 84 97 81 3d 51 de 8c 3e b9 ce 37 3e
       0.48937094 0.063277274 0.27513364 0.17949952
000310 48 9e 78 3e f2 7d cb 3e 3f 91 c6 3d 9a 16 98 be
       0.2427913 0.39744526 0.09695672 -0.29704744
000320 00 81 a3 3d 6a 12 9f 3c c2 28 35 be f6 89 90 bd
       0.07983589 0.01941796 -0.17691329 -0.07057564
000330 80 ea bd bd b4 6b 2d be e0 e8 81 3e 23 6b da bd
       -0.09273243 -0.16935617 0.25372982 -0.10664966
000340 d7 47 d0 3d a2 5d 15 3e c3 37 c1 bc 00 87 9d bc
       0.10169952 0.145865 -0.02358616 -0.019229412
000350 c8 f7 e9 ba 62 59 31 bd d8 5a 32 3e 79 57 b9 bd
       -0.0017850334 -0.043298133 0.17417467 -0.09049887
000360 84 af 10 3e 69 b4 48 bd ac de 5d 3d ae d0 d9 3d
       0.14129454 -0.049000178 0.054167435 0.106355056
000370 9d a7 1d be 76 52 9b 3b 40 23 d4 3b cb 99 fd bd
       -0.1539597 0.0047400547 0.0064739287 -0.12382849
000380 5f 8d fc bd 44 81 30 be 32 ba d0 bd 04 c9 0e be
       -0.12331652 -0.17236811 -0.10191764 -0.13943869
000390 d5 f1 89 3e 8e 6b f9 bd 5e ab 6e 3d 90 37 79 bd
       0.26942316 -0.121787176 0.058268897 -0.060844004
0003a0 46 b7 0a 3e 6c 2a 20 be 31 6f 69 3e b8 79 40 3e
       0.13546476 -0.15641183 0.22796322 0.18796432
0003b0 76 7b 16 3d 5b 42 ca bd d1 ca 24 3c 38 02 45 3d
       0.036738835 -0.098759376 0.010058121 0.04809782
0003c0 74 da 47 3b 42 83 82 3e da fd 51 be ca 77 a5 3e
       0.0030495198 0.25490767 -0.20506993 0.32317954
0003d0 a2 10 25 bf 60 6c cf bd 9f 31 8f 3e 48 07 9f 3d
       -0.64478505 -0.10128093 0.27967545 0.07765061
0003e0 3a 9c 3f 3e f3 67 bb 3e 96 2e 06 3f 6d c7 0e bf
       0.1871194 0.36602744 0.52414834 -0.5577305
0003f0 32 2d 34 3f 17 5c a7 3e 94 20 17 3f 6e 92 34 bd
       0.7038146 0.32687446 0.59034085 -0.04408496

fc1.bias f4 [128]
000000 d4 19 67 3d 14 31 46 3c 40 7e 02 3e 70 61 0c be
       0.056421116 0.012096662 0.12743473 -0.13709044
000010 9f 59 fd bd c8 83 21 3e a7 fd 21 bc 3a 63 a1 3d
       -0.123706095 0.15772927 -0.009887136 0.07880254
000020 aa 5e 33 be 09 06 1b 3e 92 c4 cd bd b0 6b 91 3d
       -0.1751658 0.15139021 -0.100472584 0.07100618
000030 d8 b7 ba bd 62 27 2f be 8e f0 82 bd f2 47 94 3d
       -0.09117097 -0.17104867 -0.063935384 0.07240285
000040 10 7d e8 3d 73 e8 0e be e7 51 a4 bd 48 00 e5 3d
       0.11351979 -0.1395586 -0.08023434 0.11181694
000050 10 53 36 be 5a e6 87 3d a4 3d 23 3e 8e 55 9d 3d
       -0.17805123 0.06635733 0.15941483 0.07682334
000060 3e 66 f7 bd 91 25 78 3b f6 91 74 bd f8 c4 e5 bd
       -0.12080048 0.0037864188 -0.05970951 -0.112192094
000070 42 20 9a 3d e6 40 b9 3d 42 c8 b3 bd fa b0 27 be
       0.07525684 0.090455815 -0.087784305 -0.16376105
000080 56 a1 19 bd c0 27 f1 3d 36 b0 2c be ba e3 03 3c
       -0.037507378 0.1177516 -0.16864094 0.0080499
000090 da a2 13 3e 63 55 c3 bd 94 85 38 3e 08 b8 2b be
       0.14417592 -0.095377706 0.18019706 -0.16769421
0000a0 b8 5d 9e bd 2c 66 c3 3d 36 aa e5 3d 02 8f 5a bd
       -0.07732719 0.09540972 0.11214106 -0.05335904
0000b0 6a b7 f5 bd dd 04 2e 3e 23 09 cb 3d 78 7d e7 3c
       -0.11997874 0.16994043 0.09913852 0.02825807
0000c0 d6 16 aa 3d 60 64 30 be 82 43 0f 3e f2 7e 54 bd
       0.08305137 -0.1722579 0.13990596 -0.051878877
0000d0 38 b4 13 3e 15 b7 8e 3d 8a 75 1b be 60 be 4f 3d
       0.14424217 0.06968514 -0.15181556 0.050718665
0000e0 4e 38 fa bb 2c d4 69 3d 7b 1e 2c ba ae 10 79 3d
       -0.0076361066 0.05708711 -0.0006565821 0.060806923
0000f0 68 6a 0d be 3a 8a dc bd 63 ba d2 bc 5b 13 06 bd
       -0.13810122 -0.10768552 -0.025723642 -0.032733303
000100 66 9a 17 3d 86 b5 b2 bd d6 71 13 3e 81 1a 30 bb
       0.03701248 -0.08726029 0.14398894 -0.0026871266
000110 6a b1 a6 3d 2e cc d3 3c eb 09 35 be 9a d9 23 be
       0.08139308 0.025854196 -0.17679565 -0.16000977
000120 ce d3 24 3d c0 5a f0 3c 9e 22 94 3d ce e5 33 3e
       0.040241055 0.029340148 0.07233165 0.17568132
000130 54 dd 83 3d cf b1 79 bc 90 2c d7 bd 36 74 09 3d
       0.06438699 -0.015240147 -0.105065465 0.033558093
000140 4e 5f 1f be 84 49 2f 3c 72 3c cf 3c 95 93 07 be
       -0.155637 0.01069868 0.025297377 -0.13239892
000150 82 05 46 bd ad a8 37 be 58 76 94 3d 07 9a b0 3d
       -0.048345096 -0.17935438 0.07249135 0.086231284
000160 d9 47 c0 bd 6e 25 28 be 18 0d f6 3c 62 1e 14 3e
       -0.09388704 -0.16420528 0.03003554 0.14464715
000170 9e 6d e2 bd 6c 7b cb 3c 5f dd 16 be 2e 91 e3 3d
       -0.11056064 0.024839126 -0.14732884 0.11111675
000180 73 6b cc 3d 08 85 12 be ac 5c b6 bd 09 a9 c7 bd
       0.09981432 -0.1430856 -0.089043945 -0.09749038
000190 d1 3a 15 be a1 f0 9e bd 3b e8 2e be 74 96 0b be
       -0.14573218 -0.0776074 -0.17080776 -0.13631612
0001a0 6b 69 3f bd be 3c dd bd 76 6d 03 3c a0 cd de 3b
       -0.046731394 -0.10802601 0.008021703 0.0067994148
0001b0 46 c6 50 3d 20 4b 55 3d 32 10 09 3e 60 e0 ce bd
       0.05097034 0.052073598 0.13385084 -0.1010139
0001c0 6e e6 e1 bd 32 32 90 3c 0c 2f 59 bd 6f da 6f bd
       -0.11030279 0.01760206 -0.053023383 -0.058557924
0001d0 ec 2e 16 bc 30 2a 03 3e 1e 29 ab 3d 30 3c 99 3d
       -0.0091664605 0.12809062 0.08357452 0.07482183
0001e0 b1 3b 3e bd 1c 28 7a 3d 14 0b ae 3d 0e bb bd bd
       -0.046443645 0.061073408 0.08498207 -0.092641935
0001f0 d3 ea 36 bc 04 90 9f 3d 12 12 a8 3d 14 c2 aa bb
       -0.011164385 0.07791141 0.08206572 -0.005211124

bn1.weight f4 [128]
000000 c2 96 6e 3f e2 e0 73 3f 07 e2 73 3f 4e 40 76 3f
       0.9319879 0.9526502 0.95266765 0.9619187
000010 4d 29 85 3f 26 ee 67 3f 4a 35 76 3f 58 e7 60 3f
       1.0403229 0.9059776 0.9617506 0.87853
000020 e9 74 6a 3f 74 3b 6c 3f 1c 31 6e 3f 6e 25 6f 3f
       0.9158464 0.9227822 0.93043685 0.9341649
000030 12 fe 74 3f 7e 7c 6f 3f 87 d2 77 3f e4 9f 73 3f
       0.9570018 0.93549335 0.96805614 0.9516585
000040 4f 8e 67 3f 3e 72 73 3f 11 fd 76 3f 4a ec 6a 3f
       0.9045152 0.95096195 0.964799 0.917668
000050 16 a6 65 3f 27 65 68 3f 85 e9 68 3f b2 f1 76 3f
       0.8970655 0.90779346 0.9098132 0.9646255
000060 44 db 77 3f 3c bb 6a 3f 68 be 6f 3f c4 f3 72 3f
       0.9681895 0.91691947 0.9364991 0.94903207
000070 02 8e 75 3f 62 a8 7a 3f f6 f9 75 3f e0 67 72 3f
       0.9591981 0.9791318 0.96084535 0.9468975
000080 46 50 79 3f 9c a5 6f 3f 69 a9 73 3f 10 90 72 3f
       0.9738811 0.93612075 0.95180374 0.9475107
000090 94 6c 72 3f 7e e4 76 3f 4c 17 6c 3f 32 83 66 3f
       0.9469693 0.964424 0.9222305 0.9004394
0000a0 56 c6 6b 3f 95 2f 8e 3f e4 94 70 3f fd de 67 3f
       0.9209951 1.1108271 0.9397719 0.9057463
0000b0 42 65 74 3f b5 15 76 3f 3e d3 75 3f 12 26 76 3f
       0.9546701 0.9612687 0.96025455 0.9615184
0000c0 b6 68 6e 3f 5a 81 6d 3f 46 6a 81 3f c4 3f 62 3f
       0.93128526 0.927755 1.0110557 0.8837855
0000d0 58 a5 69 3f 3a e0 6b 3f ae 77 80 3f 57 c6 68 3f
       0.9126792 0.9213902 1.0036523 0.9092764
0000e0 1c 75 66 3f a6 89 66 3f 00 b7 71 3f ba a1 78 3f
       0.90022445 0.90053785 0.9441986 0.97121775
0000f0 39 a9 7a 3f 9d 79 7b 3f 98 30 7c 3f d6 f2 6f 3f
       0.97914463 0.9823244 0.9851165 0.93729913
000100 fd fa 7e 3f 7f 2e 6d 3f 46 5f 7a 3f 5c 25 79 3f
       0.9960173 0.9264907 0.97801626 0.9732263
000110 4a 2f 8a 3f f7 46 6c 3f 9a 8d 62 3f d0 ec 77 3f
       1.0795681 0.92295784 0.88497317 0.9684572
000120 06 32 7c 3f f4 5f 70 3f be f6 73 3f 45 9e 6d 3f
       0.9851383 0.9389641 0.95298374 0.92819625
000130 1e 10 6f 3f 14 ab 71 3f 84 c9 6f 3f 32 6a 71 3f
       0.9338397 0.9440167 0.93666863 0.94302666
000140 ae bf 72 3f 9f fe 6d 3f be 02 6a 3f 87 66 80 3f
       0.9482373 0.92966646 0.91410434 1.0031289
000150 e8 ee 6e 3f 72 67 6b 3f 86 38 69 3f b6 14 6f 3f
       0.9333329 0.9195472 0.9110187 0.9339098
000160 f8 99 6f 3f 28 76 6f 3f cc 0b 84 3f d3 f0 6e 3f
       0.9359431 0.9353967 1.03161 0.9333622
000170 ee 8a 72 3f 7e 4a 71 3f fa 9d 75 3f 1c 78 69 3f
       0.9474324 0.9425429 0.9594418 0.911989
000180 28 86 71 3f 88 3f 7d 3f 54 63 67 3f 36 78 6a 3f
       0.9434533 0.98925066 0.9038594 0.9158968
000190 eb 32 73 3f ae be 6a 3f c6 4e 6f 3f 6c 80 5f 3f
       0.9499957 0.91697204 0.93479574 0.8730533
0001a0 8c 3a 74 3f 02 85 6c 3f aa cc 6d 3f dc 81 65 3f
       0.95401835 0.92390454 0.9289042 0.89651275
0001b0 53 b5 6f 3f 52 c0 76 3f 1a ee 77 3f 0a db 71 3f
       0.93636054 0.9638721 0.9684769 0.9447485
0001c0 61 b9 6c 3f 3a e1 6e 3f f0 d8 72 3f 78 2e 7c 3f
       0.92470366 0.9331242 0.9486227 0.98508406
0001d0 69 65 70 3f 16 2f 7d 3f 6e 94 74 3f d2 0f 62 3f
       0.9390474 0.9889997 0.95538986 0.8830539
0001e0 26 6a 72 3f 46 3d 76 3f 42 30 8f 3f 58 f5 67 3f
       0.9469322 0.96187246 1.1186602 0.9060874
0001f0 a4 87 85 3f 56 c4 7b 3f e4 e0 69 3f 06 1c 77 3f
       1.0432019 0.9834646 0.9135878 0.96527135

bn1.bias f4 [128]
000000 3b 00 d2 bd dc 56 8b bd aa 64 72 bd cc 51 c4 bd
       -0.1025395 -0.068036765 -0.059178032 -0.09585914
000010 57 d9 8c bd c1 83 bd bd e0 04 24 bd 46 cb c1 bd
       -0.06877392 -0.09253646 -0.04004371 -0.094625995
000020 48 6c 36 be be f2 a4 bd c2 61 9c bd cf 90 85 bd
       -0.17814744 -0.08054112 -0.07635833 -0.06521761
000030 40 d0 c8 bd 66 84 0b bd 50 a0 f4 bd f4 09 b6 bd
       -0.098053455 -0.034061812 -0.1194464 -0.08888617
000040 b0 ec 9b bd 7e a3 48 bd c0 0b 79 bd 23 ce 08 be
       -0.07613504 -0.048984043 -0.06080222 -0.13359885
000050 14 bb 98 bd e6 6a ca bd 46 b1 89 bd f6 7d 8b bd
       -0.07457557 -0.098836705 -0.06723265 -0.068111345
000060 2c 22 54 bd 4f 57 ce bd a8 5d 86 bd 52 a5 6e bd
       -0.0517904 -0.100752465 -0.06560832 -0.05826313
000070 28 34 7a bd 95 cd 43 bd 2c 08 bf bd 6a 9b 1a bd
       -0.061084896 -0.04780348 -0.093277305 -0.03774587
000080 9f 68 e5 bd 34 e4 9a bd 03 1d ab bd ce f7 8c bd
       -0.112015955 -0.075630575 -0.08355143 -0.068832025
000090 5e 47 4c bd 92 81 30 bd f9 7b cc bd 14 fc ea bd
       -0.04987275 -0.043092318 -0.099845834 -0.11473861
0000a0 bc 29 c2 3c b4 ec 55 bd 94 c8 c0 bd 15 e3 d1 bd
       0.023701541 -0.05222769 -0.09413257 -0.102483906
0000b0 48 15 a6 bc 0a 51 29 bd 39 7b ac bc 8c 39 4a bd
       -0.02027382 -0.04133705 -0.02105485 -0.049371287
0000c0 9c 12 f4 bd 09 9d 3f bd d0 83 71 bd 3a fe 08 be
       -0.11917612 -0.04678062 -0.058963597 -0.1337823
0000d0 aa 5e dc bd 7e a2 00 be c2 fb a1 bd 67 33 cc bd
       -0.10760243 -0.12561986 -0.07909347 -0.09970742
0000e0 79 cc b2 bd 13 57 97 bd 57 58 3d bd 26 f3 7f bd
       -0.08730406 -0.07389655 -0.046226826 -0.062487744
0000f0 1a 6b cc bd ac 79 c3 bd e8 b4 5b bd b0 2e 8d bd
       -0.099813655 -0.095446914 -0.053639323 -0.068936706
000100 b3 b7 15 bd 86 e3 cc bd 36 44 ac bd 86 d6 6b bd
       -0.036552142 -0.10004334 -0.08411448 -0.057577632
000110 46 8a 8a 3e 68 72 84 bd 58 c3 e4 bd e9 32 26 bd
       0.2705862 -0.06467134 -0.11170071 -0.040575895
000120 24 66 32 bd 4d f2 d2 bd c3 42 ff bc 44 63 21 bd
       -0.04355444 -0.103001215 -0.031159764 -0.039401308
000130 69 6e 71 bd 78 2b 86 bd 42 90 69 bd 8e 37 68 bd
       -0.058943186 -0.0655126 -0.05702234 -0.056693606
000140 1c 94 ac bc b7 68 c5 bd d6 fd d6 bd c4 47 f0 bd
       -0.021066718 -0.096391134 -0.10497634 -0.11732438
000150 c0 c7 aa bd 38 b9 c2 bd 84 e6 9c bd 5c 94 c1 bd
       -0.083388805 -0.09507984 -0.07661155 -0.094521254
000160 de 86 4e bd f8 d5 86 bd 02 ee 01 bd 3c 79 c3 bd
       -0.050421588 -0.0658378 -0.031721123 -0.09544608
000170 95 52 9b bd 40 fb 7a bd 27 26 0a bd de 1d 01 be
       -0.07584111 -0.061274767 -0.03372779 -0.1260905
000180 a8 73 9b bd 4a 19 33 bd 88 b2 d6 bd e9 ee 02 be
       -0.07590419 -0.04372529 -0.10483271 -0.1278645
000190 39 71 15 bd 69 d3 b2 bd ac ce 95 bd 50 65 01 be
       -0.03648493 -0.087317295 -0.0731481 -0.12636304
0001a0 36 e0 33 bd 00 b7 cc bd 53 b3 a4 bd 84 8d 96 bd
       -0.043914996 -0.09995842 -0.08042016 -0.07351211
0001b0 c8 a5 f2 bd 3c 50 19 be d6 eb 62 bd 47 88 44 bd
       -0.118480265 -0.14972013 -0.055400692 -0.047981527
0001c0 ac f5 08 be e0 18 02 be b6 ec a0 bd 37 01 7e bc
       -0.13374966 -0.12704802 -0.07857649 -0.015503219
0001d0 48 84 aa bd d8 f6 06 be 80 2b 81 bd f7 ef eb bd
       -0.08326012 -0.13180101 -0.06307125 -0.11520379
0001e0 e2 8e 3e bc aa ea 3c bd 2e 4b 9a 3e f6 53 e7 bd
       -0.011630746 -0.04612223 0.30135483 -0.11295311
0001f0 66 1a b0 3d a2 a0 bb bd 96 8e 91 bd 80 66 52 bd
       0.08598785 -0.09161498 -0.07107274 -0.051367283

bn1.running_mean f4 [128]
000000 76 da 4a c3 48 e0 3a 42 a7 5c 86 44 0a 48 99 c2
       -202.85336 46.719025 1074.8954 -76.6407
000010 57 fe ee c1 15 a8 26 c5 03 57 24 c3 ec c1 fa c4
       -29.87419 -2666.5051 -164.33989 -2006.06
000020 42 97 87 43 e6 b9 61 c6 8a e9 54 c6 aa 07 13 c6
       271.1817 -14446.475 -13626.385 -9409.916
000030 82 73 56 43 38 14 e0 41 60 8d 8f 41 79 57 4c 45
       214.4512 28.009872 17.94403 3269.467
000040 94 9f 24 c6 f6 13 35 c6 24 10 7e 46 ad 3a ff c3
       -10535.895 -11588.99 16260.035 -510.4584
000050 a4 2b c7 44 7a 61 ba 43 4e 8c 61 c3 80 8e 42 46
       1593.3638 372.76154 -225.54807 12451.625
000060 dd 44 a0 c3 a0 b1 97 41 13 0a 82 c6 2f c6 6d c5
       -320.538 18.961731 -16645.037 -3804.3865
000070 29 46 88 45 d4 5f 1c 45 5f 12 d4 43 8d 65 98 45
       4360.77 2501.9893 424.14352 4876.694
000080 2d 73 48 c2 8c 69 06 c5 fc fe 0a c3 3a 83 76 42
       -50.112476 -2150.5967 -138.99603 61.62815
000090 5e bc 57 45 bb 18 82 45 08 7c d1 43 26 3d aa c3
       3451.773 4163.0913 418.969 -340.47772
0000a0 3e 81 0b 45 9e 03 1c c1 b9 9a 19 c5 ac ee 86 c5
       2232.0776 -9.750883 -2457.6702 -4317.834
0000b0 72 f8 38 45 d0 29 7d 46 30 3d 62 c6 cc 8a b1 45
       2959.5278 16202.453 -14479.297 5681.3496
0000c0 b4 97 cd 43 86 98 9e c5 0b 41 da 3f a7 de 22 43
       411.18518 -5075.0654 1.70511 162.86974
0000d0 df 13 33 c5 00 ae db c3 bb 3d 04 43 64 41 a0 42
       -2865.242 -439.35938 132.24113 80.127716
0000e0 64 f8 49 c6 aa d5 98 c2 e0 99 18 44 d2 4d 5b 46
       -12926.098 -76.41731 610.4043 14035.455
0000f0 30 de fc c2 7d 87 3c 42 60 11 31 43 f5 99 c4 c3
       -126.43396 47.132313 177.06787 -393.2028
000100 30 df 03 bf af 18 a2 43 b8 d6 0f c3 68 dc 31 46
       -0.5151243 324.19284 -143.83875 11383.102
000110 bf 31 81 40 c1 a7 6b c6 93 70 b7 c3 ce ed 80 c4
       4.0373225 -15081.938 -366.8795 -1031.4314
000120 2a 70 c5 45 69 ea 9f 42 c1 39 81 44 b2 97 4a c4
       6318.0205 79.95783 1033.8048 -810.37024
000130 f2 02 8a c5 78 3b 55 44 33 0c 65 c4 74 de f9 c4
       -4416.368 852.9292 -916.1906 -1998.9517
000140 ae 00 9c 45 cc e7 07 42 4c fd 8b c5 d2 34 5f c2
       4992.085 33.976364 -4479.662 -55.801582
000150 60 8b 05 c3 e7 c8 b8 c4 f8 e9 63 43 c4 4d 08 c2
       -133.54443 -1478.2782 227.91394 -34.075943
000160 5c 70 b7 45 b5 f8 73 46 94 ca 72 41 ba 7f c3 44
       5870.045 15614.177 15.174458 1563.9915
000170 00 7b f8 41 04 99 36 c6 70 68 1f 46 80 d0 18 3f
       31.060059 -11686.254 10202.109 0.59693146
000180 a8 a2 fd 44 48 8a 3f 45 8a 83 80 c5 af 12 14 43
       2029.083 3064.6426 -4112.4424 148.07298
000190 72 03 a2 45 20 68 59 c6 6e 08 90 43 1c b7 1e c3
       5184.4307 -13914.031 288.06586 -158.71527
0001a0 3a f9 de 45 20 4a 8e c1 50 eb fe c1 c8 b1 bf 42
       7135.1533 -17.786194 -31.864899 95.84723
0001b0 d4 5b d7 c1 3c ce 86 42 66 61 1e 46 21 bb 38 c4
       -26.919838 67.4028 10136.35 -738.9239
0001c0 90 95 d9 c3 53 1e 06 41 37 76 17 45 b2 31 19 46
       -435.16846 8.382403 2423.3884 9804.424
0001d0 e9 29 f0 c4 3a f1 7d c2 fe 32 a0 42 fa 6d 20 44
       -1921.3097 -63.485573 80.099594 641.7184
0001e0 e4 98 91 45 51 b6 9a 44 56 6b cd 40 14 25 e2 44
       4659.1113 1237.6974 6.4193525 1809.1587
0001f0 6b cd ab 41 d9 d3 4c c3 e8 77 db 45 7c 51 82 c4
       21.475302 -204.82753 7022.9883 -1042.5464

bn1.running_var f4 [128]
000000 11 47 ab 46 b0 e6 c5 47 f1 46 c7 48 23 71 2b 46
       21923.533 101325.375 408119.53 10972.284
000010 8a ec 71 44 4e a2 9f 4a a0 5b 4c 47 cf 27 b6 49
       967.6959 5.230887e+06 52315.625 1.4922179e+06
000020 ea 39 c5 46 0c 64 66 4c ae 8c 4e 4c ba 8c c1 4b
       25244.957 6.039557e+07 5.414572e+07 2.5368948e+07
000030 17 70 84 46 47 e4 6b 46 5c ea df 45 2c cd a3 4a
       16952.045 15097.069 7165.295 5.367446e+06
000040 c2 d3 01 4c 3b 30 17 4c bc 14 96 4c 58 fa cd 47
       3.4033416e+07 3.9633132e+07 7.868566e+07 105460.69
000050 b6 11 33 49 c4 95 6c 48 24 59 6e 48 de 24 31 4c
       733467.4 242263.06 244068.56 4.643724e+07
000060 82 2e 8a 48 ee 34 bc 46 da 79 97 4c 01 e4 a8 4a
       282996.06 24090.465 7.941704e+07 5.5342085e+06
000070 ca 8b 02 4b b5 39 1b 4a e6 1c 4d 47 c2 e7 69 4b
       8.555466e+06 2.5432132e+06 52508.9 1.5329218e+07
000080 58 32 86 44 80 e0 09 4a c6 ab 5a 47 ea b7 76 46
       1073.5732 2.258976e+06 55979.773 15789.979
000090 0f c6 72 4a cd a2 2c 4b 77 8f 53 47 20 5f 10 47
       3.9776038e+06 1.1313869e+07 54159.465 36959.125
0000a0 f6 fd b8 49 b0 fc 17 44 81 23 16 4a 24 bd 07 4b
       1.5154548e+06 607.94824 2.4598722e+06 8.89578e+06
0000b0 36 e5 55 4a 7c 84 8f 4c 19 bf 64 4c 4f df 0d 4b
       3.5044615e+06 7.524451e+07 5.9964516e+07 9.297743e+06
0000c0 ca 8e cf 47 56 6c e4 4a 90 52 22 44 32 e1 8c 47
       106269.58 7.484971e+06 649.29004 72130.39
0000d0 ce 06 a9 4a e2 29 90 47 75 fb 00 46 81 e5 2d 47
       5.538663e+06 73811.766 8254.864 44517.504
0000e0 ce 3b 36 4c 70 bb 37 47 db 53 00 48 ab 19 57 4c
       4.777145e+07 47035.438 131407.42 5.6387244e+07
0000f0 b6 d2 81 45 e8 64 16 45 aa f9 45 47 96 46 59 47
       4154.339 2406.3066 50681.664 55622.586
000100 a5 ce 58 44 76 fa 1e 47 e0 22 37 46 8e 5d 11 4c
       867.2288 40698.46 11720.719 3.810668e+07
000110 e2 9b 8f 43 38 be 77 4c 79 3e 65 47 13 c1 a4 48
       287.21783 6.494435e+07 58686.473 337416.6
000120 aa 6e 9b 4b 4c 9f 87 45 4a 6e ae 48 76 16 37 48
       2.037282e+07 4339.912 357234.3 187481.84
000130 f1 02 b8 4a 1f 59 f1 48 3e 59 8f 48 f3 b1 c4 49
       6.0296885e+06 494280.97 293577.94 1.6113264e+06
000140 05 e4 83 4b d2 10 92 47 11 c1 fd 4a 5f 4c 25 45
       1.7287178e+07 74785.64 8.3150165e+06 2644.7732
000150 02 50 25 48 e7 ee 44 49 99 4b ab 46 f4 d1 35 47
       169280.03 806638.44 21925.799 46545.953
000160 cd 66 23 4b 1a e9 86 4c f4 b2 4c 44 84 7c 42 49
       1.0708685e+07 7.073198e+07 818.79614 796616.25
000170 70 ff 34 47 d5 b9 17 4c 82 98 e6 4b 4e d9 da 45
       46335.438 3.9774036e+07 3.0224644e+07 7003.163
000180 68 1d fa 49 60 34 29 4a 41 6c 94 4a 24 0d 3c 46
       2.048941e+06 2.772248e+06 4.8635205e+06 12035.285
000190 f5 0d fb 4a fa 78 55 4c 98 41 b7 47 dd b3 26 46
       8.2265545e+06 5.596055e+07 93827.19 10668.966
0001a0 83 8f 6a 4b d9 ec 00 48 65 95 63 47 26 8f c9 47
       1.5372163e+07 132019.39 58261.395 103198.3
0001b0 60 c4 2b 46 dd 07 15 45 eb 71 e0 4b bf 79 40 48
       10993.094 2384.4915 2.9418454e+07 197094.98
0001c0 e3 09 53 47 00 a6 2c 44 55 b7 d1 49 f9 b9 ed 4b
       54025.887 690.59375 1.7179946e+06 3.1159282e+07
0001d0 e0 24 8a 49 5c 97 8d 46 ba 70 3a 47 a6 9d f9 47
       1.131676e+06 18123.68 47728.727 127803.3
0001e0 3f ed 1d 4b c4 63 f3 48 05 b0 7a 43 33 1c b5 49
       1.0349887e+07 498462.12 250.68758 1.4836544e+06
0001f0 c2 d8 bb 43 41 28 9b 46 64 2c 58 4b 9e ef a8 48
       375.69342 19860.127 1.416714e+07 345980.94

bn1.num_batches_tracked f8 []
000000 00 00 00 00 00 59 b2 40
       4697.0

fc2.weight f4 [64, 128]
000000 2e fc 10 3d e2 f2 6a 3d 52 93 3d 3c 35 5a 9f 3d
       0.035396747 0.057360537 0.011570768 0.077808775
000010 11 53 9f 3d 1a 6b 20 3d f6 55 b8 3c 9c 54 82 bd
       0.077795155 0.03916464 0.022501927 -0.06363794
000020 c6 28 61 3d be bd 3a bd 70 15 76 b8 cc 6e 9d bd
       0.054970525 -0.04559111 -5.8670936e-05 -0.076871485
000030 76 b7 e5 3b 55 32 92 bc 83 db 7a bd e0 80 67 39
       0.0070103956 -0.017846266 -0.0612445 0.00022077886
000040 1a 49 de bc e4 ea b0 3b cd 83 8c 3c e3 7f 5e 3b
       -0.027134467 0.005399095 0.017152691 0.0033950738
000050 62 ca 90 bb c7 13 03 3d 70 12 c2 bc c3 70 a5 bc
       -0.004418657 0.032001283 -0.023690432 -0.02019537
000060 c8 70 41 bb 1e eb 13 bc 36 be 55 3c 0e c8 83 bc
       -0.0029516686 -0.009028224 0.013045838 -0.016086604
000070 48 55 62 3d 5f f1 c0 3c 4c a2 bc 3d 8b c4 a4 3d
       0.05525711 0.023552595 0.09210643 0.080453
000080 c1 f9 96 bc 82 41 36 3d 20 4e d8 39 7a 0f 26 bd
       -0.018429639 0.044496067 0.00041256938 -0.040542103
000090 b8 d6 a2 3c ec 81 3a bd e8 32 4f 3d 39 70 eb bc
       0.019877777 -0.04553406 0.050585657 -0.028740035
0000a0 1a 5e b0 bb f0 67 33 3d 4c 65 95 bd 18 36 03 3d
       -0.0053823115 0.043800294 -0.072947115 0.03203401
0000b0 08 48 b8 bc 52 ae 43 3d e6 11 2a 3d 29 29 42 bd
       -0.022495285 0.047773667 0.041520976 -0.047402535
0000c0 f4 ca b5 3c 8e a7 2d 3d 84 09 b3 3d e8 fe 58 3d
       0.022191502 0.04239612 0.08742049 0.052977473
0000d0 22 0e 87 bd 2a a5 fb bc 10 a6 82 3b a0 6e a4 bc
       -0.065944925 -0.030718405 0.0039870813 -0.020072281
0000e0 e2 8f 5d bd 54 f1 72 3c 84 6a 89 bd 80 d3 53 bd
       -0.054092295 0.014828045 -0.06709769 -0.051715374
0000f0 94 7e ab 3c 6b b3 60 3c c4 9c d5 3c 04 9a 5c 3d
       0.02093438 0.013714652 0.026075728 0.05385782
000100 38 87 95 bc 9a 03 1b 3d c2 f3 a2 bb e0 0c f7 bc
       -0.018252954 0.03784523 -0.004972906 -0.030157506
000110 cc 6e ec bd e2 03 86 3d 80 a4 bf bd 8a 0d 68 3d
       -0.1154457 0.06543709 -0.09357548 0.056653537
000120 2d 6b 0d 3c b1 5a 31 bd 56 4b 96 3d 52 dc 2a bd
       0.00863151 -0.04329938 0.07338588 -0.04171402
000130 b2 ac 2b 3b 9b 10 03 3d ef 29 25 bb bc 39 79 bd
       0.0026195464 0.031998258 -0.0025201996 -0.060846075
000140 80 4b b8 3d b2 e9 ef bc 84 90 a9 bd 2a 7f ad bc
       0.089987755 -0.02928624 -0.08279517 -0.0211788
000150 20 9f ee bb 04 22 9a bc dd 1a 5e bd b0 3b c2 3b
       -0.007282153 -0.018815048 -0.054224838 0.0059275255
000160 88 52 0b bd c8 ae 49 bd 1c 43 d9 3c 29 fb 5b 3d
       -0.034014255 -0.04923895 0.026521258 0.053706322
000170 8a 1a 1c 3d bf 49 f1 b9 69 b6 95 bb 84 3c b4 bc
       0.038111247 -0.00046022047 -0.004568864 -0.022001512
000180 ea 1c 00 bc b0 c4 9e 3d 8e e4 45 3d 71 48 00 3b
       -0.007819394 0.07752359 0.04831367 0.0019574428
000190 40 de 34 3d 21 1b 6a 3c 71 72 95 3d fe 31 24 bd
       0.044157267 0.014288695 0.072972186 -0.04008674
0001a0 67 f2 4e bd 3e d1 a8 3d f4 6f b3 bd 09 c0 29 3d
       -0.05052414 0.08243035 -0.08761588 0.041442905
0001b0 3c 9b 46 3d 03 38 05 bd ac 12 5f 3d a2 0f d6 3b
       0.048487887 -0.03252412 0.054461166 0.0065326253
0001c0 79 c9 c0 3c 36 11 a2 3d 7d 94 be 3d 7c 5d 80 3d
       0.02353357 0.07913439 0.09305666 0.06267831
0001d0 98 c0 26 3c 34 5b 8c 3d 9c 46 2b 3d c1 cb 39 bd
       0.010177754 0.06853333 0.041815385 -0.04536033
0001e0 d0 ed 3a bd 7a 7e f0 3c 3f bb 23 be 66 40 6b 3d
       -0.045636952 0.029357184 -0.15989397 0.057434462
0001f0 c6 5a 49 bd 39 65 74 bc 44 5a 59 3d 94 5e e9 bc
       -0.049158834 -0.0149167115 0.0530646 -0.028487481
000200 88 65 6c 3d fc e0 81 3d 7c 2a 2d bd 14 90 78 bd
       0.057714015 0.063417405 -0.042276844 -0.06068428
000210 ca c6 9e bd 00 1b 55 bd db 46 95 3d 4c 98 0e bd
       -0.0775276 -0.052027702 0.07288905 -0.03481321
000220 5e f2 6f bc 52 e9 0f bd 82 22 4a bd b4 2b 8f bd
       -0.014645187 -0.03513462 -0.049349315 -0.069907576
000230 9c 76 70 3d ec 38 82 bd 32 b0 22 bd 26 e0 85 3d
       0.058706865 -0.06358513 -0.039718814 0.065368935
000240 05 9f 07 bc 3b 66 ac bc b4 e9 95 3d 13 51 d0 3d
       -0.008277659 -0.021044841 0.07319966 0.10171714
000250 f9 b0 e7 3c c3 60 51 3d fe 79 b5 3d 96 35 1b bd
       0.02828263 0.05111767 0.08861159 -0.0378929
000260 9e ad 8a 3d f8 9d 3b bc f9 c4 83 bd 6e fa 16 3d
       0.06771396 -0.011451237 -0.06434054 0.036859922
000270 fa 00 36 3d fa 30 8e 3d 65 f0 50 3c 06 2a 49 bd
       0.044434525 0.06942935 0.012752627 -0.049112342
000280 e0 de 21 3d be 9f 7c bd 62 f6 f6 3b cf e0 2e bd
       0.03951919 -0.06167578 0.0075366953 -0.042694863
000290 04 4d 46 bd c2 e7 15 3d 4a c8 d0 bc d8 6b 72 3d
       -0.04841329 0.036597975 -0.02548613 0.05918488
0002a0 9f b1 ef 3c a7 50 61 bd 69 45 b7 bd 23 1e 16 3c
       0.029259501 -0.055008557 -0.08948786 0.009162459
0002b0 5f db 58 bd c0 25 7a 3c a9 f5 cd bd bd 62 93 3d
       -0.052943584 0.015267789 -0.100566216 0.07196567
0002c0 fc 4e 8d 3d f5 c9 02 bd bb f0 c6 bc 8c f6 3d 3d
       0.06899831 -0.031930882 -0.024284711 0.046377704
0002d0 1e b2 99 3c 86 58 d6 3c 33 8c c3 3b 8b 67 35 3d
       0.01876169 0.026165258 0.005967641 0.0442882
0002e0 c8 d4 32 bd dd de 4d bb 9f e1 b8 3d 38 c2 09 3a
       -0.043659955 -0.0031413354 0.09027409 0.0005255076
0002f0 10 11 b5 bd 3c b8 4d bc 00 1e 86 b8 f0 c9 98 b9
       -0.08841145 -0.012556132 -6.395206e-05 -0.00029142154
000300 5a 85 e9 3d a3 d9 22 3d b7 66 82 3d 6c c9 72 3d
       0.11402388 0.039758336 0.063672476 0.059274122
000310 f5 3c 81 3d 9e ef 1d 3d 22 59 7c bd a8 65 8f bd
       0.06310455 0.038558595 -0.06160844 -0.07001811
000320 f0 1b 3c 3d 01 9d 27 bb 82 a1 9e 3d 26 02 1b bc
       0.04592508 -0.002557576 0.07745649 -0.009460961
000330 f2 6d 3c bc e5 ed 98 3d 58 4d 8f 3c cf ad 8a bd
       -0.011500822 0.0746725 0.017492935 -0.067714326
000340 c4 62 1a bd 36 77 c7 3d 9c 5d 49 bd c2 d9 8f 3a
       -0.037691846 0.097395346 -0.04916154 0.0010974931
000350 5c f7 bc bd 82 d3 db bd b1 c2 92 bc 1d e2 6e 3d
       -0.092268676 -0.10733701 -0.017915102 0.058321107
000360 6d 79 dd 3d 9c e4 99 bb 14 f7 1a 3d 47 3f 9c 3c
       0.10814176 -0.004696442 0.03783329 0.019073142
000370 fb 62 0b 3d ec 94 a4 bd 9a cc 8b 3d 6b 8f 0d 3d
       0.034029942 -0.08036217 0.06826134 0.034560602
000380 aa 7e 9d bc 9c c3 d9 bc 04 cd 6f bd 81 ac c5 bc
       -0.019225437 -0.026582532 -0.058545128 -0.024130108
000390 e2 17 13 3d 11 19 d5 bd 8e b5 13 3d 0f 99 74 bc
       0.03591145 -0.10405172 0.036061816 -0.01492907
0003a0 fa 36 d9 ba 8e 5a c4 bd 42 08 5b bc e0 d9 1c bd
       -0.001657217 -0.095875844 -0.013368668 -0.03829372
0003b0 be cb 8b 3d fc 27 6e 39 6e 93 2b 3d 91 78 be bc
       0.0682597 0.00022712344 0.041888647 -0.02325085
0003c0 55 90 93 bc 90 35 87 bc 2b 41 4a bc 8d ea 0c 3d
       -0.018013159 -0.016505033 -0.012344639 0.034403373
0003d0 b4 c4 6f bd 6a 1b 3e 3d b6 14 ad 3c 99 f4 9f 3c
       -0.0585372 0.046412863 0.02112804 0.019525813
0003e0 2a 1e a6 3d f8 55 74 bc ec 93 ba 3c e1 52 d0 3c
       0.08111222 -0.014913075 0.022775613 0.025430145
0003f0 ca eb 03 3d 7a 82 75 bd 68 13 43 3d 0a f8 ba bd
       0.032207288 -0.059938885 0.04762593 -0.09129341

fc2.bias f4 [64]
000000 08 60 f3 3b 0e 1c a3 bd 76 c4 91 bc 9e b0 e3 bc
       0.0074272193 -0.079643354 -0.017793875 -0.027794179
000010 03 f3 83 ba 3a d8 a0 3d 82 b7 c2 3c fc 13 a7 bd
       -0.001006693 0.07853742 0.023769144 -0.081581086
000020 24 78 90 bd f8 98 86 3d da 78 27 3d a9 48 19 bd
       -0.07054165 0.06572145 0.040886737 -0.03742281
000030 a0 ef ff bb f8 ed 8e 3d 00 59 ad bd 99 b6 a4 3d
       -0.007810548 0.06978983 -0.08464241 0.0804264
000040 00 64 80 3d 08 df b2 3d 52 88 0a bd 2e 4c 4d bd
       0.062690735 0.08733946 -0.03382141 -0.05012148
000050 10 57 4e bd 53 b1 10 3d 10 8b 62 bd 48 21 7c bd
       -0.050375998 0.03532536 -0.0553084 -0.061555177
000060 c4 f9 a8 3d 16 f2 9f 3d 22 0a 7e bd 8a 71 8f 3d
       0.08250764 0.07809846 -0.062021382 0.07004078
000070 e8 f7 83 ba 6a 87 f3 bc 14 18 8e bd ac e6 6a bd
       -0.0010068389 -0.029727656 -0.06938186 -0.057348892
000080 e6 9c 09 bd bf 6c a9 3d ec 62 1e bd 5c b5 25 bb
       -0.033596896 0.08272695 -0.038668558 -0.00252851
000090 64 9d 44 3d d6 70 37 3d b0 46 2d 3d f8 c6 90 3b
       0.048001662 0.044785343 0.04230374 0.00441825
0000a0 f5 35 81 3d 06 a9 8b 3d b8 16 a7 bd 36 0c 28 3d
       0.063091196 0.06819348 -0.0815863 0.04102727
0000b0 3f 70 36 3d 7e dd 84 3d e0 b1 6c 3d 57 44 8a 3d
       0.04454064 0.06487559 0.057786822 0.06751316
0000c0 48 75 ad bb 0a 70 cf 3c 4c 88 52 3d ad 68 e3 3c
       -0.005293522 0.02532198 0.051399514 0.027759874
0000d0 55 00 86 3d d9 5d b3 bd 65 e2 a9 3d 11 41 37 bd
       0.06543032 -0.087581344 0.082951345 -0.044739787
0000e0 66 cc a5 bd 44 db 1b bd 3c b4 8a 3c 70 a7 f8 bc
       -0.080956265 -0.038050905 0.016931646 -0.030353278
0000f0 68 bb 58 bd 36 96 5d bd a2 15 3f bc 4e 49 64 3d
       -0.0529131 -0.05409833 -0.0116628725 0.05573397

bn2.weight f4 [64]
000000 ea 66 6d 3f aa 7c 79 3f cc f0 76 3f 86 88 8f 3f
       0.9273516 0.9745585 0.96461177 1.1213539
000010 d3 99 89 3f d4 5f 71 3f dc 2d 79 3f a8 0a 8c 3f
       1.0750068 0.9428685 0.973356 1.0940752
000020 f4 7e 79 3f f0 44 82 3f 32 ff 8d 3f 18 92 67 3f
       0.9745934 1.0177288 1.1093504 0.90457296
000030 f4 ab 78 3f d6 fc 76 3f a9 4d 79 3f 68 94 79 3f
       0.9713738 0.9647955 0.97384125 0.97492075
000040 bb b1 76 3f bd 83 73 3f f2 c5 7d 3f ef 75 72 3f
       0.96364945 0.9512289 0.99130166 0.947112
000050 e4 2f 6c 3f 72 d8 7b 3f e2 34 7b 3f 4c 37 89 3f
       0.92260575 0.98377144 0.9812757 1.072
000060 98 5d 72 3f 76 c4 85 3f 15 30 6a 3f 70 bf 7d 3f
       0.9467406 1.045058 0.9147962 0.99120235
000070 69 40 76 3f b8 4c 5c 3f ab 1e 82 3f 6d 60 6a 3f
       0.9619203 0.86054564 1.0165609 0.91553384
000080 b0 6b 77 3f e6 54 8b 3f 7e 36 73 3f d6 0b 82 3f
       0.96648693 1.0885284 0.95005023 1.0159862
000090 6a 15 8f 3f e6 ca 7b 3f 7a 78 80 3f 46 5f 90 3f
       1.117841 0.98356473 1.0036767 1.1279075
0000a0 84 e5 80 3f 4c 41 7e 3f fe 9c 70 3f 56 c7 7f 3f
       1.0070043 0.99318385 0.9398955 0.9991354
0000b0 70 c7 81 3f 2f b0 81 3f 84 12 80 3f 52 a6 7b 3f
       1.0138988 1.0131892 1.000565 0.9830066
0000c0 14 26 74 3f b8 1c 7a 3f 7b a7 6f 3f 88 93 87 3f
       0.953706 0.9770007 0.9361493 1.0591898
0000d0 a4 75 6a 3f 42 37 78 3f 4c 8a 82 3f 98 8e 7b 3f
       0.91585755 0.96959317 1.0198455 0.98264456
0000e0 2c fe 89 3f b1 0e 7d 3f 18 e8 76 3f 07 f8 6c 3f
       1.0780692 0.9885054 0.96447897 0.9256596
0000f0 95 2a 7a 3f 5a 52 70 3f b7 9d 6d 3f 60 da 72 3f
       0.97721225 0.9387566 0.9281878 0.94864464

bn2.bias f4 [64]
000000 ec 46 95 bd 96 67 b4 bc 2b 2a ce bc 51 23 21 3d
       -0.07288918 -0.02202205 -0.025166592 0.03934032
000010 6e 25 af 3b fd 89 30 3b 74 2d f6 bc 20 07 f2 bc
       0.005345038 0.0026937716 -0.03005097 -0.029544413
000020 5a d5 71 3d bc ab 2d bc d0 79 3f 3d 26 09 33 bd
       0.05904136 -0.010600027 0.04674703 -0.043709897
000030 9e 12 36 bc 88 83 49 3b 00 05 00 3c 94 a2 1a bd
       -0.011112837 0.0030748565 0.007813692 -0.037752703
000040 6e 0a 02 bd a8 a2 57 bd 14 4e 9a bb 40 b5 6a bd
       -0.031748228 -0.052645355 -0.0047090147 -0.05730176
000050 7c 51 01 bd 24 34 99 3d 46 1b 88 bb e4 ce 2b bd
       -0.03157185 0.07480648 -0.004153642 -0.041945353
000060 e9 df 73 bd 46 b8 35 3d a2 42 90 bc 5e 33 29 3c
       -0.05953971 0.04436519 -0.017609898 0.010327188
000070 d2 03 44 bb 16 7c 8e bd 00 07 93 3c 0a 37 2e bd
       -0.0029909504 -0.06957261 0.017947674 -0.042532958
000080 6d 58 b1 bd c4 8b 5c bd 5b 3f 61 bb 26 0f 61 bc
       -0.08659444 -0.05384423 -0.0034370038 -0.013736522
000090 20 51 fc 3c a0 2a 29 bd ee 11 a7 bc 4e 04 cc 3d
       0.030800402 -0.041300416 -0.020394292 0.099617586
0000a0 d2 3c 31 3d 24 9e 0f 3d 36 62 5f bc 4e c8 12 bd
       0.043270893 0.035062924 -0.013634255 -0.035835557
0000b0 0f e2 23 bc fa dd d1 3c 06 83 dd bc 5a 30 20 bd
       -0.010002627 0.025618542 -0.027040016 -0.03910861
0000c0 e9 72 0e bd 1c 8d 0a 3d 00 c1 48 bd 2e 1e 09 bc
       -0.034777556 0.03382598 -0.049012184 -0.008369012
0000d0 06 fc 8c bd 16 04 db bc 22 5d 6a bc 80 9a c6 bb
       -0.06884007 -0.026735347 -0.014304431 -0.0060608983
0000e0 6a a4 8e 3c c0 e4 11 bd 18 31 a8 3d a8 43 5b bd
       0.017412383 -0.035618544 0.08212489 -0.05353132
0000f0 17 f5 b0 3c ea 70 f0 bc 35 b3 95 bd 7c db e8 bc
       0.021601243 -0.029350717 -0.07309572 -0.02842497

bn2.running_mean f4 [64]
000000 06 1b 48 3e ec 0c 62 3d bd ef 23 3e e0 41 49 be
       0.19541559 0.055188105 0.16009422 -0.19654036
000010 29 e1 18 3d 68 fd 22 bf 94 8f 35 3f c3 ac cc be
       0.037324104 -0.6366792 0.7092221 -0.39975557
000020 76 5f a9 be 3c 32 93 bd f0 2d 8b be 2b 0f 9e 3e
       -0.33080643 -0.07187316 -0.27183485 0.30870947
000030 6e 8b 97 3e 60 ec 1b 3f f8 47 96 bf d5 89 1c bf
       0.29598564 0.60907555 -1.1740713 -0.61147815
000040 28 e1 8a be 30 af 01 3f 44 8e 0a bd b4 93 c3 3e
       -0.27124906 0.5065794 -0.03382708 0.38198626
000050 02 9a 15 be 40 9f 94 be ab 9d c5 3c b6 e4 5d be
       -0.1460953 -0.29027748 0.024123034 -0.21669278
000060 b1 13 3e 3f 7a 8f 78 be 2e 72 81 bf 32 93 e0 bd
       0.74248797 -0.24273482 -1.011297 -0.10965575
000070 e4 c7 6e bf 44 3b 24 bf 80 26 ac bf e4 e4 e7 3e
       -0.9327376 -0.6415293 -1.3449249 0.45291817
000080 5e 03 6e 3f f6 dc a0 be 80 3c b0 bf 50 c7 ed 3e
       0.9297389 -0.3141858 -1.3768463 0.46441126
000090 16 ac bc be 82 94 ca 3e 06 1b 7c 3e 37 8b 82 be
       -0.3685004 0.39566427 0.24619684 -0.25496837
0000a0 f6 89 53 be 92 c7 b2 bf b6 34 3e bf 5a df 20 3f
       -0.20658097 -1.3967154 -0.7429918 0.6284081
0000b0 aa 70 24 bf b5 44 dc be dc 35 cf 3e 40 df 60 be
       -0.6423441 -0.4302117 0.4047078 -0.21960163
0000c0 05 c7 94 3e e8 d4 37 be bf b2 f1 bd 2d 86 4a 3d
       0.2905809 -0.17952311 -0.11801671 0.049444366
0000d0 cd 2e 2e 3e 2b 6c 66 bf 82 63 22 bd d2 1a 15 bf
       0.1701004 -0.900088 -0.03964568 -0.5824405
0000e0 b7 f8 13 be b5 18 86 3e cc 97 7f bd e8 c3 f0 be
       -0.14450346 0.26190725 -0.062400624 -0.47024465
0000f0 de 8d b2 be d7 e9 b7 3d 66 60 0f 3d 11 4e 13 3f
       -0.3487386 0.08980148 0.035004042 0.57540995

bn2.running_var f4 [64]
000000 b0 96 d4 3e 64 61 72 3f 0e 4f a1 3e 72 29 0c 3f
       0.41521215 0.94679856 0.31505626 0.5475074
000010 7c c8 d9 3e 8b f6 cb 3f 87 8f 35 3f 01 99 32 3f
       0.4253577 1.5934614 0.7092213 0.69764715
000020 ee b9 a0 3f 00 45 15 3f dc 13 64 3f d8 45 47 3e
       1.2556741 0.5830841 0.89092803 0.19460237
000030 f8 b0 03 3f 3e 08 5e 3f 56 43 a9 3f d8 c4 7d 3f
       0.5144191 0.86731327 1.3223674 0.99128485
000040 f2 38 28 3f 49 f8 30 3f d9 22 08 3f 80 00 b9 3e
       0.6571189 0.69128853 0.53178173 0.36133194
000050 8c b8 9b 3e 2e 47 36 3f 40 e2 b5 3f b4 39 d8 3e
       0.30414236 0.7120236 1.4209671 0.42231524
000060 41 28 e1 3e d6 c5 18 3f 56 49 d0 3e 23 6b 3a 3f
       0.43976024 0.59676874 0.4068095 0.7281973
000070 3e 6a 3c 3f 0e 64 37 3e 7e 75 cb 3f 74 aa 8a 3e
       0.7359961 0.17909262 1.5895231 0.2708317
000080 a8 c7 29 3f d1 7e 1b 3f 33 31 d9 3f bb 0e e6 3e
       0.66320276 0.6074038 1.696814 0.44933113
000090 9e fe 56 3f 65 0c 64 3f de e3 e4 3e c6 23 20 3f
       0.83982265 0.8908141 0.447051 0.62554586
0000a0 f9 80 6d 3e 72 75 fc 3f a3 f6 e7 3e e6 28 31 3f
       0.2319373 1.9723341 0.45305356 0.6920303
0000b0 e8 95 fa 3e 7e 7b 4e 3f aa 43 16 3f 18 fb d8 3e
       0.48942494 0.80657184 0.58697 0.4237907
0000c0 2c 00 2c 3f 98 8e 1d 3f f0 c1 4e 3f dd df ca 3e
       0.6718776 0.61545706 0.80764675 0.3962392
0000d0 42 9d 94 3e 12 9a 40 3f 72 b2 55 3f 94 1b 64 3f
       0.29026228 0.7523509 0.8347541 0.8910458
0000e0 aa 30 36 3f 2e 73 ea 3e c2 81 13 3f 40 36 24 3f
       0.71168005 0.45791 0.5761987 0.6414528
0000f0 24 44 13 3f 9e b6 79 3f 0e 0f 70 3e e1 66 1f 3f
       0.5752585 0.97544277 0.23443243 0.62266356

bn2.num_batches_tracked f8 []
000000 00 00 00 00 00 59 b2 40
       4697.0

fc3.weight f4 [32, 64]
000000 4f b3 03 3d 27 ee 0e 3d 4f c7 11 bd 54 11 43 bd
       0.032153424 0.03489509 -0.035590466 -0.047623947
000010 33 7a bf bc 5e cb e5 bd 84 7d a2 bd 62 60 bd bc
       -0.023373699 -0.1122043 -0.079340965 -0.023117248
000020 7c 35 05 bc 4b 62 a3 3c ba 5b 4e 3e 96 52 2a 3c
       -0.008130427 0.01994433 0.20152178 0.010395667
000030 ae cc 58 bd c0 b4 80 3d 9c e0 9e 3d 30 79 8b bd
       -0.052929573 0.06284475 0.077576846 -0.06810224
000040 bd 48 c1 bc 29 f7 67 bd 60 8c 8d bd c0 81 b2 3c
       -0.023594255 -0.056632195 -0.0691154 0.021790385
000050 a1 54 82 3c b2 36 da bd 80 2d c0 bc c4 bb 7f bd
       0.015909495 -0.106549636 -0.023459196 -0.062434927
000060 c9 29 60 bd 1a 67 dd 3d d8 21 56 3d 80 61 bb bd
       -0.05472735 0.10810681 0.05227837 -0.09149456
000070 86 e9 50 3d ac c1 5a bd 1e 75 25 3e 2a 0a c9 bc
       0.051003955 -0.053407356 0.16157958 -0.02454098
000080 ac ca 51 3d 84 c9 f0 bd 5f de 00 be e6 21 2c bd
       0.051218674 -0.11757186 -0.12584828 -0.042024516
000090 dc 7b 50 3e 02 6d c9 3d b7 f0 29 3d ec f2 f5 3d
       0.20359749 0.09835245 0.04148933 0.12009224
0000a0 0e d7 17 3d 66 1d ad bc 8a 0d 1e bc 0a 02 7f bd
       0.037070327 -0.021132182 -0.009646783 -0.062257804
0000b0 a6 56 83 bd a8 3d 24 be 70 5e cb 3d 85 91 60 3d
       -0.06413011 -0.16039145 0.09930122 0.05482628
0000c0 8b 24 1b 3d be 5b 3b 3d f3 eb c0 3d 65 cb 6b 3d
       0.037876647 0.04574179 0.09420004 0.05756702
0000d0 30 78 36 3a f2 26 9f 3d 28 3c ee 3c 7c cb b3 bd
       0.00069606584 0.077711 0.02908142 -0.08779046
0000e0 a4 9f fb 3c 1c a2 ba 3d 40 63 4b 3c 78 6f a6 3d
       0.030715771 0.09112951 0.0124138 0.0812673
0000f0 f1 be 49 3c 2a 49 9d bd 2a c6 99 bd 0c 63 ed bc
       0.01231359 -0.076799706 -0.075085 -0.028977893
000100 90 2d 35 bd 36 d0 31 bc 55 e8 ba 3d 42 bc ee 3d
       -0.044232905 -0.010852864 0.09126345 0.11657001
000110 43 83 7a 3d 38 9c ed 3d ec 55 ae bd 08 22 b8 3d
       0.061160337 0.11602062 -0.08512482 0.08990866
000120 4e 43 6d bd 86 7f e8 bc 90 06 4f 39 4d b9 60 3c
       -0.057925515 -0.02838112 0.00019743503 0.013716054
000130 8f 52 9b 3c 1b b8 84 3c fa 47 d1 3d fb fa 6b 3d
       0.018960265 0.01620107 0.102188066 0.0576124
000140 fd 6f 77 bd f8 76 b3 3d 06 9f d6 3d a8 7b 28 bd
       -0.060409535 0.08762926 0.1047955 -0.041133553
000150 c1 0f 0a bd ac f7 a9 bd 9d e5 b6 bd da 83 4c 3e
       -0.03370643 -0.08299193 -0.08930514 0.19972172
000160 64 63 b5 bd ae fa f8 3d 2e 95 84 bd 3e 7c 7b bd
       -0.08856848 0.12157188 -0.06473766 -0.061397783
000170 d6 b7 89 3d 2d 3e f2 3b 00 be ff bc 2e 20 09 bd
       0.06724517 0.007392666 -0.031218529 -0.033477955
000180 ab de 6b bd 82 7e 86 3d fd d1 dd 3d 47 72 05 bd
       -0.0575854 0.06567098 0.10831068 -0.032579686
000190 b9 b8 07 3e 76 7b b3 3d b9 d0 82 3b d9 ef f3 3d
       0.1325406 0.08763783 0.003992167 0.11910982
0001a0 50 fc 94 3d 0e 72 97 bd 22 24 b4 3d f2 79 4d 3d
       0.07274687 -0.07394801 0.08795954 0.050165124
0001b0 3b a0 a3 3d 06 6b 91 bd f3 1c b0 bd 76 06 1b bd
       0.07989546 -0.07100491 -0.085992716 -0.03784796
0001c0 47 76 99 3d 8d 24 98 bc 2c a2 a9 3d 7c 14 b6 3d
       0.07493263 -0.018572116 0.08282885 0.08890626
0001d0 ee 61 f6 3d a2 c5 d3 bd 07 ed 87 3d 96 7d 03 3c
       0.12030397 -0.1034043 0.06637006 0.0080255475
0001e0 03 93 c6 3c 28 5d d9 bd f4 5d 9f bd 3c 89 fd 3b
       0.024240023 -0.10613471 -0.07781592 0.007737307
0001f0 18 da 8c bd ca 26 7d bd de 25 d7 3d 1b f3 2c bc
       -0.068775356 -0.06180457 0.105052695 -0.010556008
000200 12 8f 5d bd ee d1 f2 bd 4e 82 45 bc 09 e6 3b 3d
       -0.05409152 -0.11856447 -0.012054993 0.045873675
000210 4e 63 f9 3a 45 b8 55 3d 6a 4b 98 bd d0 82 91 bc
       0.0019026787 0.052177686 -0.07436259 -0.017762572
000220 08 2e 65 bd ef 5d 22 3e 84 53 fa 3d 86 6d 5c 3d
       -0.055952102 0.15856145 0.122229606 0.053815387
000230 56 08 3c 3d b6 b6 84 bd 3d ab 7c bd 83 2d 3a bd
       0.045906387 -0.06480162 -0.061686743 -0.04545356
000240 7e 5d 11 3d aa a2 95 3c 6c 50 af bd 84 c1 d3 3d
       0.03548955 0.01826604 -0.08560261 0.103396446
000250 b8 8e 14 bd ec e2 8c bd 74 19 38 3d 5a 89 62 bc
       -0.03626892 -0.068792194 0.04494615 -0.0138266925
000260 65 b4 e1 bd 1c 4f 0d 3d 58 99 0e 3d e8 d7 f7 bc
       -0.11020736 0.034499273 0.03481421 -0.03025432
000270 00 41 17 3d 10 de dd bc f0 ef ab 3c a6 27 e5 bd
       0.036927223 -0.027083427 0.020988435 -0.11189203
000280 a3 57 6a bd 14 01 3c 3c 0e 5f 52 bd ca f8 5e 3c
       -0.057212483 0.011474866 -0.051360182 0.013609121
000290 84 d5 02 3e 8c 0f dd bd 2b 85 14 3d 8c c7 09 3e
       0.12776762 -0.10793981 0.03625981 0.13455027
0002a0 2c 46 90 bd 6e 33 ce 3c c1 1b a8 bd fa 20 a1 bd
       -0.07044634 0.025171008 -0.08208419 -0.07867618
0002b0 b6 ed bd bd 9b a4 ea bd 99 49 0f 3e d4 ff a8 3d
       -0.092738554 -0.11457177 0.13992919 0.0825192
0002c0 88 88 4c 3d 1c 99 4b bd 12 e7 04 bd 58 04 b3 3d
       0.049934894 -0.049706563 -0.03244693 0.08741063
0002d0 1a 6c a1 3d ce f1 73 3c 9a 8d 07 3d 7e 23 ba bd
       0.07881947 0.014889194 0.033094026 -0.09088801
0002e0 50 96 c5 bc aa b5 18 3d 38 b7 2d 3d c4 cb 03 3d
       -0.024119526 0.037282623 0.04241106 0.032176748
0002f0 b2 d2 be 3c ea fe a9 3a d0 0d 70 bd ca 7b 21 3d
       0.023293827 0.0012969647 -0.058606923 0.039424695
000300 f8 58 18 3b 17 f3 3d 3c f6 8c 7d 3d 54 18 7d 3d
       0.002324639 0.011593602 0.06190201 0.06179078
000310 25 0f aa 3c e9 67 50 bc 36 32 91 bd 14 74 4f 3e
       0.020759175 -0.012720087 -0.07089655 0.20259124
000320 13 66 87 bd 02 8c 25 bd 62 54 ce 3d be c4 44 bd
       -0.06611266 -0.040416725 0.100746885 -0.04803919
000330 3a 19 df bd 8a 93 f4 bc 74 2e f4 3d 68 1d 8c 3d
       -0.108934835 -0.029855508 0.11922923 0.06841546
000340 32 ab bc 3d 57 33 63 3c 7e 8a ce bb f8 99 41 ba
       0.092123404 0.013867221 -0.0063031306 -0.0007385309
000350 bd 98 d2 3c 92 22 6f bc 01 7b 84 bd 77 97 4d 3e
       0.025707597 -0.014595645 -0.06468774 0.2007731
000360 2a 43 7f bd a2 06 ad 3d 10 b9 6c 3d 23 63 b0 bd
       -0.062319912 0.08448531 0.057793677 -0.08612659
000370 58 fe b9 3c 76 9c 55 bd e7 a5 dc bd 5e 0f 24 bd
       0.022704288 -0.052151166 -0.10773831 -0.040053718
000380 76 f5 28 3d 6e 8e 33 3e cd 0b 93 bd 77 c5 57 bc
       0.041249715 0.17534801 -0.07179985 -0.013169638
000390 04 92 a5 bd 28 58 19 bd 8e 87 28 3d 4a 24 00 3e
       -0.08084491 -0.037437588 0.0411449 0.12513843
0003a0 68 72 c0 3c 8a de 14 bd 6c 45 34 3d 4e a9 ae 3c
       0.023492053 -0.036345042 0.04401152 0.021320965
0003b0 92 5c ba 3d 5c 29 59 3d 9a 7c af 3d 1c 7b 0e 3d
       0.09099688 0.05301796 0.08568688 0.034785375
0003c0 6e ae 65 3d f2 2a af bb 26 76 39 bd 2b 11 8f 3c
       0.056074552 -0.0053456957 -0.04527869 0.017464241
0003d0 c4 cb 8f 3d d0 2b 87 bd e0 51 80 3d a2 cb 47 3d
       0.07021287 -0.066001534 0.062656164 0.048778184
0003e0 dd 19 e6 bd 14 0b 92 3d f9 d2 a9 bb 8c 31 aa 3c
       -0.11235402 0.07131019 -0.0051826206 0.020775579
0003f0 ba e8 a4 bd 14 a9 91 bd fd 55 1c bd 22 85 df 3d
       -0.080522016 -0.07112327 -0.038167942 0.10914065

fc3.bias f4 [32]
000000 56 09 da 3d cd 7e 32 3d de a4 b9 bd 03 ee 36 bd
       0.10646312 0.043577958 -0.09064649 -0.04466058
000010 b8 20 0d bb ee 43 fb 3d aa 4e f5 3d 58 3b a4 bd
       -0.0021534394 0.12268816 0.119778946 -0.080191314
000020 46 a2 84 bc e0 1d fb bb a7 4b d8 3d 74 03 c0 bd
       -0.01619066 -0.0076634735 0.105613045 -0.09375659
000030 30 b4 4c 3c 1c 3a 6c 3d aa 60 cc bd cc 5e b6 bd
       0.012494132 0.057672605 -0.09979375 -0.089048
000040 55 6e ec bd 0d 82 4d bd ec d0 cb 3d 0c 0c fa 3d
       -0.11544482 -0.050172854 0.09951958 0.12209329
000050 22 7c 25 3d d6 e6 e2 3c e8 6f 95 bd e5 85 85 bb
       0.040401585 0.027697962 -0.07296735 -0.0040747994
000060 66 9f 29 3b 7e a2 3b bc a1 cd bd 3d bb 89 ea 3d
       0.0025882362 -0.011452315 0.09267736 0.11452051
000070 82 4e 0b bc ac 0f 90 b9 cc 9a 01 bd 08 08 b2 3c
       -0.008502604 -0.00027477497 -0.031641766 0.021732345

bn3.weight f4 [32]
000000 52 e0 b5 3f 26 90 b9 3f a0 88 b5 3f f1 6b a8 3f
       1.4209082 1.4497116 1.418232 1.3157941
000010 c0 9b 8f 3f d3 b3 ae 3f d8 7d 93 3f d6 2b b0 3f
       1.1219406 1.3648628 1.152278 1.3763378
000020 5c 75 93 3f eb d7 8d 3f 10 4c 94 3f 76 69 92 3f
       1.152019 1.1081518 1.1585712 1.1438434
000030 14 2d 8d 3f 70 02 b6 3f f8 cd ac 3f 86 3a ad 3f
       1.1029382 1.4219494 1.3500357 1.3533485
000040 ef e3 b0 3f 97 2a bb 3f c3 7f b6 3f e4 d3 92 3f
       1.381956 1.4622372 1.425774 1.1470914
000050 6e d1 bc 3f 43 8a 93 3f 90 ca 90 3f 88 57 b4 3f
       1.4751413 1.1526569 1.1311817 1.4089212
000060 11 c1 94 3f 24 da 8c 3f 29 59 95 3f 2d 67 ad 3f
       1.1621419 1.1004071 1.1667835 1.3547112
000070 18 55 ac 3f ad 14 93 3f 8e d8 94 3f 78 92 92 3f
       1.3463469 1.1490685 1.1628587 1.1450949

bn3.bias f4 [32]
000000 f2 87 ab 3e 90 0a b1 3e ec f8 af 3e c0 06 6b 3e
       0.33502156 0.3457837 0.343696 0.22951794
000010 d7 f7 00 3d be f7 96 3e ff 48 2c 3d 04 1e 9f 3e
       0.03148636 0.29485887 0.042061802 0.31077588
000020 12 9f 35 3d 0a 55 e6 3c ae 55 2d 3d 2b 1b bb 3c
       0.044341154 0.028116722 0.04231804 0.022840103
000030 cc b3 69 bc c0 9c b1 3e ee bc 7a 3e 52 14 88 3e
       -0.014264058 0.34689903 0.24486133 0.26578003
000040 4a fb 93 3e ba f2 b9 3e c7 00 ba 3e f5 42 af 3c
       0.28902656 0.36317998 0.36328718 0.021394232
000050 27 5a d8 3e a4 a8 17 3d 30 f1 6c 3c ec 9c a5 3e
       0.4225628 0.037026063 0.0144618 0.32346284
000060 ea 66 e7 3c 35 24 37 3c 88 09 af 3c 84 02 95 3e
       0.028247315 0.011178066 0.02136685 0.29103482
000070 0b 9d 90 3e 06 7a 19 3d aa d0 dd 3c 65 22 ea 3c
       0.28244814 0.037469886 0.027077038 0.028580854
