examples/hello-world/ml-to-fl/pt/enhanced_fraudnet_stochastic/jobs/workdir/server/simulate_job/app_server/best_FL_global_model.pt (torch, 68336 bytes, 22 tensors)

fc1.weight f4 [128, 30]
0	0xbb99c341	-0.0046924655
1	0x3e2ec73c	0.1706819
2	0xbb2234e0	-0.0024750754
3	0x3e6d14e0	0.23152494
4	0xbe803b6e	-0.2504534
5	0x3e78147a	0.24226561
6	0x3eaa2d43	0.33237657
7	0x3e81563c	0.25261104
8	0x3e4d7ce6	0.20067176
9	0x3db2eb26	0.08736257
10	0x3ebdb2fe	0.37050623
11	0xbeaf7c54	-0.34274542
12	0x3eaf3a97	0.34224388
13	0x3e6ebbbb	0.23313801
14	0x3e98b330	0.2982421
15	0x3d2ee58c	0.04269938
16	0x3e366bfc	0.1781463
17	0x3e267e8f	0.16259216
18	0xbabfd730	-0.0014636274
19	0xbe056912	-0.13028362
20	0x3cee2730	0.02907142
21	0xbc9fb6d2	-0.019496355
22	0x3b8fb570	0.0043856427
23	0xbda247d1	-0.07923854
24	0xbd809043	-0.06277516
25	0xbdd5dc0a	-0.1044236
26	0xbde06ecd	-0.109586336
27	0xbdfeea87	-0.12447076
28	0x3d2a1179	0.04152057
29	0xbd015466	-0.03157463
30	0x3e37a4d6	0.17933974
31	0x3b9d4fa8	0.0048007555
32	0x3e2e2fd3	0.17010431
33	0xbd4696ab	-0.048483532
34	0x3e304f1e	0.17217681
35	0xbe1e003f	-0.15429781
36	0xbe432c9c	-0.19059986
37	0x3e184890	0.1487143
38	0xbd32bb02	-0.043635376
39	0x3c97ac57	0.018514795
40	0xbcf4a45a	-0.029863525
41	0x3e159a68	0.14609683
42	0xbda47a68	-0.0803116
43	0xbe06c76b	-0.1316201
44	0xbe3ca0c6	-0.18420705
45	0x3db1c680	0.08680439
46	0xbe345c3a	-0.17613307
47	0xbcb98268	-0.02264519
48	0x3ddca77d	0.10774133
49	0xbdadad9e	-0.084803805
50	0x3e23770e	0.15963385
51	0x3e245410	0.16047692
52	0xbda7b9b0	-0.08189714
53	0xbdd143fc	-0.10218045
54	0x3d82c0e6	0.06384449
55	0xbdd238b6	-0.10264723
56	0x3d89a400	0.06720734
57	0xbd761668	-0.060079962
58	0x3d97d47e	0.074135765
59	0xbd9d9396	-0.076941654
60	0x3bb0b882	0.005393089
61	0x3ecb794a	0.39740974
62	0xbe7040ec	-0.23462266
63	0x3ef2e5b9	0.4744089
64	0xbeb7cdb6	-0.35899132
65	0x3e61b189	0.2204038
66	0x3dd247fb	0.102676354
67	0x3ea5dc11	0.3239446
68	0x3e394ba8	0.18095267
69	0x3e5e4566	0.21706161
70	0x3f1faafb	0.6237027
71	0xbf2a3d54	-0.6649983
72	0x3f0b065c	0.5430658
73	0x3cf6f38c	0.03014543
74	0x3f096182	0.5366441
75	0x3e2abba8	0.16673148
76	0x3efd9188	0.49525094
77	0x3e3e62fe	0.1859245
78	0x3e2e7b5a	0.17039242
79	0xbe946ffc	-0.28991687
80	0xbe655a0f	-0.22397636
81	0xbdeb691b	-0.11494657
82	0xbe4d4cdc	-0.20048851
83	0x3e7eb9f6	0.24875626
84	0x3ea1de4c	0.31614912
85	0xbe4c9844	-0.1997996
86	0xbe820270	-0.25392485
87	0x3da3f139	0.08004994
88	0xbe316361	-0.17323066
89	0x3d7f7906	0.062371276
90	0x3a7ff4d8	0.00097639626
91	0x3ce7eae3	0.028310245
92	0xbc19d7d6	-0.009389838
93	0x3dad69f2	0.08467473
94	0x3e940067	0.28906557
95	0x3c77ae68	0.015117265
96	0xbe88373d	-0.26604643
97	0x3c77ccd3	0.0151245175
98	0xbc35097e	-0.011049626
99	0xbdf30fb0	-0.118682265
100	0xbe65f04d	-0.22454949
101	0x3ce2ea4e	0.027699616
102	0xbe8b397d	-0.27192298
103	0xbdae7c7b	-0.085198365
104	0xbd88dbbf	-0.06682538
105	0x3db6f2a2	0.08932997
106	0xbdd368ec	-0.10322747
107	0xbde042ec	-0.10950264
108	0xbe01af8b	-0.1266462
109	0x3d8b3a5b	0.0679824
110	0x3e16a46a	0.14711156
111	0xbd6a0b64	-0.05713977
112	0x3d02fb36	0.031977855
113	0x3d6c95e4	0.057760134
114	0xbc938d3f	-0.018011687
115	0xbe2183b2	-0.15772894
116	0xbe3e7fc4	-0.18603426
117	0xbdb78dc8	-0.089625895
118	0x3d99db9e	0.07512592
119	0x3daa2dfa	0.083095506
120	0x3d939720	0.07206559
121	0xba932a20	-0.0011227764
122	0x3e25836c	0.16163415
123	0x3dacea0f	0.08443081
124	0x3e0bb316	0.13642535
125	0xbc1e5218	-0.009663127
126	0xbcbddd10	-0.0231767
127	0x3e2147b8	0.15750015
128	0xbcb8fe15	-0.022582093
129	0x3dae66b6	0.08515684
130	0x3d57bd5a	0.052670814
131	0x3e4469f5	0.19181044
132	0x3d2cedaa	0.04221884
133	0x3c1c39e4	0.009535287
134	0xbdd07a87	-0.1017962
135	0xbc222a60	-0.009897798
136	0x3d389e12	0.045072623
137	0xbe29508c	-0.16534632
138	0x3e11728c	0.14203852
139	0xbda34f46	-0.079741046
140	0x3d969cac	0.073541015
141	0xbd038584	-0.032109752
142	0x3d99ce78	0.07510084
143	0x3dd5c1ce	0.10437356
144	0xbd408cc2	-0.047009237
145	0xbd73d2c1	-0.059527162
146	0xbdf627d8	-0.12019318
147	0x3e4348c3	0.19070725
148	0x3e43ff8b	0.1914045
149	0x3e01fe22	0.126946
150	0x3c9e7aaf	0.01934561
151	0x3e136073	0.14392261
152	0xbe8176b5	-0.2528588
153	0x3ef4fc18	0.47848582
154	0xbf03fc7d	-0.5155714
155	0xbdf76ed4	-0.12081686
156	0x3e67e330	0.22645259
157	0x3eb91f92	0.361569
158	0x3ddf80da	0.10913248
159	0x3e6d993c	0.23202986
160	0x3e82eb10	0.25569963
161	0xbef77e86	-0.48338717
162	0x3f0a8a43	0.5411722
163	0xbd00a410	-0.031406462
164	0x3e9c0d47	0.3047888
165	0x3dc46b5c	0.0959079
166	0x3e114a37	0.14188467
167	0x3eab7b3f	0.33492467
168	0x3e26799c	0.16257328
169	0xbe06fb80	-0.13181877
170	0xbdcc1450	-0.09964812
171	0x3dd8e5ae	0.10590683
172	0xbd6bffb0	-0.05761689
173	0xbdb837a1	-0.08994985
174	0x3e22a1b5	0.15881999
175	0xbe4bbf67	-0.19897233
176	0xbe3e4672	-0.1858156
177	0x3e19fd6d	0.1503808
178	0xbe2dcb17	-0.16972004
179	0xbd2bded0	-0.041960537
180	0xbd82fc0f	-0.063957326
181	0xbe8cbdcd	-0.27488557
182	0x3e69a0c1	0.22815229
183	0xbe9ac7f7	-0.30230686
184	0x3e9aa028	0.30200315
185	0xbde84561	-0.11341358
186	0xbe7c7758	-0.24654901
187	0xbe87806e	-0.26465172
188	0x3cc67b7d	0.024228806
189	0xbdb5fb33	-0.08885803
190	0xbe8db092	-0.27673775
191	0x3e8407fa	0.25787336
192	0xbe2ed2af	-0.17072557
193	0xbe6d4947	-0.23172484
194	0xbe1a1975	-0.15048774
195	0xbe5046e9	-0.2033955
196	0xbda2a4e3	-0.07941606
197	0xbdae318e	-0.085055456
198	0xbd7beb56	-0.06150373
199	0xbd48f15c	-0.049058303
200	0xbdcc9008	-0.09988409
201	0x3e2ef2f1	0.17084862
202	0x3d78c1d4	0.060731724
203	0x3be69e7c	0.007037936
204	0xbe86a901	-0.26300815
205	0xbb980d40	-0.0046402514
206	0xbdab2af1	-0.083578
207	0x3e246f69	0.16058125
208	0x3e84d372	0.2594257
209	0x3d38be20	0.045103192
210	0x3ddddd61	0.1083324
211	0xbd9ed2af	-0.077550285
212	0xbd900498	-0.07032126
213	0x3e2df050	0.16986203
214	0xbe57bb7e	-0.21067616
215	0xbe072010	-0.13195825
216	0x3c3502e1	0.01104805
217	0x3e327fe1	0.17431594
218	0x3e20af2b	0.15691821
219	0xbd1ac4e2	-0.03778542
220	0xbcfe5fc0	-0.031051517
221	0xbe700f6c	-0.23443383
222	0x3e14d668	0.14534914
223	0x3c6b9112	0.014377849
224	0x3d1ed95c	0.03878151
225	0x3d68930b	0.056780856
226	0x3ded0120	0.1157248
227	0x3e450ee4	0.19243962
228	0x3e7aa7c1	0.24478056
229	0x3aab6350	0.0013075862
230	0xbd885656	-0.06657092
231	0xbe294ce5	-0.16533239
232	0xbde911f6	-0.11380379
233	0x3e503d52	0.20335892
234	0xbe16b740	-0.14718342
235	0xbd25c5c3	-0.040471803
236	0x3cce54b1	0.025186868
237	0x3c6ec880	0.01457417
238	0xbe481ad3	-0.19541483
239	0xbe171fad	-0.14758177
240	0xbbf0ea73	-0.0073521673
241	0x3d973970	0.07384002
242	0xbea654d5	-0.32486597
243	0x3e81e5fb	0.25370774
244	0xbe797c56	-0.24363837
245	0xbc3aa01e	-0.011390714
246	0x3e2b2672	0.16713884
247	0x3e75fb0e	0.24021551
248	0x3d88dab7	0.066823415
249	0x3e947d5e	0.29001898
250	0x3e8a3d6c	0.26999986
251	0xbe88228c	-0.26588857
252	0x3e356a3a	0.17716303
253	0x3d5a87e5	0.053352255
254	0x3cb265da	0.021777082
255	0x3c43523e	0.0119214635

fc1.bias f4 [128]
0	0x3dc37070	0.0954293
1	0xbd336ad2	-0.043803044
2	0xbd993358	-0.07480496
3	0xbdfed028	-0.124420464
4	0x3d080c1a	0.033214666
5	0x3d3ef91c	0.046624288
6	0xbe2e038c	-0.1699354
7	0xbe269fde	-0.16271922
8	0x3da7eb72	0.081992045
9	0xbc86581f	-0.016399441
10	0xbe1935c6	-0.14961919
11	0xbe1dfe65	-0.15429075
12	0x3c9ed164	0.019386955
13	0x3c8cb19d	0.017174536
14	0x3e1e11f4	0.15436536
15	0x3b873c52	0.004127064
16	0x3d4dc516	0.050236784
17	0x3a91f1be	0.0011134667
18	0x3d97be92	0.07409395
19	0x3d96589c	0.0734112
20	0xbd306b1a	-0.04307089
21	0xbc65b345	-0.014019792
22	0x3accca82	0.0015624317
23	0x3e125069	0.14288487
24	0xbc8d176c	-0.017223082
25	0x3e1d0ba8	0.15336478
26	0x3e10ce2e	0.14141151
27	0xbdadc933	-0.08485641
28	0x3e2688b2	0.16263083
29	0xbe115bed	-0.14195223
30	0x3e3aeb30	0.1825378
31	0x3dbee672	0.09321298
32	0xbdaf3cfc	-0.08556554
33	0x3bf08a60	0.0073407143
34	0x3d83bccd	0.06432495
35	0xbbd04129	-0.006355424
36	0xbdc9d456	-0.09854953
37	0x3d951138	0.07278675
38	0xbd240e7f	-0.040052887
39	0x3b1710fa	0.002305089
40	0xbdefdc82	-0.117119804
41	0x3e3071f6	0.17230973
42	0x3db0dc0e	0.08635722
43	0xbcece26e	-0.028916564
44	0x3e199f1d	0.15002103
45	0xbcf0ab01	-0.029378416
46	0xbdc30935	-0.095232405
47	0x3c994719	0.01871066
48	0x3dce702a	0.10079987
49	0xbd24c946	-0.04023101
50	0xbe26d39d	-0.16291662
51	0xbd1fd2e3	-0.039019477
52	0xbdabef7a	-0.08395286
53	0xbdc53d92	-0.09630884
54	0x3e06ae41	0.1315241
55	0xbda249a6	-0.079242036
56	0xbca7b2be	-0.020470973
57	0xbe120dc7	-0.14263068
58	0xbdb4c90f	-0.088274114
59	0xbdc32f89	-0.09530551
60	0x3e3404a2	0.17579892
61	0x3dc30124	0.09521702
62	0x3d1da306	0.03848555
63	0x3dd74006	0.105102584
64	0x3c467343	0.0121124415
65	0x3ab89496	0.0014082368
66	0xbe2b80c0	-0.16748333
67	0x3c22f262	0.009945484
68	0x3e1deae2	0.15421632
69	0xbe2b9474	-0.16755849
70	0xbd631a00	-0.055444717
71	0xbdcd1f56	-0.100157425
72	0xbc118171	-0.008880959
73	0xbcc99bc6	-0.024610411
74	0x3e06d0e9	0.1316563
75	0xbe205302	-0.15656665
76	0x3d9c1db2	0.076228514
77	0xbb5514b8	-0.003251357
78	0xbdf43ad0	-0.1192528
79	0xbd851e25	-0.0649989
80	0xbd8751fa	-0.06607433
81	0x3dc2fe3a	0.09521146
82	0x3d80d5ac	0.06290755
83	0x3ddb5b7a	0.10710807
84	0xbd1c09fe	-0.038095467
85	0x3d17081e	0.036872976
86	0x3d5fa835	0.054603774
87	0xbb536bfb	-0.0032260406
88	0x3de59ecc	0.11211929
89	0xbe0b236a	-0.13587728
90	0x3de4e93f	0.11177301
91	0x3d260446	0.04053142
92	0xbd6a16b8	-0.057150573
93	0x3d838a4d	0.06422863
94	0xbd2d6f24	-0.04234232
95	0xbcbcf346	-0.02306522
96	0xbd9c6f96	-0.07638471
97	0xbd1d901e	-0.03846752
98	0x3ce112c3	0.027474767
99	0xbcd667d4	-0.026172556
100	0x3cedf1e9	0.029046016
101	0xbd91e529	-0.07123787
102	0xbd5c5281	-0.05378962
103	0xbe37c09a	-0.17944565
104	0x3e1609c6	0.14652166
105	0xbcf9b874	-0.030483462
106	0xbe3a1ec8	-0.18175805
107	0x3d073418	0.033008665
108	0xbd2ffffe	-0.042968743
109	0xbd525e92	-0.05135972
110	0xbd42dbdf	-0.047572967
111	0x3dd7bb5e	0.10533784
112	0xbe3357a9	-0.17513908
113	0x3c5edeb9	0.013602906
114	0x3e00cfac	0.1257922
115	0xbc75aa2a	-0.014994184
116	0x3e12a5b0	0.14321017
117	0xbdc3b79e	-0.095565066
118	0xbd2f17b0	-0.0427472
119	0x3d25c696	0.04047259
120	0xbcaa5198	-0.02079086
121	0xbe0f1a2e	-0.1397483
122	0x3e2f1fc2	0.17101958
123	0xbd390294	-0.045168474
124	0x3c1d16fd	0.009588
125	0xbe0cff38	-0.13769233
126	0xbd617828	-0.05504623
127	0xbbcd1240	-0.006258279

bn1.weight f4 [128]
0	0x3f705dcc	0.9389312
1	0x3f78a782	0.97130597
2	0x3f7c93fa	0.98663294
3	0x3f6e9740	0.9319954
4	0x3f6c599a	0.9232422
5	0x3f80fb00	1.0076599
6	0x3f752670	0.95761776
7	0x3f76ee87	0.96457714
8	0x3f6af6a2	0.9178258
9	0x3f701f14	0.9379742
10	0x3f7ed5de	0.99545085
11	0x3f6c68b2	0.9234725
12	0x3f7bd7e6	0.9837631
13	0x3f7d0222	0.9883138
14	0x3f833341	1.0250016
15	0x3f71a33b	0.94389695
16	0x3f6f16b0	0.93393993
17	0x3f7d6cd0	0.9899416
18	0x3f869bdc	1.0516315
19	0x3f7362a7	0.95072407
20	0x3f7b1ca4	0.9809058
21	0x3f74ebf1	0.9567252
22	0x3f6e499a	0.9308106
23	0x3f77a816	0.96740854
24	0x3f74facc	0.95695186
25	0x3f8b1fde	1.08691
26	0x3f7efdc5	0.9960597
27	0x3f788825	0.9708274
28	0x3f7529f2	0.9576713
29	0x3f7aee1a	0.98019564
30	0x3f7408f6	0.95326173
31	0x3f71e0a0	0.94483376
32	0x3f7801e6	0.96877897
33	0x3f78213d	0.9692572
34	0x3f77ae93	0.96750754
35	0x3f87bc33	1.0604309
36	0x3f70be1e	0.94040096
37	0x3f7d963e	0.99057376
38	0x3f772d71	0.96553713
39	0x3f79ec19	0.9762588
40	0x3f760488	0.96100664
41	0x3f68b5a2	0.9090215
42	0x3f76d1e8	0.9641404
43	0x3f6f3f90	0.93456364
44	0x3f7435f2	0.95394814
45	0x3f755f6e	0.9584874
46	0x3f6ef355	0.93340045
47	0x3f768ee7	0.963118
48	0x3f73e12a	0.9526545
49	0x3f7031f4	0.9382622
50	0x3f765bbe	0.9623374
51	0x3f6e46dc	0.9307687
52	0x3f7bac8e	0.9831017
53	0x3f783ca8	0.96967554
54	0x3f755dc0	0.95846176
55	0x3f766558	0.9624839
56	0x3f7a9c3c	0.97894645
57	0x3f7523c6	0.9575771
58	0x3f7844cd	0.9697998
59	0x3f6cf920	0.92567635
60	0x3f73f9b6	0.95302904
61	0x3f7aed68	0.98018503
62	0x3f744244	0.95413613
63	0x3f793948	0.9735303
64	0x3f74a7fe	0.95568836
65	0x3f7cee41	0.98801047
66	0x3f796788	0.974236
67	0x3f74331b	0.9539048
68	0x3f7eee28	0.9958215
69	0x3f760735	0.9610475
70	0x3f75ed5f	0.96065325
71	0x3f74f690	0.95688725
72	0x3f76c089	0.96387535
73	0x3f83f531	1.0309201
74	0x3f6d0c9a	0.92597353
75	0x3f72cbe0	0.9484234
76	0x3f70838a	0.9395071
77	0x3f7288f0	0.947402
78	0x3f7e4f52	0.99339783
79	0x3f746d12	0.9547893
80	0x3f7bda38	0.9837985
81	0x3f6cae74	0.92453694
82	0x3f7621b8	0.961452
83	0x3f7c913e	0.9865912
84	0x3f6c4df8	0.9230647
85	0x3f768bbe	0.9630698
86	0x3f7da16c	0.99074435
87	0x3f791be8	0.97308207
88	0x3f701b86	0.93792
89	0x3f6f7dc3	0.9355127
90	0x3f71ccca	0.9445311
91	0x3f759203	0.9592592
92	0x3f8adf99	1.0849487
93	0x3f72e294	0.9487698
94	0x3f72ec20	0.9489155
95	0x3f737e5d	0.9511469
96	0x3f757929	0.95888
97	0x3f73b161	0.95192534
98	0x3f869362	1.0513728
99	0x3f7b507d	0.9816969
100	0x3f7748aa	0.9659525
101	0x3f7b7a8a	0.98233855
102	0x3f7a4384	0.9775927
103	0x3f774920	0.96595955
104	0x3f7171a0	0.94314003
105	0x3f6aed80	0.91768646
106	0x3f718540	0.9434395
107	0x3f77e79c	0.9683778
108	0x3f7e4ac4	0.99332833
109	0x3f750eec	0.95725894
110	0x3f76f782	0.96471417
111	0x3f713d25	0.94233924
112	0x3f73485e	0.950323
113	0x3f70fe66	0.9413818
114	0x3f6eedf6	0.9333185
115	0x3f8303e4	1.0235562
116	0x3f7064c8	0.9390378
117	0x3f7bf1dd	0.9841593
118	0x3f792852	0.9732715
119	0x3f6b8d32	0.9201232
120	0x3f7934ea	0.97346365
121	0x3f6dd8b2	0.92908776
122	0x3f7a2022	0.9770528
123	0x3f7c1b38	0.9847903
124	0x3f789aa6	0.97110975
125	0x3f6efeb2	0.93357384
126	0x3f780b94	0.96892667
127	0x3f78804a	0.97070754

bn1.bias f4 [128]
0	0xbd6a57f2	-0.057212777
1	0xbd3d72ba	-0.04625199
2	0xbd2b7d78	-0.041867703
3	0xbd9be943	-0.076128505
4	0xbda70540	-0.08155298
5	0xbd1399e5	-0.036035437
6	0xbdb05d29	-0.08611519
7	0xbd511543	-0.051045667
8	0xbdd4b8e7	-0.1038683
9	0xbdc90a28	-0.0981639
10	0xbd0c8cae	-0.03431385
11	0xbd90f16d	-0.07077298
12	0xbcf1135e	-0.02942818
13	0xbcbcd58f	-0.023051051
14	0xbbd87924	-0.006606238
15	0xbd7fcc80	-0.062450886
16	0xbddf4bb2	-0.109031096
17	0xbd2b0148	-0.04174927
18	0xbd24dffe	-0.040252678
19	0xbd9ac9f4	-0.07558051
20	0xbcf0a053	-0.029373324
21	0xbd1b3528	-0.03789249
22	0xbdab5b81	-0.08367062
23	0xbd48c4b3	-0.049015712
24	0xbd08a4d9	-0.033360336
25	0x3dabe6e2	0.08393647
26	0xbc9b9364	-0.01899118
27	0xbca71c48	-0.020399228
28	0xbd01b9f6	-0.031671487
29	0xbd4c40c6	-0.04986646
30	0xbdab38fe	-0.0836048
31	0xbd556182	-0.052094944
32	0xbd12d6d2	-0.0358494
33	0xbd39d322	-0.045367368
34	0xbdb2edb0	-0.087367415
35	0x3da649e3	0.081195615
36	0xbd3a6a2e	-0.045511417
37	0xbd08622e	-0.033296756
38	0xbd818ef6	-0.06326096
39	0xbca4b236	-0.020104509
40	0xbcb2f5b7	-0.021845682
41	0xbda7ec3c	-0.08199355
42	0xbd4f480c	-0.05060582
43	0xbd7211a8	-0.05909887
44	0xbd8ebee0	-0.0697
45	0xbd9ab27a	-0.07553573
46	0xbda61e31	-0.08111227
47	0xbd91726b	-0.071019016
48	0xbd88f9fe	-0.06688307
49	0xbd834f9a	-0.06411667
50	0xbd1bed19	-0.03806791
51	0xbd8afb99	-0.0678627
52	0xbd42b61e	-0.04753696
53	0xbd566051	-0.05233795
54	0xbd848a0a	-0.06471641
55	0xbdb730a4	-0.08944824
56	0xbd2d6851	-0.042335812
57	0xbd582fd1	-0.052779976
58	0xbcc73b6d	-0.024320329
59	0xbdadc56b	-0.0848492
60	0xbd86942a	-0.06571229
61	0xbd100824	-0.035164014
62	0xbd931332	-0.071813956
63	0xbd60ba1a	-0.05486498
64	0xbd3d7571	-0.04625458
65	0xbd29c080	-0.041443348
66	0xbd856353	-0.06513085
67	0xbd920a3b	-0.071308576
68	0xbd229133	-0.039689254
69	0xbda26322	-0.07929064
70	0xbd97c862	-0.07411267
71	0xbdad6f20	-0.08468461
72	0xbd1f54f8	-0.038899392
73	0x3d6e540c	0.058185622
74	0xbdca0e2a	-0.09865983
75	0xbd872f98	-0.06600875
76	0xbd65ecf7	-0.05613419
77	0xbdac7a4c	-0.08421764
78	0x3c0d3d42	0.008620562
79	0xbd1b4472	-0.03790707
80	0xbc8e7dac	-0.01739391
81	0xbd74e3c2	-0.05978752
82	0xbd7d5632	-0.06184978
83	0xbd2e7220	-0.042589307
84	0xbd9028bc	-0.070390195
85	0xbd4b96a1	-0.049704198
86	0xbd5efab7	-0.05443832
87	0xbca573dc	-0.020196848
88	0xbd3e1fbc	-0.046416983
89	0xbd826dca	-0.06368597
90	0xbd600d86	-0.054700397
91	0xbd108143	-0.035279524
92	0x3d516ed2	0.051131077
93	0xbda68b3c	-0.081320256
94	0xbd89e04b	-0.067322336
95	0xbdcbf980	-0.09959698
96	0xbd95d421	-0.07315851
97	0xbcc7e390	-0.024400502
98	0x3dd5079d	0.10401843
99	0xbcd1ecca	-0.025625605
100	0xbd4106b8	-0.047125548
101	0xbd404567	-0.046941187
102	0xbd8b515d	-0.06802628
103	0xbd41897a	-0.04725025
104	0xbdb78af5	-0.08962051
105	0xbd6f62ee	-0.058443956
106	0xbd688655	-0.056768734
107	0xbd386ae2	-0.045023806
108	0xbcc8638d	-0.024461532
109	0xbcf73c61	-0.030180158
110	0xbd844ffb	-0.064605676
111	0xbd6c8be0	-0.057750583
112	0xbda47b2c	-0.08031306
113	0xbdb5a69b	-0.08869668
114	0xbd94de98	-0.07269019
115	0xbc417580	-0.011807799
116	0xbd83ec2c	-0.064415306
117	0xbcae8b92	-0.021306787
118	0xbd6703fe	-0.05640029
119	0xbdad87b4	-0.08473149
120	0xbd4d5b4a	-0.05013589
121	0xbd9cd4ca	-0.07657774
122	0xbda6485a	-0.08119269
123	0xbc45dcd2	-0.012076573
124	0xbd29b55a	-0.041432716
125	0xbdd73f29	-0.10510094
126	0xbd0cd1e4	-0.034379855
127	0xbd934938	-0.071917

bn1.running_mean f4 [128]
0	0xc3d95502	-434.66412
1	0x467e0306	16256.756
2	0x43f3038d	486.02774
3	0x42c98f8c	100.780365
4	0x45cd14a8	6562.582
5	0x44d48d79	1700.421
6	0xc5b547c6	-5800.9717
7	0x4619dc6b	9847.1045
8	0xc427508a	-669.2584
9	0xc5624633	-3620.3875
10	0x45c8b4b0	6422.586
11	0x4433c978	719.14795
12	0x43f241d2	484.51422
13	0x45d146f3	6696.8687
14	0x43366e7b	182.43156
15	0xc3ef6b01	-478.83597
16	0x438584dc	267.03796
17	0x438af1c9	277.88895
18	0xc28fd463	-71.91482
19	0xc5c6048d	-6336.569
20	0x457a57b9	4005.4827
21	0xc675ca14	-15730.52
22	0xc55d0948	-3536.58
23	0xc66d9fdd	-15207.966
24	0xc5c4e603	-6300.7515
25	0xc5aca3cd	-5524.475
26	0xc5f2163c	-7746.7793
27	0x45c1b416	6198.5107
28	0xc5cc9542	-6546.657
29	0x44469d49	794.4576
30	0xc2941e10	-74.058716
31	0xc40093cc	-514.3093
32	0xc202cee4	-32.70204
33	0x45f34c74	7785.5566
34	0xc3c7a562	-399.29205
35	0x4365b88f	229.72093
36	0x4411efcc	583.7468
37	0x43270e11	167.05495
38	0x4363215d	227.13033
39	0x45e82dd3	7429.728
40	0x45abd2c6	5498.3467
41	0xc614ad10	-9515.266
42	0xc3ae957b	-349.16782
43	0xc48b3141	-1113.5392
44	0xc26405f2	-57.005806
45	0xc1a5f1a8	-20.742996
46	0xc60c24ca	-8969.197
47	0xc59e72ba	-5070.341
48	0x44233ec9	652.981
49	0x458ed978	4571.1836
50	0xc380ca26	-257.57928
51	0x442af517	683.8295
52	0x46270144	10688.316
53	0xc51abe61	-2475.8987
54	0xc525358c	-2643.3467
55	0x4510bf0a	2315.94
56	0xc30565cb	-133.39763
57	0x453dc830	3036.5117
58	0x4647aff9	12779.993
59	0x44511b18	836.42334
60	0x454fa5be	3322.359
61	0xc58e0d41	-4545.6567
62	0x43fd5307	506.64865
63	0xc2d0a8e0	-104.329834
64	0xc3398e3e	-185.55563
65	0xc65c635a	-14104.838
66	0xc2e975d4	-116.73013
67	0x43a6a638	333.29858
68	0xc408797b	-545.89813
69	0x43108484	144.51764
70	0xc3e0425f	-448.51852
71	0x44529bf2	842.43665
72	0xc668bbe8	-14894.977
73	0x41b83850	23.027496
74	0x44050246	532.0355
75	0x4476728a	985.7897
76	0x460ec6a5	9137.661
77	0xc3c99a76	-403.20673
78	0x46136d36	9435.303
79	0x46668b98	14754.898
80	0x45a341c0	5224.2188
81	0xc2c717c6	-99.54643
82	0x42b7c6fd	91.88865
83	0x454fe558	3326.334
84	0x432e4c22	174.2974
85	0xc4eab300	-1877.5938
86	0xc3969dd7	-301.23312
87	0x441c8ec4	626.2307
88	0x45fcf3ba	8094.466
89	0xc5fc50a0	-8074.078
90	0x43a8ca19	337.5789
91	0x4517d978	2429.5918
92	0x3f5f5035	0.8723176
93	0xc2c224c8	-97.07184
94	0xc54f8bcb	-3320.737
95	0x44218900	646.1406
96	0x446ea130	954.51855
97	0x444fd5ac	831.3386
98	0x42afd50e	87.91612
99	0x46336f79	11483.868
100	0x46006db0	8219.422
101	0x44d421cd	1697.0563
102	0x42bda7b3	94.82754
103	0x458311c0	4194.2188
104	0x4331a72e	177.65305
105	0xc5b3aca3	-5749.5796
106	0x43fadb5a	501.71368
107	0xc602d80e	-8374.014
108	0xc3b65fe8	-364.74927
109	0x4556e1ee	3438.1206
110	0x43623523	226.20757
111	0xc517b72a	-2427.4478
112	0xc5b6d2ac	-5850.334
113	0xc616b599	-9645.399
114	0x43281286	168.07236
115	0x432974d9	169.45644
116	0xc3c8b5cf	-401.42038
117	0x46935296	18857.293
118	0xc4ad1b4f	-1384.8534
119	0xc52aece4	-2734.8057
120	0xc3a78662	-335.04987
121	0x439f1a3f	318.20505
122	0xc509b8e0	-2203.5547
123	0x46413c87	12367.132
124	0xc615a7cc	-9577.949
125	0xc549a48d	-3226.2844
126	0x4551b9a5	3355.6028
127	0xc5d84367	-6920.4253

bn1.running_var f4 [128]
0	0x475ea5c4	56997.766
1	0x4c8fd595	7.54106e+07
2	0x478bffab	71679.336
3	0x47e7621a	118468.2
4	0x4b4fbefa	1.3614842e+07
5	0x49ddf568	1.818285e+06
6	0x4b957677	1.9590382e+07
7	0x4bd61818	2.8061744e+07
8	0x47fe2984	130131.03
9	0x4ac710ab	6.5229655e+06
10	0x4b33e134	1.1788596e+07
11	0x482550ec	169283.69
12	0x478503a6	68103.3
13	0x4b7691ca	1.6159178e+07
14	0x4691a677	18643.232
15	0x47a20a77	82964.93
16	0x47b951a2	94883.266
17	0x474d32dd	52530.863
18	0x44b690f8	1460.5303
19	0x4ba32d16	2.138782e+07
20	0x4ad88a24	7.09557e+06
21	0x4c929230	7.684544e+07
22	0x4aeb1b37	7.7039635e+06
23	0x4c8c10be	7.343461e+07
24	0x4b2c99fa	1.131161e+07
25	0x4b7cb2ce	1.6560846e+07
26	0x4b816f38	1.6965232e+07
27	0x4b2e8b4d	1.1438925e+07
28	0x4bbda09f	2.4854846e+07
29	0x49ad145c	1.4178675e+06
30	0x47670bca	59147.79
31	0x47bdbf2c	97150.34
32	0x46d672bc	27449.367
33	0x4bfd63fa	3.3212404e+07
34	0x47382410	47140.062
35	0x46f7c0dc	31712.43
36	0x47cd2636	105036.42
37	0x460904ec	8769.23
38	0x471b995d	39833.363
39	0x4bc6dc85	2.6065162e+07
40	0x4b8e8d93	1.868471e+07
41	0x4bda23cf	2.859203e+07
42	0x4782c5f4	66955.91
43	0x49ad5bba	1.4201512e+06
44	0x46885080	17448.25
45	0x47961535	76842.414
46	0x4c3f7764	5.019176e+07
47	0x4af10aa6	7.898451e+06
48	0x480448d1	135459.27
49	0x4b51d7ee	1.3752302e+07
50	0x47e14228	115332.31
51	0x4825dacd	169835.2
52	0x4bf7fd1e	3.250438e+07
53	0x4a64507d	3.7407032e+06
54	0x4a7cb4f3	4.1403488e+06
55	0x4a72a447	3.9754418e+06
56	0x47dfef6e	114654.86
57	0x4a6a0aa6	3.8345375e+06
58	0x4c30385c	4.6195056e+07
59	0x48450622	201752.53
60	0x4adf01d1	7.3074965e+06
61	0x4b001e1c	8.396316e+06
62	0x483b8b1a	192044.4
63	0x471dd582	40405.508
64	0x46344611	11537.517
65	0x4c805498	6.728211e+07
66	0x47e6f900	118258.0
67	0x47012082	33056.508
68	0x4823d333	167756.8
69	0x471ada86	39642.523
70	0x48408911	197156.27
71	0x4847e347	204685.11
72	0x4c7a69b6	6.564425e+07
73	0x44a4ba24	1317.8169
74	0x47a6ee37	85468.43
75	0x489289b4	300109.62
76	0x4bd1ab02	2.7481604e+07
77	0x47b94377	94854.93
78	0x4bd21099	2.7533618e+07
79	0x4c6a8ec1	6.1487876e+07
80	0x4b3fbd36	1.2565814e+07
81	0x4769d444	59860.266
82	0x469606c6	19203.387
83	0x4a97146a	4.950581e+06
84	0x4871287c	246945.94
85	0x4a12f4d6	2.4077335e+06
86	0x471398c5	37784.77
87	0x47ea47ab	119951.336
88	0x4c08d274	3.586709e+07
89	0x4b8fe08a	1.885826e+07
90	0x479bb0d9	79713.695
91	0x4a80ae21	4.2165925e+06
92	0x43af469c	350.55164
93	0x47b8eed8	94685.69
94	0x4ac5dacc	6.483302e+06
95	0x48366c36	186800.84
96	0x49952ad5	1.2219786e+06
97	0x485c6aec	225707.69
98	0x457e4a35	4068.638
99	0x4c128f18	3.841955e+07
100	0x4b91aea6	1.909486e+07
101	0x499b1dfc	1.2707195e+06
102	0x46be0135	24320.604
103	0x4adfa3aa	7.328213e+06
104	0x47ff1908	130610.06
105	0x4b9aaa1a	2.027218e+07
106	0x482801fc	172039.94
107	0x4bc87c43	2.6278022e+07
108	0x4798625e	78020.734
109	0x4adbe6df	7.2057435e+06
110	0x46a44fcb	21031.896
111	0x4a2ce664	2.832793e+06
112	0x4b1e0306	1.0355462e+07
113	0x4bcce3e2	2.6855364e+07
114	0x4831f684	182234.06
115	0x468c8fd9	17991.924
116	0x4787d2df	69541.74
117	0x4cc59288	1.0358483e+08
118	0x49133b32	603059.1
119	0x4ab2baa2	5.856593e+06
120	0x470e3cb3	36412.7
121	0x46ee64bc	30514.367
122	0x4a1dfa0a	2.5882905e+06
123	0x4c24e0ec	4.3221936e+07
124	0x4bc6296c	2.5973464e+07
125	0x4a987cb2	4.996697e+06
126	0x4ae3d381	7.4654085e+06
127	0x4bf6bb75	3.233969e+07

bn1.num_batches_tracked f8 []
0	0x40a4c50000000000	2658.5

fc2.weight f4 [64, 128]
0	0xbd4fb3fe	-0.050708763
1	0x3c2ad871	0.01042758
2	0x3cbacfac	0.022804104
3	0x3cccf721	0.025020184
4	0xbc723010	-0.014781967
5	0xbd81276c	-0.06306347
6	0xbc8392af	-0.016061155
7	0xbd5c7607	-0.053823497
8	0xbd4fbf89	-0.05071977
9	0xbd4fddaa	-0.050748505
10	0xbdb6b7aa	-0.0892175
11	0x3d04e640	0.032446146
12	0xbbc24498	-0.005928587
13	0xbc867b60	-0.016416252
14	0x3d4538aa	0.048149742
15	0xbd6e40ac	-0.058167145
16	0xbd7c45ed	-0.061590124
17	0xbd02a43c	-0.031894907
18	0x3c68019c	0.01416054
19	0x3d1cbfcc	0.03826885
20	0xbcb4446e	-0.022005286
21	0xbb985818	-0.0046491735
22	0xbcbb47d5	-0.0228614
23	0xbd1ddb28	-0.03853908
24	0x3c349333	0.011021423
25	0xbda0cb53	-0.07851281
26	0x3d338278	0.043825597
27	0xbd29d02b	-0.04145829
28	0x3d045bee	0.032314233
29	0xbcd9e478	-0.0265982
30	0xbca5a613	-0.020220792
31	0xbd8b644a	-0.06806238
32	0x3cb7ec16	0.022451442
33	0x3d4ea310	0.050448477
34	0xbc4b5d41	-0.01241237
35	0x3b304ac0	0.0026900023
36	0xbd118ba0	-0.035533547
37	0x3d42d708	0.04756835
38	0xbd6800f8	-0.05664155
39	0xbd88e0d9	-0.06683511
40	0x3d550834	0.052009776
41	0xbd804280	-0.06262684
42	0xbd8cd8c0	-0.06877279
43	0x3d893918	0.06700343
44	0x3d103510	0.035206854
45	0xbd83f419	-0.06443042
46	0x3d4d04c4	0.050053373
47	0xbc757788	-0.014982112
48	0xbda227ba	-0.079177335
49	0x3d931a6e	0.071827754
50	0x3d4bcb98	0.04975471
51	0xbd940036	-0.07226603
52	0xbd509b18	-0.05092916
53	0xbcd80c00	-0.02637291
54	0x3cafaa84	0.021443613
55	0x3d9e83fa	0.07740016
56	0xbd8a7dfd	-0.067623116
57	0xbdd8a70c	-0.10578737
58	0xbd4741c2	-0.048646696
59	0x3ca6987b	0.02033638
60	0x3d597ae9	0.053095732
61	0xbc18cd40	-0.009326279
62	0x3d969ae4	0.07353762
63	0x3c019d72	0.007911073
64	0xbdc3a4f4	-0.09552947
65	0xbd5bc302	-0.05365277
66	0x3cb7dec6	0.022445094
67	0xbd422281	-0.047396187
68	0xbcc8da56	-0.024518173
69	0x3ad117c0	0.0015952513
70	0xbd4d2537	-0.05008432
71	0xbdb9b867	-0.09068375
72	0xbd14e90e	-0.03635507
73	0xbdcf1431	-0.10111273
74	0x3cd40dd4	0.0258855
75	0xbc482328	-0.012215413
76	0xb8adad40	-8.281553e-05
77	0xbd622134	-0.055207446
78	0x3d4d5173	0.050126504
79	0x3d2c9325	0.042132515
80	0xbd8e7eb2	-0.06957759
81	0xbcff2640	-0.031146169
82	0x3c305028	0.010761298
83	0x3ba4171d	0.005007638
84	0xbd845457	-0.06461399
85	0xbc5c7f83	-0.013458136
86	0xbcbd700f	-0.023124723
87	0xbd9b74fd	-0.07590673
88	0x3d2e0ea0	0.042494416
89	0x3d6cea76	0.057840787
90	0xbd97c560	-0.07410693
91	0xbdaa4db4	-0.08315602
92	0xbcf1d879	-0.029522168
93	0xbcf0c7bc	-0.029392116
94	0xbb1ebc7c	-0.0024221232
95	0x3d32ba72	0.04363484
96	0xbd69a47a	-0.057041623
97	0xbd0d30e4	-0.034470454
98	0x3cec8987	0.028874172
99	0xbc74c96e	-0.014940603
100	0xbc3eb8ad	-0.01164071
101	0xbcd3fa13	-0.02587608
102	0x3d56944d	0.052387524
103	0xbdc2d382	-0.09512998
104	0xbc80e973	-0.015736317
105	0x3d1ce3a6	0.03830304
106	0x3d868909	0.06569106
107	0x3d98691f	0.07441925
108	0xbda03a1f	-0.07823586
109	0x3cbe2973	0.023213124
110	0x3c1e8e8b	0.00967754
111	0x3d884f06	0.066556975
112	0x3cccc334	0.024995424
113	0x3d8466cb	0.06464919
114	0x3d51a12d	0.0511791
115	0x3d674cb1	0.056469623
116	0xbd8950c8	-0.06704861
117	0xbda98cbf	-0.08278798
118	0x3da24b7c	0.07924554
119	0x3c8f76f8	0.017512783
120	0x3d2ff39e	0.04295694
121	0xbdc1b8d6	-0.09459083
122	0x3ce97144	0.028496392
123	0xbd89f8de	-0.06736921
124	0x3d83cb12	0.06435217
125	0x3cf6f102	0.030144218
126	0xbccfbe59	-0.02535932
127	0x3d7a7d80	0.061154842
128	0xbd19869d	-0.037481893
129	0xbce52614	-0.027972259
130	0x3d31a277	0.04336783
131	0x3da3d705	0.07999996
132	0xbdb9b26c	-0.090672344
133	0x3caaf6ce	0.020869639
134	0xbc80a7c4	-0.015704997
135	0x3d39e742	0.04538656
136	0xbd3a7754	-0.045523956
137	0x3cf8e22d	0.030381287
138	0xbcdc6fd2	-0.026908789
139	0xbca27786	-0.019832384
140	0xbd2724e0	-0.04080665
141	0xbdaa2c7e	-0.083092675
142	0x3dbd64bf	0.092477314
143	0x3d0a8cc0	0.033825636
144	0xbd9ec70f	-0.07752811
145	0xbcb708c8	-0.022343054
146	0xbc13a60b	-0.009011756
147	0x3af689c2	0.0018809366
148	0xbc01df71	-0.007926808
149	0x3d1ac67d	0.03778695
150	0x3d39c4f1	0.045353834
151	0x3d43dee4	0.047819987
152	0xbd2202ce	-0.039553456
153	0xbd3cdf50	-0.046111405
154	0xbd5756f4	-0.05257316
155	0xbd4f9134	-0.050675586
156	0xbc911ef8	-0.017714962
157	0x3d4dc33e	0.050235026
158	0x3ce747a9	0.028232412
159	0xbca9c0d4	-0.02072183
160	0x3c7dd9ce	0.015493823
161	0xbd965d50	-0.07342017
162	0x3d76c710	0.060248435
163	0xbe0c33ac	-0.13691586
164	0x3d91f940	0.07127619
165	0x3d5498a0	0.051903367
166	0xbd7d2983	-0.061807167
167	0xbc9ffaef	-0.019528834
168	0xbd99b98f	-0.075060956
169	0x3cb293f2	0.021799061
170	0xbd824b7e	-0.06362055
171	0xbc09da2c	-0.008413833
172	0xbd85292a	-0.06501992
173	0x3c997c50	0.018736035
174	0x3ca2a6f0	0.019854993
175	0xbc02fdc3	-0.007995072
176	0x3d24c1fe	0.040224068
177	0xbd8969db	-0.067096435
178	0xbce4f119	-0.027946996
179	0x3c1c9d97	0.009559057
180	0xbd9f9f84	-0.07794097
181	0xbb963a98	-0.0045846216
182	0x3d5ad8de	0.053429477
183	0x3c47140d	0.012150777
184	0xbd17e8ae	-0.037087135
185	0x3bd6fc19	0.006560814
186	0xbb511309	-0.0031902215
187	0xbd87e042	-0.06634571
188	0x3daae94d	0.0834528
189	0xbccf4a1d	-0.025303895
190	0x3ccba7ba	0.024860252
191	0x3dcff513	0.10154166
192	0xbb1f3083	-0.002429039
193	0xbd25feae	-0.040526085
194	0xbcef8f61	-0.029243173
195	0xb7e6f400	-2.7531758e-05
196	0x3d96d79f	0.07365345
197	0xbd76dfb9	-0.060271952
198	0x3b865cef	0.004100434
199	0xbd5b4856	-0.05353578
200	0xbd4b7a8e	-0.049677424
201	0xbdf02b5e	-0.11727022
202	0xbd8a1166	-0.067416
203	0x3cb15e1c	0.02165132
204	0x3d02451e	0.031804197
205	0x3d84cd3b	0.06484457
206	0xbbf90cc9	-0.007600401
207	0xbcbc03ce	-0.022951033
208	0x3d396dd4	0.045270756
209	0x3da17b6e	0.078848705
210	0xbd4950d1	-0.04914934
211	0x3cce1fb2	0.025161598
212	0x3d57afdc	0.052657947
213	0x3c03ce76	0.00804483
214	0x3d3e9f9e	0.04653894
215	0xbd9558bc	-0.07292315
216	0x3d90bac7	0.07066875
217	0x3d28d39e	0.04121744
218	0xbd689100	-0.056778908
219	0x3cc69208	0.024239555
220	0xbdae263d	-0.08503387
221	0xbd8064fe	-0.06269263
222	0xbcabd570	-0.020975798
223	0xbd53b1d0	-0.051683247
224	0xbd9d732c	-0.07687983
225	0x3d2ef1c4	0.042711034
226	0xbd990c6d	-0.07473073
227	0xbd3c10fa	-0.045914628
228	0x3d8643fe	0.06555937
229	0xbd8cfd8a	-0.06884296
230	0xbd4a3df7	-0.0493755
231	0xbc8cbc39	-0.017179595
232	0x3cb54885	0.022129307
233	0xbd7338bb	-0.059380274
234	0x3bb123c7	0.0054058763
235	0xbcc6c156	-0.024262112
236	0xbcdb886d	-0.026798451
237	0x3c371da6	0.011176502
238	0xbd73f77e	-0.0595622
239	0x39bbe9b0	0.0003584153
240	0xbcd178e0	-0.025570333
241	0x3d40bb97	0.0470539
242	0xbd98ba49	-0.07457406
243	0xbbd5eef2	-0.0065287286
244	0xbc9dcd26	-0.019262861
245	0xbd2effbe	-0.042724364
246	0x3c353b44	0.011061493
247	0xbc9514a2	-0.018198315
248	0x3d87ef84	0.06637481
249	0xbdc18667	-0.09449463
250	0xbd0e7fd9	-0.034789894
251	0x3d5d3291	0.054003302
252	0x3d156896	0.036476694
253	0x3c961ea7	0.018325163
254	0x3cb3f528	0.021967486
255	0xbd2d9e9e	-0.042387597

fc2.bias f4 [64]
0	0xbd1a7e90	-0.037718356
1	0x3d9591a4	0.07303169
2	0x3a2adb2c	0.00065176445
3	0x3d47ae4a	0.0487502
4	0xbcdcdfff	-0.026962278
5	0xbd2b0772	-0.041755147
6	0x3c506434	0.012719203
7	0xbd87bb10	-0.06627476
8	0x3cd481a0	0.025940716
9	0x3d2f70d0	0.042832196
10	0x3d75fbc6	0.060054563
11	0xbd53e852	-0.05173523
12	0xbc362e34	-0.011119414
13	0x3d3c5efa	0.045989014
14	0xbb5382d6	-0.003227403
15	0xbd93b9fc	-0.07213208
16	0xbcb235b2	-0.02175412
17	0xbd101af5	-0.03518196
18	0x3cd4f7e2	0.025997106
19	0x3d62e28c	0.055391833
20	0x3d194f3c	0.03742908
21	0x3d746356	0.059665047
22	0x3d5ce355	0.05392774
23	0x3d5d0b8e	0.053966098
24	0x3d4112c6	0.047137044
25	0xbcb862d0	-0.022508055
26	0xbc665ebe	-0.014060674
27	0x3caa9134	0.020821191
28	0xbd9b52b6	-0.07584135
29	0x391231e4	0.0001394223
30	0xbd305996	-0.043054186
31	0xbc919ece	-0.01777592
32	0xbd5fe3c2	-0.054660566
33	0xbdaaa1f4	-0.08331671
34	0x3d5d5f70	0.054046094
35	0x3b2529f7	0.0025202015
36	0x3d2a85d0	0.04163152
37	0x3d79c690	0.06098038
38	0xbd1c1512	-0.03810603
39	0xbb844c89	-0.004037444
40	0xbcd3aaf3	-0.02583835
41	0xbce0df9a	-0.027450372
42	0xbd0c1032	-0.034195133
43	0xbd8caf98	-0.06869429
44	0xbc6d2688	-0.014474519
45	0x3d0f56de	0.034994952
46	0xbd53f7aa	-0.051749863
47	0x3bd794ee	0.006579033
48	0x3b5dd836	0.0033850796
49	0xbb992e41	-0.0046747033
50	0xbc3c81ba	-0.011505539
51	0xbc87eef2	-0.01659343
52	0xbce66b0e	-0.02812722
53	0xbb319b44	-0.0027100602
54	0xbc99566a	-0.018717963
55	0xbd75483b	-0.059883337
56	0x3d3ea8e4	0.046547785
57	0x3ac8cc96	0.001531976
58	0xbd3dc6ff	-0.046332356
59	0xbda4df2a	-0.08050378
60	0x3d5d64a6	0.054051064
61	0x3d6db3ea	0.058032908
62	0x3d902152	0.07037605
63	0xbc6c33ed	-0.014416677

bn2.weight f4 [64]
0	0x3f828a48	1.019845
1	0x3f7c7e6d	0.9863041
2	0x3f73f110	0.9528971
3	0x3f86e3c6	1.0538261
4	0x3f83171a	1.0241425
5	0x3f7e134c	0.99248195
6	0x3f82a8da	1.020778
7	0x3f770b54	0.9650166
8	0x3f80cd9a	1.0062745
9	0x3f81e7eb	1.0148901
10	0x3f814d71	1.0101758
11	0x3f7a4614	0.9776318
12	0x3f7208e2	0.94544804
13	0x3f7f33f7	0.9968867
14	0x3f7396fe	0.9515227
15	0x3f7957d2	0.9739963
16	0x3f751c9f	0.957468
17	0x3f7e603b	0.99365586
18	0x3f6ffaae	0.9374188
19	0x3f79701b	0.97436684
20	0x3f7a20d5	0.9770635
21	0x3f7d98f4	0.9906151
22	0x3f791a9f	0.97306246
23	0x3f81a178	1.0127401
24	0x3f824536	1.0177372
25	0x3f8011d6	1.0005443
26	0x3f7eea7e	0.99576557
27	0x3f814fac	1.0102439
28	0x3f892f57	1.0717572
29	0x3f71885a	0.9434868
30	0x3f7ec943	0.9952585
31	0x3f83b95a	1.029094
32	0x3f78e882	0.9722978
33	0x3f88eb2c	1.0696769
34	0x3f7cfa8b	0.988198
35	0x3f79d5bc	0.9759176
36	0x3f76a270	0.9634161
37	0x3f7bbc10	0.98333836
38	0x3f7a0381	0.97661597
39	0x3f74a432	0.9556304
40	0x3f7930ae	0.97339904
41	0x3f8767c1	1.0578538
42	0x3f7a4622	0.97763264
43	0x3f79095c	0.97279906
44	0x3f7b25ac	0.9810436
45	0x3f7b69ec	0.982085
46	0x3f82ac21	1.020878
47	0x3f7781f8	0.9668269
48	0x3f869176	1.0513141
49	0x3f7df139	0.991962
50	0x3f80170d	1.0007035
51	0x3f8a5fc5	1.0810477
52	0x3f7b40b1	0.98145586
53	0x3f814b28	1.0101061
54	0x3f7b9ffa	0.9829098
55	0x3f7227d8	0.94592047
56	0x3f813326	1.0093734
57	0x3f82b92d	1.0212761
58	0x3f7a5372	0.9778358
59	0x3f72dcba	0.9486805
60	0x3f783ee0	0.9697094
61	0x3f794f83	0.9738695
62	0x3f7f1882	0.9964677
63	0x3f73e619	0.95272976

bn2.bias f4 [64]
0	0xbb8beac6	-0.0042699305
1	0xbcf21bbc	-0.02955424
2	0xbc65d286	-0.0140272435
3	0x3ce46068	0.027878001
4	0x3d03a8c7	0.03214338
5	0x3cb5f7dd	0.022212917
6	0x3d0fa026	0.03506484
7	0xbc60db6b	-0.013724188
8	0xbd3978a1	-0.045281056
9	0xbab02278	-0.0013438007
10	0x3b9450c0	0.0045262277
11	0x3bce98a8	0.006304819
12	0xbd123a16	-0.035699926
13	0xbc29e6b7	-0.010369948
14	0x39a16650	0.00030784542
15	0xbcca09f2	-0.024662945
16	0xbc3c0c26	-0.011477506
17	0xbccf81d1	-0.025330456
18	0xbc831731	-0.01600227
19	0xbba097e2	-0.0049009183
20	0xbd6358fe	-0.05550479
21	0xbcbbe93b	-0.022938361
22	0xba19a1a8	-0.00058605755
23	0xbc507528	-0.012723245
24	0x3ca89b08	0.020581737
25	0xbcddbf56	-0.027068775
26	0x3c8d6a9e	0.017262753
27	0xbcbb62ea	-0.022874314
28	0x3d1cb750	0.038260758
29	0xbcffde22	-0.03123385
30	0x3b23c224	0.0024987543
31	0x3d01b27b	0.031664353
32	0xbca8ca4d	-0.020604277
33	0x3d8000df	0.06250166
34	0xb90cf3c0	-0.00013442244
35	0xbd056e9c	-0.03257619
36	0xbc8911ae	-0.016732063
37	0xbbed274e	-0.0072373515
38	0xbd724f5d	-0.059157718
39	0x3d8d7cf8	0.069086015
40	0xbd539ec0	-0.051665068
41	0x3c795c81	0.015219809
42	0xbc20c9c1	-0.009813727
43	0xbc91e193	-0.017807757
44	0x3b142be8	0.0022609178
45	0x3ca085bd	0.019595021
46	0xbc919c41	-0.017774703
47	0xbd136e42	-0.035993822
48	0xbcba8e66	-0.022772979
49	0x3bbc2f28	0.005742926
50	0xbc3fe962	-0.011713358
51	0x3d091b5e	0.033473365
52	0xbb1458d2	-0.002263595
53	0x3b4633b3	0.0030243217
54	0xbd0f4ba4	-0.034984246
55	0xbcff93d9	-0.031198429
56	0x3be6ee83	0.007047476
57	0x3c3a4767	0.011369563
58	0x3b94395c	0.0045234393
59	0xbd465f8e	-0.04843097
60	0xbc781834	-0.015142489
61	0xbc77d2f1	-0.015125976
62	0xbac1a7b0	-0.0014774706
63	0xbd1c1889	-0.038109336

bn2.running_mean f4 [64]
0	0xbf0fb235	-0.561313
1	0xbec72c63	-0.38901052
2	0x3e87bdf2	0.26512104
3	0xbe2696b1	-0.16268422
4	0xbcc221b0	-0.023697704
5	0xbf870f3a	-1.0551522
6	0xbe7d905c	-0.247621
7	0xbf23f7f9	-0.6405025
8	0xbf9be490	-1.2179127
9	0xbf3ba407	-0.7329716
10	0xbd31b6dd	-0.043387283
11	0xbea2bd7d	-0.31785193
12	0x3f0e51d9	0.5559364
13	0xbf436c6a	-0.763373
14	0xbebd699a	-0.3699463
15	0xbea5164f	-0.32243583
16	0xbdd99e98	-0.106259525
17	0xbe06e0e3	-0.13171725
18	0x3edb5668	0.4283936
19	0x3eb295a8	0.34879804
20	0x3ed1b18e	0.40955776
21	0x3e9e2510	0.3088765
22	0x3dbc76ff	0.09202384
23	0xbe9c8735	-0.30571905
24	0xbdd4555b	-0.10367843
25	0xbd2afdf6	-0.041746102
26	0xbeffd250	-0.49965143
27	0xbe43a5ac	-0.19106168
28	0xbe953812	-0.2914434
29	0x3d6411d8	0.05568108
30	0xbf557a55	-0.8338979
31	0xbe6a6c14	-0.22892791
32	0x3ec930d4	0.39295065
33	0xbe2cd0c2	-0.1687651
34	0xbf284610	-0.65731907
35	0xbf02b067	-0.5105042
36	0xbeb359ce	-0.35029453
37	0x3e29c1e6	0.16577873
38	0x3eec28dc	0.46124923
39	0xbe9daad4	-0.30794394
40	0x3f4173dc	0.7556741
41	0xbe8a4f95	-0.2701384
42	0x3dd14156	0.1021754
43	0xbe9c904b	-0.30578837
44	0xbf06458f	-0.5244989
45	0xbd96bf03	-0.07360651
46	0x3e3305a7	0.17482625
47	0x3eb82227	0.35963556
48	0xbebcb306	-0.36855334
49	0xbed84fc9	-0.4224837
50	0xbeb54784	-0.35406125
51	0xbe27d985	-0.16391571
52	0xbd149124	-0.03627123
53	0xbf16c626	-0.588961
54	0x3df75ed0	0.12078631
55	0x3cc9580c	0.024578117
56	0x3e8def96	0.27721852
57	0x3f485390	0.78252506
58	0xbf386f71	-0.72045046
59	0x3ac8d000	0.0015320778
60	0xbeb01946	-0.34394282
61	0x3e595d16	0.21226916
62	0xbe520c2a	-0.20512453
63	0xbf2bb764	-0.67076707

bn2.running_var f4 [64]
0	0x3f01c180	0.5068588
1	0x3ec9785b	0.39349636
2	0x3f0749ec	0.5284717
3	0x3ef51bf4	0.4787289
4	0x3ec2a992	0.38019997
5	0x3f85d1de	1.0454671
6	0x3f1bc66c	0.6084964
7	0x3f843762	1.0329401
8	0x3f739981	0.95156103
9	0x3ee49e34	0.4465195
10	0x3ef2c88c	0.4741863
11	0x3eca56cc	0.39519346
12	0x3f2e4b92	0.6808406
13	0x3f7791fe	0.9670714
14	0x3f4c88c8	0.7989621
15	0x3f579ece	0.8422669
16	0x3ea0490c	0.3130573
17	0x3f1c47fe	0.6104735
18	0x3f48a906	0.7838291
19	0x3eba21a3	0.36353788
20	0x3e988843	0.2979146
21	0x3f250b2e	0.64470184
22	0x3f238fc0	0.6389122
23	0x3ef5e222	0.48024088
24	0x3f196d5c	0.59932494
25	0x3eb60244	0.35548604
26	0x3f0d11d1	0.5510531
27	0x3f088105	0.5332187
28	0x3ee78e0b	0.45225558
29	0x3f2794c2	0.6546136
30	0x3f8680fe	1.0508115
31	0x3ece3fe8	0.40283132
32	0x3f389cb8	0.72114134
33	0x3f02fea7	0.5116982
34	0x3f343f26	0.70408857
35	0x3ec28a24	0.37996018
36	0x3f27aed3	0.65501136
37	0x3f219b6f	0.631278
38	0x3f6fbd70	0.93648434
39	0x3f07ecc8	0.53095675
40	0x3f3cc44e	0.7373704
41	0x3f1e5097	0.6184172
42	0x3eb08864	0.34479058
43	0x3f0bbb5a	0.5458275
44	0x3efadc19	0.48996046
45	0x3f32f7be	0.69909275
46	0x3ef44254	0.47706854
47	0x3f32cf92	0.6984798
48	0x3f1b2fbe	0.60619724
49	0x3f115379	0.56767994
50	0x3f01429c	0.5049226
51	0x3f65870e	0.896592
52	0x3f115565	0.56770927
53	0x3fa0e1e1	1.2568933
54	0x3f0feae6	0.562178
55	0x3e791d25	0.24327524
56	0x3f676b6c	0.9039829
57	0x3f334e19	0.7004104
58	0x3ec1f5fe	0.3788299
59	0x3ed46530	0.4148345
60	0x3f25a074	0.6469796
61	0x3f22f252	0.63651
62	0x3f0fba28	0.56143427
63	0x3eeff286	0.46864718

bn2.num_batches_tracked f8 []
0	0x40a4c50000000000	2658.5

fc3.weight f4 [32, 64]
0	0x3dbcefdc	0.09225437
1	0x3ccd31a3	0.025048083
2	0xbdaf4e90	-0.085599065
3	0xbdd8823a	-0.10571714
4	0xbbd85fb8	-0.0066032074
5	0xbdaad75f	-0.0834186
6	0xbdd6ff02	-0.10497858
7	0xbdcbaa2c	-0.09944567
8	0xbdafda2f	-0.08586537
9	0x3b86957e	0.0041071763
10	0x3d80bd56	0.06286113
11	0x3be7e2db	0.007076604
12	0xbd0265ee	-0.03183549
13	0xbc4d5bbb	-0.012534077
14	0x3ca9f280	0.020745516
15	0xbdb5521d	-0.088535525
16	0xbd9686e4	-0.07349947
17	0x3d659d0e	0.056057982
18	0xbd359e03	-0.044340145
19	0x3d2b6be3	0.041850936
20	0x3acdb03c	0.0015692781
21	0xbc312bc8	-0.010813661
22	0xbbfd5cfa	-0.007732031
23	0x3d6ed37a	0.05830715
24	0xbda74701	-0.0816784
25	0x3d369f9c	0.04458581
26	0x3db01da2	0.08599402
27	0x3d6d420d	0.05792432
28	0xbdc18b18	-0.09450358
29	0x3d95b072	0.07309045
30	0x3d82d892	0.06388964
31	0xbd3695e6	-0.044576548
32	0xbd6e521c	-0.058183774
33	0xbc974c36	-0.018468957
34	0x3d270273	0.04077382
35	0xbd998e2a	-0.07497819
36	0x3d7f599c	0.062341318
37	0xbd6cdf68	-0.057830244
38	0x3b1db3d8	0.0024063494
39	0xbd46a387	-0.048495796
40	0xbd8a70db	-0.06759807
41	0xbdca12cd	-0.09866867
42	0xbc09306e	-0.008373363
43	0xbd88aa65	-0.06673125
44	0x3c404cc8	0.011737056
45	0xbdc73810	-0.0972749
46	0x3b148d08	0.002266707
47	0xbdb7938a	-0.08963688
48	0xbdf85f50	-0.121275544
49	0xbdc9d754	-0.09855524
50	0xbcd3c734	-0.025851823
51	0x3c20639c	0.009789374
52	0xbdf16d6f	-0.11788451
53	0x3c50af8f	0.012737169
54	0x3dae53f4	0.085121065
55	0x3bae8865	0.005326318
56	0xbd9cb481	-0.07651616
57	0x3d490190	0.049073756
58	0xbd239150	-0.039933503
59	0xbd9a6aa3	-0.075398706
60	0x3c310e76	0.01080667
61	0x3d2e07bc	0.042487845
62	0x3cd5b6e9	0.026088195
63	0xbd486446	-0.048923753
64	0x3cb7f908	0.022457615
65	0x3ddf8988	0.10914904
66	0xbd01d196	-0.031694017
67	0xbd6cc834	-0.057808116
68	0x3dd4dfe8	0.10394269
69	0x3de6e2b4	0.11273709
70	0xbd441ce5	-0.04787912
71	0xbdb2ccfc	-0.08730504
72	0xbc491c8b	-0.012274872
73	0x3d611792	0.05495412
74	0xbb07f720	-0.0020746663
75	0x3d95f7b0	0.07322633
76	0x3cce3ca6	0.025175404
77	0xbafff1c8	-0.0019527012
78	0x3d48ceca	0.049025334
79	0xbe1971a4	-0.14984757
80	0xbcfc5288	-0.030801073
81	0xbcf0fbc9	-0.029416936
82	0x3d1ad502	0.037800796
83	0xbd8092e9	-0.06278021
84	0xbcb7ee12	-0.022452388
85	0xbddd152c	-0.10795054
86	0xbe0487fd	-0.129425
87	0x3defc37c	0.117072076
88	0x3d3dde70	0.04635471
89	0x3d66889e	0.056282632
90	0x3d597357	0.053088512
91	0x3df657e2	0.12028481
92	0x3dc69512	0.09696402
93	0x3d70f61d	0.058828462
94	0xbd4f69dc	-0.050638065
95	0x3df83c62	0.12120892
96	0xbdbb78fd	-0.09153936
97	0x3cca7ff6	0.02471922
98	0x3d99f65d	0.07517693
99	0x3df80016	0.121093914
100	0xbc862217	-0.016373677
101	0xbd0638a9	-0.03276888
102	0x3d8fac11	0.07015241
103	0xbbd0c298	-0.0063708536
104	0x3dc3e7b7	0.095656805
105	0xbd39e00e	-0.04537969
106	0xbc62788d	-0.013822687
107	0x3db8742c	0.09006533
108	0xbd95b2db	-0.073095046
109	0xbc66b2ee	-0.014080746
110	0x3ddd6a53	0.10811295
111	0x3ded6fe8	0.1159361
112	0x3d23e9d5	0.04001792
113	0xbb8e1a0c	-0.004336601
114	0xbdfda71a	-0.12385388
115	0xbd073676	-0.033010922
116	0x3c94f386	0.018182527
117	0x3d2e0ead	0.042494465
118	0x3d49024c	0.049074456
119	0xbc9f03c4	-0.019410975
120	0xbcf78f08	-0.03021957
121	0xbdae2358	-0.08502835
122	0xbd7b519f	-0.061357137
123	0x3d4bd68b	0.04976515
124	0x3b9f28b0	0.0048571452
125	0x3c3a9daa	0.011390129
126	0x3c0a58c2	0.008444013
127	0x3df14d6a	0.11782344
128	0x3b8d4cc1	0.0043121283
129	0xbdc09583	-0.09403517
130	0xbdf7242e	-0.120674476
131	0x3d76f5d4	0.060293034
132	0x3d4eea74	0.05051656
133	0x3c1dca48	0.009630747
134	0x3bbd5426	0.0057778535
135	0x3dd9b6bc	0.10630557
136	0xbe032367	-0.12806474
137	0xbdeac8d7	-0.114640884
138	0x3ccd85b3	0.025088167
139	0xbd76d234	-0.06025906
140	0xbe0634ff	-0.13106154
141	0x3d0b0efd	0.03394984
142	0x3d4c9eea	0.04995624
143	0xbcc4ef09	-0.024039762
144	0x3daee0b6	0.08538954
145	0x3be66827	0.007031459
146	0xbdb0a250	-0.08624709
147	0xbe1522e0	-0.14564085
148	0x3d81d612	0.06339659
149	0xbd1b764a	-0.037954606
150	0xbda73d1f	-0.08165955
151	0x3d6cd018	0.05781564
152	0x3e00f725	0.12594278
153	0xbd51f276	-0.05125662
154	0x3a9be820	0.001189474
155	0x3d132f8c	0.035934016
156	0x3d47e468	0.04880181
157	0xbd87fdf0	-0.066402316
158	0xbdb19b10	-0.08672154
159	0x3ddad0a7	0.106843285
160	0x3cb1b44a	0.021692414
161	0x3d31ca83	0.04340602
162	0xbd48f33a	-0.049060084
163	0x3d90b1d7	0.0706517
164	0xbd1a379a	-0.037650682
165	0xbdf4b556	-0.119486496
166	0x3c79fec7	0.015258498
167	0xbc81e776	-0.01585744
168	0xbde02e76	-0.10946362
169	0x3d90cdd0	0.070705056
170	0xbd761ff4	-0.060089067
171	0x3dd3a9da	0.10335131
172	0xbdb28bb2	-0.08718051
173	0xbdf3122e	-0.11868702
174	0x3d4f14c2	0.050556906
175	0xbd761024	-0.060073987
176	0xbceb36b7	-0.028712614
177	0xbdc48fa4	-0.0959771
178	0x3dd68e04	0.10476306
179	0x3dc63400	0.09677887
180	0xbdc4fb0c	-0.09618196
181	0xbbc41f78	-0.0059851967
182	0xbadc60bc	-0.0016813497
183	0xbd032b34	-0.032023624
184	0xbdff8576	-0.124766275
185	0xbbc3feaa	-0.005981286
186	0xbde4e55c	-0.11176559
187	0xbc3cc924	-0.011522565
188	0x3d3064c3	0.043064844
189	0xbd659fd7	-0.05606064
190	0x3da410bc	0.08011004
191	0xbdc5a9fc	-0.096515626
192	0x3e03e726	0.12881145
193	0xbd9f9a0c	-0.07793054
194	0xbddafe76	-0.10693066
195	0x3df9ec3a	0.1220326
196	0xbd0bb734	-0.034110263
197	0x3dadd0d8	0.084870994
198	0x3d76f798	0.060294718
199	0x3cdcca99	0.026952075
200	0xbd0713ff	-0.032978054
201	0xbd33ab94	-0.0438648
202	0xbdc04eb8	-0.093900144
203	0x3c185cce	0.00929947
204	0xbda79d8a	-0.08184345
205	0x3d0f7f9a	0.0350338
206	0xbdb83ab5	-0.089955725
207	0xbdba2143	-0.090883754
208	0x3dca614d	0.0988184
209	0x3bf70d02	0.0075393924
210	0xbcad4279	-0.02114986
211	0xbdcd3750	-0.10020316
212	0x3e144c44	0.14482218
213	0x3d3c6338	0.04599306
214	0xbd696ef9	-0.056990597
215	0xbd991148	-0.07473999
216	0x3e00f940	0.12595081
217	0x3cb22a48	0.021748677
218	0x3b665358	0.0035144892
219	0x3c55b6e2	0.013044091
220	0x3dcf5ed8	0.10125512
221	0x3d1d38d5	0.038384277
222	0x3d86dcc3	0.06585076
223	0x3cfa2155	0.030533472
224	0xbdd497f4	-0.10380545
225	0x3dd10562	0.10206105
226	0xbd7a03ab	-0.061038654
227	0xbd924377	-0.07141774
228	0xbd8e06e5	-0.06934909
229	0xbd8eb179	-0.06967444
230	0x3d8ffb20	0.0703032
231	0xbc20cd31	-0.009814546
232	0xbda123c6	-0.07868151
233	0x3d425bc6	0.047450803
234	0x3c9c2130	0.019058794
235	0xbdd2ca8f	-0.10292541
236	0xbdd9efc6	-0.10641436
237	0xbd6d64e9	-0.057957564
238	0xbd40cf8d	-0.047072936
239	0xbd7adc3e	-0.061245196
240	0x3d2a7cb9	0.04162285
241	0x3dc33d32	0.095331565
242	0x3e17074f	0.14748882
243	0x3d924c7b	0.07143494
244	0xbc083c42	-0.008315148
245	0xbd60b0ba	-0.05485604
246	0xbd16a230	-0.036775768
247	0xbdb896f2	-0.090131655
248	0xbccefccc	-0.025267027
249	0x3da595f6	0.080852434
250	0x3cf30e36	0.029669862
251	0x3d63ba06	0.055597328
252	0x3dc7362e	0.09727131
253	0xbd6dd540	-0.0580647
254	0xbd5bc4d6	-0.053654514
255	0xbd82038c	-0.06348333

fc3.bias f4 [32]
0	0xbde9be7f	-0.11413287
1	0x3d5f94e2	0.054585345
2	0xbdcf57da	-0.10124178
3	0xbd0874b6	-0.03331443
4	0xbd996522	-0.07489993
5	0xbd3a172c	-0.045432255
6	0xbdc6f294	-0.09714237
7	0x3d95d3b4	0.0731577
8	0x3c14b47f	0.009076237
9	0xbdafc8a1	-0.08583189
10	0x3df61f7e	0.120177254
11	0xbe05f31c	-0.1308102
12	0xbdaf8d3e	-0.08571862
13	0x3dac0400	0.083992004
14	0xbdddc552	-0.108286515
15	0xbd0c1956	-0.03420385
16	0xbddd8e78	-0.108181894
17	0xbd86026d	-0.065434314
18	0x3c96c878	0.018406138
19	0x3c740f08	0.014896162
20	0xbdfd9716	-0.12382333
21	0xbcb1e8e4	-0.021717496
22	0x3c676158	0.01412233
23	0xbde42ad1	-0.11140979
24	0xbdc4e358	-0.09613675
25	0x3c10d236	0.008839181
26	0x3d8890b6	0.066682264
27	0x3d1fb9ec	0.03899567
28	0x3dc23989	0.0948363
29	0x3b8ce0d5	0.004299263
30	0x3dd88f7e	0.10574244
31	0x3d15473c	0.036444888

bn3.weight f4 [32]
0	0x3f9ee68a	1.2414105
1	0x3fa8ade4	1.3178067
2	0x3fa30b08	1.2737741
3	0x3f938d42	1.1527483
4	0x3f9cb6b6	1.2243259
5	0x3f9f169f	1.2428778
6	0x3fa4b750	1.2868443
7	0x3f9ff5ec	1.2496924
8	0x3fa25176	1.268111
9	0x3fa134f0	1.259428
10	0x3f98c192	1.1934073
11	0x3f9d79ba	1.2302773
12	0x3f9d137e	1.2271574
13	0x3f9996e6	1.1999176
14	0x3f9781f6	1.1836536
15	0x3f7c5fe0	0.98583794
16	0x3fa20ad0	1.265955
17	0x3f991596	1.1959713
18	0x3f975d94	1.1825433
19	0x3f9a5a5a	1.2058823
20	0x3fa5d6ca	1.2956173
21	0x3fa04a58	1.2522688
22	0x3f91de79	1.1396018
23	0x3f930830	1.1486874
24	0x3fa16d6f	1.2611521
25	0x3fa13f12	1.2597373
26	0x3fa0e772	1.2570632
27	0x3f9db5b4	1.2321076
28	0x3f9f98d6	1.2468517
29	0x3fa2ac2c	1.2708793
30	0x3fac3bef	1.345579
31	0x3f955078	1.1665182

bn3.bias f4 [32]
0	0x3df8af88	0.12142855
1	0x3e882b2e	0.26595443
2	0x3e7dca41	0.24784185
3	0x3daff948	0.085924685
4	0x3e3ac498	0.18239057
5	0x3de7e8ae	0.11323677
6	0x3e400014	0.1875003
7	0x3e51e47d	0.20497318
8	0x3e68a1bc	0.22717947
9	0x3e523a8f	0.20530151
10	0x3e2ae2f6	0.16688141
11	0x3dc4482a	0.09584077
12	0x3e578b00	0.21049118
13	0x3db2570f	0.08708011
14	0x3e2294e8	0.15877116
15	0xbd4eeabf	-0.05051684
16	0x3e5ad9d9	0.21372165
17	0x3de21370	0.11038864
18	0x3e13ed85	0.14446075
19	0x3d82b84b	0.06382807
20	0x3e6abf66	0.22924575
21	0x3dd8718c	0.10568532
22	0x3decf514	0.115701824
23	0x3d460e6e	0.048353605
24	0x3e681da4	0.22667557
25	0x3e4e4bc8	0.20146096
26	0x3e56c996	0.20975336
27	0x3d8d30fe	0.0689411
28	0x3e5ceb6a	0.21574178
29	0x3e64fc4a	0.22361866
30	0x3e8544e1	0.26029113
31	0x3e06450e	0.1311228

bn3.running_mean f4 [32]
0	0xbf1bb7c3	-0.60827273
1	0x3ed2a8fd	0.41144553
2	0xbef9bd72	-0.48777348
3	0xbdbca578	-0.09211248
4	0xbd428ede	-0.04749953
5	0xbecd821c	-0.40138328
6	0xbe391c62	-0.18077233
7	0x3eba3372	0.36367375
8	0x3e9c76c4	0.3055936
9	0x3e382945	0.17984493
10	0xbe87d896	-0.2653243
11	0xbf25d089	-0.64771324
12	0x3e425fc4	0.18981844
13	0xbefb9902	-0.49140173
14	0xbcac581b	-0.021038106
15	0xbe993473	-0.29922828
16	0x3e7e11ad	0.2481143
17	0xbf16fbc4	-0.58977914
18	0x3d13750a	0.03600029
19	0xbed8d7ea	-0.4235223
20	0x3e01e3f7	0.12684618
21	0xbed69c60	-0.4191618
22	0x3e4a5364	0.19758373
23	0xbf1c95f3	-0.61166304
24	0x3e0ac2f3	0.1355093
25	0x3e2747dc	0.16336006
26	0x3f01fc4c	0.507756
27	0xbe8e4915	-0.27790132
28	0xbd93b4e8	-0.072122395
29	0x3ef9a222	0.4875651
30	0x3ea764ca	0.32694083
31	0x3e82477c	0.25445163

bn3.running_var f4 [32]
0	0x3e25f34e	0.16206095
1	0x3eab3116	0.33435887
2	0x3e0c7430	0.13716197
3	0x3e14f477	0.14546381
4	0x3ea3bc36	0.3197953
5	0x3e247690	0.16060853
6	0x3e9d7492	0.30753
7	0x3de72ae3	0.11287477
8	0x3e2b7d58	0.16747034
9	0x3e811661	0.25212386
10	0x3dff8da8	0.12478191
11	0x3ddf639a	0.10907669
12	0x3e6b43e8	0.22975123
13	0x3e2a762a	0.16646639
14	0x3df71f12	0.12066473
15	0x3dd1fe1e	0.10253547
16	0x3ed153ff	0.40884396
17	0x3e13dde6	0.14440116
18	0x3e2fe432	0.17176893
19	0x3e1356d3	0.1438859
20	0x3ebe66cc	0.37187803
21	0x3e3beb5c	0.18351501
22	0x3e2fd5ef	0.17171453
23	0x3dfa83cc	0.122321695
24	0x3e024766	0.12722549
25	0x3e08aea6	0.13347873
26	0x3eabc482	0.3354836
27	0x3e0c0fac	0.13677853
28	0x3dcf4ee2	0.101224676
29	0x3e28deba	0.16491213
30	0x3e70f4a6	0.23530826
31	0x3e9432a5	0.2894489

bn3.num_batches_tracked f8 []
0	0x40a4c50000000000	2658.5

fc4.weight f4 [1, 32]
0	0x3d936a54	0.07198015
1	0xbe773f6a	-0.24145284
2	0xbeb6ef8c	-0.35729635
3	0xbe05cba5	-0.13065965
4	0xbeb73a4e	-0.3578667
5	0x3e7c360c	0.24629992
6	0xbcd8ee14	-0.026480712
7	0xbec5ab37	-0.3860719
8	0xbeb58230	-0.35450888
9	0xbe8b021d	-0.2715005
10	0xbe9830ce	-0.29724735
11	0x3eb058e4	0.34442818
12	0xbe2d09aa	-0.16898218
13	0x3e891f1b	0.26781544
14	0xbe9cbeaa	-0.30614215
15	0x3d933b6c	0.07189068
16	0xbe1b1aab	-0.15146892
17	0x3ea370a7	0.31921884
18	0xbe3db164	-0.185247
19	0x3e643be0	0.22288465
20	0xbe344aaf	-0.17606615
21	0x3e7ecfd8	0.24883974
22	0xbe8fd3ca	-0.2809127
23	0x3e6c90dc	0.23102134
24	0xbe361cab	-0.17784373
25	0xbea22709	-0.31670406
26	0xbe8e36ac	-0.27776086
27	0x3e83b989	0.2572749
28	0xbeb412d4	-0.35170615
29	0xbea16e28	-0.31529355
30	0xbe5e7016	-0.21722445
31	0xbe9ae74a	-0.30254585
