examples/hello-world/ml-to-fl/pt/enhanced_fraudnet_stochastic/jobs/workdir/server/simulate_job/app_server/FL_global_model.pt (torch, 68201 bytes, 22 tensors)

fc1.weight f4 [128, 30]
000000 c9 8a 13 bb db 82 3b 3e 35 be b3 bb c2 10 89 3e
       -0.0022513142 0.18311636 -0.005485321 0.26770598
000010 ed e0 9c be 01 7b 4b 3e 91 92 be 3e ce 89 8e 3e
       -0.30640355 0.19871141 0.37221196 0.27839512
000020 e4 bd 65 3e dc 8e b8 3d 77 0f d5 3e b8 6f cf be
       0.22435719 0.09011623 0.4161336 -0.40514922
000030 a8 3d c7 3e c9 54 8a 3e 66 2c be 3e 69 73 78 3d
       0.38914227 0.2701781 0.37143248 0.06065694
000040 19 6a 3c 3e 80 1c 10 3e 9b 6b db bc 76 38 09 be
       0.18399848 0.14073372 -0.026784709 -0.13400444
000050 eb 84 33 3d 49 49 8e bc cc 48 8d 3b 7a 27 ab bc
       0.043827932 -0.01736893 0.0043116566 -0.020892847
000060 f8 95 0c bd 9d e6 eb bd 48 8b da bd 59 1f f3 bd
       -0.03432271 -0.11518595 -0.10671097 -0.118712135
000070 b4 9f 81 3c f7 cb ff bc 86 d6 41 3e 70 24 01 3d
       0.015823223 -0.031225188 0.1892949 0.03152889
000080 d0 c6 2a 3e 9c ce a4 bc 86 cc 12 3e 32 54 3a be
       0.16677403 -0.02011805 0.14335832 -0.1819618
000090 98 84 1d be 46 e1 3c 3e 6e 0d bf bc b8 2a dc 3c
       -0.15382612 0.1844531 -0.023321833 0.026875839
0000a0 54 7c 46 bc f0 39 ca 3d a7 8f 34 bd b3 9c 0e be
       -0.012114603 0.09874332 -0.04408231 -0.13926964
0000b0 2c 99 11 be e3 da 4f 3d 55 ea 12 be 62 fa 98 bc
       -0.14218587 0.050745856 -0.14347203 -0.01867408
0000c0 6e 8e f0 3d 5c 2a f8 bd 7c 19 2a 3e 9f 47 41 3e
       0.11745916 -0.121174544 0.16611284 0.18874978
0000d0 75 db a3 bd 5f 51 a4 bd 8e 41 4d 3d 3a aa bd bd
       -0.080008425 -0.08023333 0.050111346 -0.09260984
0000e0 38 84 1c 3d bc 12 a9 bd 3a 48 a9 3d 80 a6 87 bd
       0.03821203 -0.082555264 0.08265729 -0.06623554
0000f0 d1 bc 08 bb e2 65 d4 3e ef bb 83 be fc 4a 0e 3f
       -0.0020864496 0.4148398 -0.2572932 0.5558317
000100 fd 56 01 bf d6 9b 33 3e 50 b2 e9 3d af 5d bf 3e
       -0.5052336 0.17539915 0.114109635 0.37376162
000110 eb 63 7e 3e fa 8f 8f 3e ac 22 3b 3f 20 db 4e bf
       0.24842803 0.28039533 0.7309978 -0.8080311
000120 99 7d 2e 3f 6c 2b 87 3d 8f 45 3a 3f 0c ea 67 3e
       0.68160397 0.06600079 0.7276239 0.22647876
000130 62 00 06 3f 56 2e 48 3e 07 24 1b 3e 8e 12 a5 be
       0.52344334 0.19548926 0.15150462 -0.3224072
000140 54 6c 4c be 16 58 9f bd c4 0f 7f be c5 72 86 3e
       -0.19963199 -0.07780473 -0.24908358 0.26259437
000150 96 58 b3 3e 14 c1 6b be b0 42 95 be 3f 85 bf 3d
       0.35028523 -0.23022872 -0.2915244 0.093515866
000160 5f 9c 3d be 62 80 e0 3c c4 60 ae 3a 00 32 48 3a
       -0.18516682 0.027404968 0.0013303985 0.0007636845
000170 40 75 94 bb 27 29 74 3d 52 e3 ae 3e 0f ee 22 3d
       -0.004530579 0.05960956 0.34157807 0.03977781
000180 fa 13 84 be 35 be 24 3c 08 c4 d6 bc c6 64 16 be
       -0.2579649 0.0100551145 -0.026216522 -0.1468688
000190 1f 79 66 be 64 f2 62 3d 48 37 9a be 8f 32 9e bd
       -0.22507142 0.055406943 -0.301203 -0.07724487
0001a0 10 6b d4 bd ba d1 c0 3d 34 9f e4 bd 17 8e e2 bd
       -0.10371983 0.09415002 -0.11163178 -0.11062258
0001b0 3a ed f5 bd e4 30 8f 3d 0a e3 ed 3d a5 12 75 bd
       -0.12008138 0.06991747 0.1161557 -0.059832234
0001c0 c2 05 83 3d 0d 01 ae 3d 66 3b 8d bc fa 8b 25 be
       0.063975826 0.08496294 -0.017240237 -0.16166678
0001d0 7e 9a 3b be f9 4c b8 bd 08 6d a5 3d ea ff aa 3d
       -0.18320653 -0.08999056 0.08077437 0.08349593
0001e0 f4 c9 96 3d d5 0e 88 3d 16 bc 02 3e 1a 7f 40 3e
       0.07362738 0.06643454 0.12767062 0.18798485
0001f0 8e 20 21 3d 31 e3 0e bd 7d ec 7a 3c f9 de 5f 3e
       0.039337687 -0.034884635 0.015315172 0.21862401
000200 1d 58 ba 3c 90 36 2d 3e 1a 64 0e 3e 73 c8 b3 3d
       0.022747094 0.16915345 0.13905373 0.08778467
000210 8e af 19 3e ec 5f a4 3b 6a 02 8e 3c ab 3e 6a bd
       0.15008375 0.0050163176 0.017335135 -0.05718867
000220 a2 66 d0 3d 3e 9a 16 be 62 94 fc 3d 5c 62 f8 bd
       0.10175826 -0.14707276 0.12332989 -0.121281356
000230 3b 4e 67 3d a2 61 01 3c 8e 36 03 3d 21 78 3c 3d
       0.05647109 0.007896813 0.03203445 0.046013
000240 3e 66 56 bd 06 dc b8 bd 7b 7e 31 be ca 56 32 3e
       -0.0523436 -0.09026341 -0.17333405 0.1741592
000250 29 1e 2d 3e 58 34 fc 3d 96 1c 74 3a de 29 2f 3e
       0.16906036 0.12314671 0.0009312121 0.17105815
000260 f2 3f 9c be d1 78 1b 3f 92 99 35 bf ef 41 41 be
       -0.30517536 0.60731226 -0.70937455 -0.18872808
000270 39 36 99 3e c4 41 ee 3e 4f f6 26 3e 26 59 99 3e
       0.2992418 0.4653455 0.16304897 0.29950827
000280 88 8f c8 3e 6a 21 28 bf 42 c5 3c 3f 06 16 8f 3b
       0.39172006 -0.65675986 0.7373849 0.004366639
000290 5a 28 05 3f d8 b4 04 3e d2 c6 5d 3e 5a ae be 3e
       0.52014697 0.12959611 0.21657875 0.37242395
0002a0 a2 c5 32 3e a4 d3 03 be 6e b1 a9 bd 7b d1 8a 3d
       0.17458203 -0.12873703 -0.08285795 0.067782365
0002b0 8c f2 b9 bd fb 6b 9c bd 44 76 59 3e fe ff 4f be
       -0.09079465 -0.07637783 0.21236521 -0.20312497
0002c0 10 18 59 be 3f 3c 2c 3e 86 eb 7f be 3e f8 68 bc
       -0.21200585 0.16819857 -0.24992189 -0.014219342
0002d0 d1 a6 9f bd 35 ab 81 be 3f f5 63 3e b7 09 90 be
       -0.077954896 -0.25325933 0.22261523 -0.28132412
0002e0 63 84 a0 3e 0a 79 92 bd 80 16 74 be f9 e5 74 be
       0.31351003 -0.071519926 -0.23836708 -0.23915853
0002f0 a2 d9 28 bc d6 9b 77 bd fe 5a 8a be b2 2f 7b 3e
       -0.010305794 -0.06045135 -0.27022547 0.24529913
000300 28 01 25 be b1 75 5b be 65 c3 23 be 64 92 5b be
       -0.16113722 -0.21431614 -0.15992506 -0.21442562
000310 86 9c 8b bd 30 18 6b bd 85 a2 17 bd 5a 32 83 bd
       -0.06816964 -0.057396114 -0.037020225 -0.06406088
000320 7c 47 08 be 3c dd 34 3e 18 cc 4a 3d 3c 9b 20 3d
       -0.13308519 0.17662519 0.049511045 0.039210543
000330 b9 a2 84 be 76 ab 8f bb 92 17 c1 bd 61 b4 18 3e
       -0.25905398 -0.0043844534 -0.09428324 0.14912559
000340 d8 8e 78 3e 28 20 e8 3c 2e 3e ee 3d 79 a9 90 bd
       0.2427324 0.028335646 0.116329536 -0.07063574
000350 ea 45 94 bd 17 0e 25 3e 24 9e 39 be 0f c7 12 be
       -0.072398975 0.16118656 -0.18126732 -0.14333747
000360 52 cb cf 3c 40 4d 4e 3e d0 94 44 3e 80 e4 70 bd
       0.025365505 0.20146656 0.19197392 -0.058811665
000370 b9 88 19 bd 47 80 61 be 39 33 f4 3d ca 64 30 3d
       -0.037483905 -0.2202159 0.119238324 0.04306487
000380 a9 4b 4d 3c 7e 2f 6b 3d f0 fc ce 3d 06 a8 36 3e
       0.012530246 0.05741834 0.10106838 0.17837533
000390 fc f0 78 3e 15 fe 00 bc 0e 31 9a bd c6 13 08 be
       0.24310678 -0.007873078 -0.07528888 -0.13288793
0003a0 05 6e c0 bd ac 45 72 3e 5a 5f 23 be 12 24 12 bd
       -0.093959846 0.2365939 -0.15954342 -0.03567893
0003b0 92 c2 70 3c 80 27 1c 39 81 8d 21 be ce bf 0d be
       0.014694827 0.00014892034 -0.15776636 -0.13842699
0003c0 2c da ad bb f5 cd 56 3d 2f 76 b9 be af 80 93 3e
       -0.005305549 0.05244251 -0.3622298 0.28809115
0003d0 7d 94 9c be c0 2e da 3b a8 69 2a 3e 68 d3 76 3e
       -0.30582038 0.006658405 0.16641867 0.24104083
0003e0 0b 42 9a 3d 7a 0e a8 3e b2 be 95 3e c1 7b ab be
       0.07532128 0.32823545 0.2924705 -0.33492854
0003f0 17 00 7a 3e 6e fa ac 3d c4 78 bd 3d 9c fa 30 3d
       0.24414097 0.08446203 0.0925155 0.04320775

fc1.bias f4 [128]
000000 84 70 c3 3d d2 6a 33 bd ca 32 99 bd fa d0 fe bd
       0.09542945 -0.043803044 -0.0748039 -0.12442203
000010 1a 0c 08 3d 58 f9 3e 3d 8c 03 2e be de 9f 26 be
       0.033214666 0.04662451 -0.1699354 -0.16271922
000020 5e eb a7 3d d6 57 86 bc c6 35 19 be ec fe 1d be
       0.081991896 -0.016399305 -0.14961919 -0.15429276
000030 66 cc 9e 3c 9c b1 8c 3c 34 14 1e 3e e6 49 87 3b
       0.019384574 0.017174534 0.15437394 0.0041286824
000040 79 c4 4d 3d 17 a2 91 3a 1c fd 97 3d b0 58 96 3d
       0.0502362 0.0011110929 0.07421324 0.073411345
000050 9f 6a 30 bd 3e b3 65 bc 5e cc cc 3a 69 50 12 3e
       -0.04307043 -0.014019785 0.0015624871 0.14288487
000060 64 17 8d bc 94 0b 1d 3e 2e ce 10 3e 34 c9 ad bd
       -0.017223068 0.15336448 0.14141151 -0.08485642
000070 90 88 26 3e f6 5b 11 be d8 ea 3a 3e ca e7 be 3d
       0.16263032 -0.14195237 0.18253648 0.09321554
000080 88 3b af bd 45 8a f0 3b a6 b4 83 3d 32 cf d1 bb
       -0.085562766 0.0073407018 0.0643094 -0.0064028734
000090 c6 d3 c9 bd 8c 10 95 3d b2 08 24 bd d7 10 17 3b
       -0.09854846 0.07278547 -0.040047355 0.0023050809
0000a0 90 dc ef bd f6 71 30 3e bf db b0 3d e1 dc ec bc
       -0.11711991 0.17230973 0.08635663 -0.028913917
0000b0 32 a0 19 3e ee ac f0 bc 35 09 c3 bd 24 47 99 3c
       0.15002516 -0.029379334 -0.095232405 0.01871068
0000c0 e0 70 ce 3d 4e c9 24 bd 10 d5 26 be e6 d3 1f bd
       0.10080123 -0.04023104 -0.16292214 -0.03902044
0000d0 7a ef ab bd 94 3d c5 bd 42 ae 06 3e a2 49 a2 bd
       -0.08395286 -0.09630886 0.13152412 -0.079242006
0000e0 2d b1 a7 bc c4 0d 12 be 53 c9 b4 bd f6 2d c3 bd
       -0.020470226 -0.14263064 -0.08827462 -0.09530251
0000f0 9c 04 34 3e 24 01 c3 3d f1 a3 1d 3d 7e 49 d7 3d
       0.17579883 0.09521702 0.038486425 0.105120644
000100 82 75 46 3c 3e 94 b8 3a e8 80 2b be 4d f1 22 3c
       0.012112977 0.0014082266 -0.16748393 0.009945226
000110 2a e9 1d 3e 04 95 2b be 93 18 63 bd e8 1e cd bd
       0.15420976 -0.16756064 -0.055443358 -0.100156605
000120 69 81 11 bc 1a 5b ca bc 38 d1 06 3e fb 52 20 be
       -0.008880951 -0.024701644 0.13165748 -0.15656655
000130 b2 1d 9c 3d 38 15 55 bb d0 3a f4 bd 25 1e 85 bd
       0.076228514 -0.0032513868 -0.1192528 -0.0649989
000140 fa 51 87 bd 62 00 c3 3d 28 d6 80 3d 76 5b db 3d
       -0.06607433 0.095215574 0.06290847 0.10710804
000150 5c 08 1c bd 6f 08 17 3d 5a c7 5f 3d ba 48 53 bb
       -0.03809391 0.036873277 0.054633476 -0.0032239393
000160 aa 9e e5 3d 62 23 0b be 68 ea e4 3d 8d 04 26 3d
       0.112119034 -0.13587716 0.11177522 0.040531684
000170 f0 dd 69 bd 54 8a 83 3d 29 6f 2d bd ec ec bc bc
       -0.05709642 0.06422868 -0.04234234 -0.023062192
000180 94 6f 9c bd cc 90 1d bd 7a 26 e0 3c d0 67 d6 bc
       -0.07638469 -0.038468167 0.027362097 -0.026172549
000190 ab f1 ed 3c 36 e4 91 bd 5c 55 5c bd 9a c0 37 be
       0.0290459 -0.07123606 -0.053792343 -0.17944565
0001a0 be 09 16 3e ca b8 f9 bc 4f 1e 3a be 15 34 07 3d
       0.14652154 -0.030483622 -0.18175624 0.033008654
0001b0 fe 17 30 bd 4f 5c 52 bd 07 20 43 bd 0d bb d7 3d
       -0.04299163 -0.051357564 -0.047637966 0.10533724
0001c0 a9 57 33 be ff de 5e 3c c2 cf 00 3e b1 89 75 bc
       -0.17513908 0.013602971 0.12579253 -0.0149864415
0001d0 8d a5 12 3e 9e b7 c3 bd 1e 19 2f bd f1 c6 25 3d
       0.14320965 -0.095565066 -0.042748563 0.04047293
0001e0 16 4c aa bc e0 19 0f be 41 1d 2f 3e 94 02 39 bd
       -0.020788234 -0.13974714 0.17101003 -0.045168474
0001f0 fa 16 1d 3c 2e ff 0c be 56 78 61 bd 16 11 cd bb
       0.009587998 -0.13769218 -0.055046402 -0.0062581403

bn1.weight f4 [128]
000000 b1 70 6e 3f df ec 76 3f 2e a6 7b 3f dc 6f 6b 3f
       0.93140703 0.96455187 0.98300445 0.9196756
000010 48 7c 69 3f 9e 95 7f 3f 3c ee 73 3f af eb 73 3f
       0.91205263 0.9983767 0.9528539 0.952815
000020 aa 6a 67 3f 54 ae 6c 3f 6e 7a 7c 3f a4 9a 69 3f
       0.9039713 0.92453504 0.9862431 0.9125159
000030 0b 23 76 3f f6 17 7d 3f 53 41 82 3f 87 11 6f 3f
       0.9614722 0.98864686 1.0176185 0.9338612
000040 a6 33 6d 3f 78 6f 79 3f ac 7a 8d 3f a5 74 71 3f
       0.92656934 0.9743571 1.1053061 0.9431861
000050 74 00 7a 3f 63 86 73 3f 7a 0f 6b 3f 3a 05 74 3f
       0.9765694 0.9512693 0.9182049 0.95320475
000060 61 e8 70 3f ad 38 86 3f 7f 25 7c 3f 05 9c 76 3f
       0.9410458 1.0486046 0.98494714 0.96331817
000070 7e a9 74 3f d2 2c 7d 3f bc 8d 73 3f a7 cf 6f 3f
       0.95571125 0.98896515 0.95138144 0.9367623
000080 05 2c 74 3f a4 d5 74 3f d7 37 7a 3f d6 be 84 3f
       0.9537967 0.9563849 0.97741455 1.0370739
000090 56 bf 6d 3f 40 f6 79 3f 37 0d 7a 3f 72 b2 77 3f
       0.9287008 0.9764137 0.97676414 0.9675666
0000a0 a0 7a 75 3f 82 85 65 3f 14 31 73 3f 2b dd 6c 3f
       0.95890236 0.8965684 0.9499676 0.92524976
0000b0 42 93 72 3f c0 4d 71 3f be e3 6b 3f 16 9c 72 3f
       0.9475595 0.9425926 0.9214438 0.9476942
0000c0 4a f3 71 3f 1e 58 6e 3f aa b2 75 3f 7c 80 6d 3f
       0.94511855 0.93103206 0.95975745 0.92774177
0000d0 9e f8 79 3f 5a 05 78 3f b1 bf 75 3f 95 84 73 3f
       0.97644985 0.96883166 0.9599562 0.9512418
0000e0 c0 82 74 3f 04 d8 72 3f 19 be 73 3f bb 07 69 3f
       0.9551201 0.94860864 0.9521194 0.9102742
0000f0 b5 ad 6d 3f 5a 89 76 3f 7b 10 71 3f fa 7b 7e 3f
       0.9284318 0.9630333 0.9416577 0.99407923
000100 83 99 6f 3f 6e a7 7a 3f 8b 97 77 3f d9 72 6e 3f
       0.93593615 0.9791173 0.9671561 0.93143994
000110 07 d8 77 3f 1f 3c 72 3f 26 ca 73 3f 34 a1 76 3f
       0.96814007 0.9462299 0.9523033 0.96339726
000120 14 e9 74 3f 46 ee 87 3f 92 91 68 3f 3e 55 6e 3f
       0.9566815 1.061959 0.9084712 0.9309882
000130 00 8c 73 3f fa 9c 6e 3f dd 60 7c 3f 66 c7 70 3f
       0.951355 0.9320828 0.985853 0.9405426
000140 bd 13 79 3f c2 4f 67 3f 36 dc 75 3f 3a b5 7c 3f
       0.97295743 0.90356076 0.9603914 0.9871403
000150 60 7f 68 3f 16 2d 74 3f 72 23 7e 3f 3c f3 7c 3f
       0.9081936 0.95381296 0.99272835 0.98808646
000160 88 cf 6b 3f 4c d3 68 3f dc 1c 70 3f 18 a9 75 3f
       0.9211354 0.90947413 0.93794036 0.9596114
000170 b8 59 90 3f 9e 09 72 3f 36 c4 72 3f ec 52 70 3f
       1.127738 0.94545925 0.94830644 0.9387653
000180 d2 28 6e 3f 45 4d 71 3f 4c ce 87 3f da 1f 7c 3f
       0.93031037 0.9425853 1.0609832 0.984861
000190 0e 0d 74 3f d6 90 79 3f d6 01 77 3f 9a 7c 75 3f
       0.9533242 0.9748663 0.96487176 0.9589325
0001a0 80 b9 6f 3f b3 3f 66 3f cf e8 6d 3f 24 ee 75 3f
       0.93642426 0.8994095 0.9293336 0.960665
0001b0 80 33 80 3f 44 41 70 3f 11 be 7f 3f 48 14 6e 3f
       1.0015717 0.9384959 0.99899393 0.92999697
0001c0 d4 12 73 3f 64 a3 6f 3f 20 ba 6d 3f 0a 7c 80 3f
       0.94950604 0.9360869 0.9286213 1.0037854
0001d0 a4 76 70 3f 44 31 78 3f 64 5b 72 3f 44 b1 69 3f
       0.9393103 0.96950173 0.946707 0.9128611
0001e0 93 c9 7c 3f 66 d4 6a 3f 0b 66 75 3f 27 07 7b 3f
       0.9874508 0.91730344 0.9585883 0.9805779
0001f0 e6 00 7a 3f a6 97 6e 3f c4 5b 75 3f c0 26 76 3f
       0.9765762 0.9320015 0.9584315 0.9615288

bn1.bias f4 [128]
000000 8a ba 81 bd ec db 49 bd ee 8b a4 bd 20 73 b8 bd
       -0.06334408 -0.049282 -0.08034502 -0.09006333
000010 55 48 ca bd ae 16 86 bd 96 e7 dc bd 35 3b 86 bd
       -0.098770775 -0.065472946 -0.10786359 -0.065542616
000020 46 7d f0 bd 0d 16 f3 bd 23 1d 55 bd 8a ef b5 bd
       -0.11742644 -0.1186944 -0.05202974 -0.08883579
000030 3d 0c 91 bd 71 cc 10 bd ee b5 1e bd 12 43 a1 bd
       -0.070824124 -0.03535122 -0.03874772 -0.07874121
000040 63 96 e6 bd 7d 96 83 bd d2 43 98 bc 20 3f c0 bd
       -0.11259153 -0.06425188 -0.018587027 -0.0938704
000050 f1 d0 18 bd 82 d8 4b bd a4 91 db bd 74 5a 9e bd
       -0.037308637 -0.049767025 -0.10721138 -0.07732096
000060 db 45 34 bd a3 62 3f 3d 6c fb 27 bd e0 0e 1b bd
       -0.044011932 0.046724927 -0.04101126 -0.037855983
000070 c6 7b 1e bd 3c fd 53 bd de 33 b7 bd 87 40 5d bd
       -0.03869226 -0.051755175 -0.0894544 -0.054016616
000080 1a 48 87 bd f0 a6 77 bd f3 45 0a be da 3b 57 3d
       -0.06605549 -0.06046194 -0.13503246 0.052547313
000090 f6 67 6b bd b2 24 7b bd 3a f8 a9 bd f4 9b 26 bd
       -0.05747219 -0.061314292 -0.082992986 -0.040676072
0000a0 54 8f db bc 6c 94 bf bd e5 9b 85 bd 3a a9 92 bd
       -0.026801743 -0.09354481 -0.06523875 -0.07161184
0000b0 94 b0 d0 bd 96 3b ec bd d7 68 cb bd 3c 34 c0 bd
       -0.101899296 -0.115348026 -0.09932106 -0.09384963
0000c0 60 cb a9 bd 34 29 99 bd 0d 69 8b bd 13 27 8f bd
       -0.08290744 -0.07478562 -0.06807146 -0.06989875
0000d0 fc e4 53 bd 40 db 8b bd 30 f4 99 bd 8e 48 d4 bd
       -0.05173205 -0.06828928 -0.07517278 -0.10365401
0000e0 10 fb 7c bd dd 98 81 bd 42 81 3c bd fa 04 e3 bd
       -0.06176287 -0.063279845 -0.046021707 -0.110849336
0000f0 58 67 a6 bd 07 e4 8e bd b6 47 bd bd ae 78 9d bd
       -0.0812518 -0.069770865 -0.092421934 -0.076890334
000100 cd 6b 82 bd 48 5f 70 bd 72 b2 a8 bd 32 e0 b9 bd
       -0.063682176 -0.058684617 -0.08237161 -0.09075965
000110 5d ef 96 bd 4a 87 d2 bd 28 72 ca bd 46 4e a7 bd
       -0.07369874 -0.102797106 -0.09885055 -0.08169226
000120 5a b3 63 bd 44 f0 02 3e 4a 46 f7 bd 42 3a af bd
       -0.055590965 0.12786967 -0.120739534 -0.08556034
000130 00 7e 39 bd b4 a5 01 be 18 6a 93 3a 69 36 3c bd
       -0.04528618 -0.12660867 0.0011246828 -0.045950327
000140 65 7b 98 bc bf 26 b7 bd 50 0e 9c bd 8e 91 22 bd
       -0.018613527 -0.08942937 -0.076199174 -0.039689593
000150 00 f0 a5 bd 32 e1 88 bd ca ed bf bd 78 03 fb bb
       -0.08102417 -0.066835776 -0.093715265 -0.0076603256
000160 64 83 66 bd d0 c1 b7 bd 88 82 81 bd 26 2b 1e bd
       -0.056277648 -0.08972514 -0.06323725 -0.03861537
000170 d2 b7 ef 3d 36 e8 be bd 1a 07 a6 bd 4a 70 f9 bd
       0.11704983 -0.093216345 -0.08106823 -0.121796206
000180 d0 4f d7 bd a3 f7 e5 bc e2 98 22 3e fb 28 d5 bc
       -0.1051327 -0.028072184 0.15878633 -0.026020518
000190 59 86 7c bd 32 d1 74 bd 44 73 b2 bd cd 58 84 bd
       -0.06165156 -0.059769817 -0.087133914 -0.0646225
0001a0 20 11 b7 bd e3 20 81 bd 24 a0 84 bd 08 73 85 bd
       -0.08938813 -0.06305101 -0.06475857 -0.06516081
0001b0 b4 4b 3c bd ae c0 70 bd 64 f0 93 bd 2c 0d 98 bd
       -0.045970634 -0.058777504 -0.07223585 -0.07424387
0001c0 70 ad c3 bd 7c ca c6 bd a6 0e aa bd e8 f1 57 bd
       -0.09554565 -0.097065896 -0.08303575 -0.052720934
0001d0 66 35 98 bd e3 65 2f bd 7a 66 a2 bd 9c 53 c3 bd
       -0.0743206 -0.042821776 -0.07929702 -0.095374316
0001e0 da ee 7c bd dc 4b b8 bd 3c df db bd 48 cb a7 bc
       -0.061751224 -0.08998844 -0.10735938 -0.020482674
0001f0 38 f6 4b bd 7c c4 f1 bd 00 95 5e bd c6 9c ae bd
       -0.04979536 -0.118050545 -0.054341316 -0.08525996

bn1.running_mean f4 [128]
000000 0a 85 5e c3 7d ac 87 46 82 a8 49 c3 b4 75 fc 42
       -222.51968 17366.244 -201.65823 126.22989
000010 4c e2 d2 45 7a 4b 35 42 8c 54 de c5 0f fd 26 46
       6748.287 45.323708 -7114.5684 10687.265
000020 15 21 f4 c3 02 d7 90 c5 2a 3e ac 45 9a d4 7c 43
       -488.25845 -4634.876 5511.7705 252.83047
000030 f1 d8 45 c3 1b 19 bf 45 ab a8 91 40 88 09 81 c2
       -197.84743 6115.138 4.5518394 -64.518616
000040 98 28 ec c2 d2 31 5b c3 94 f0 23 c0 9d 8d 27 c5
       -118.079285 -219.19461 -2.5615587 -2680.8508
000050 0d a0 7c 44 f8 34 79 c6 74 7e ea c3 a9 6d 8b c6
       1010.5008 -15949.242 -468.9879 -17846.83
000060 ac 60 b9 c5 e5 2b ce 42 a9 b7 c4 c5 54 e8 9f 45
       -5932.084 103.08573 -6294.9575 5117.041
000070 fa 4f 8a c5 67 a5 92 44 7f 31 bb 42 04 ec bb c3
       -4425.997 1173.1688 93.59667 -375.84387
000080 83 a1 0c 43 1b 17 e7 45 d6 24 d5 41 cc 7d f7 c0
       140.6309 7394.888 26.642986 -7.734106
000090 ce c6 d1 42 59 ef f7 42 c2 ab 6a 42 50 19 b6 45
       104.88829 123.967476 58.667732 5827.164
0000a0 84 3e a8 44 50 6c cf c5 f0 75 dc 41 48 2c ac c3
       1345.9536 -6637.539 27.557587 -344.34595
0000b0 78 a9 15 42 51 a5 2d 43 6e 91 16 c6 f4 27 eb c5
       37.415497 173.64577 -9636.357 -7524.994
0000c0 f6 ff cb 43 79 70 2c 45 4e d0 40 43 7a 96 3d c2
       407.9997 2759.0295 192.81369 -47.39695
0000d0 1c fe 2b 46 af 93 31 c5 20 bf 8b c5 d7 63 3f 45
       11007.527 -2841.2302 -4471.8906 3062.24
0000e0 10 34 ab c2 e8 07 e4 44 f4 36 93 45 4b 94 6b c3
       -85.601685 1824.2471 4710.869 -235.57927
0000f0 84 12 a8 44 6b d8 68 c5 96 6e 68 43 e4 98 9b c2
       1344.5786 -3725.5261 232.43198 -77.798615
000100 e9 a5 ca 43 97 2c 73 c6 14 1f 1e c3 84 57 12 42
       405.29617 -15563.147 -158.1214 36.585464
000110 1b 51 74 c3 28 05 4f c1 b8 a2 f8 41 c8 3b d3 43
       -244.31682 -12.938759 31.079453 422.46704
000120 3e 6e 18 c6 6e fc 8d 40 25 d9 86 c2 1a 72 91 c2
       -9755.561 4.437064 -67.42411 -72.722855
000130 d5 d3 ea 45 13 60 05 c2 d8 99 e3 45 ba f5 49 46
       7514.479 -33.343822 7283.2305 12925.432
000140 9c fc cb 45 a0 ac 8a 42 78 c6 66 41 e8 b1 26 45
       6527.576 69.33716 14.423454 2667.1191
000150 c3 c3 9e 43 45 79 f2 43 84 08 e1 42 94 93 0e 44
       317.5294 484.94742 112.51663 570.3059
000160 ba 15 81 45 37 62 80 c5 75 71 10 43 ec e4 70 44
       4130.716 -4108.277 144.44319 963.5769
000170 48 4e 09 41 74 fb ce c3 c9 0a 75 c5 43 a8 cb c2
       8.581612 -413.96448 -3920.674 -101.828636
000180 b0 61 9d 43 62 dc 15 44 dc 9f 39 41 3c c4 16 46
       314.76318 599.4435 11.601528 9649.059
000190 7b 0b 5d 45 95 20 9c 44 2a d3 9b 42 ac b4 04 45
       3536.7175 1249.0182 77.91243 2123.292
0001a0 da af 9b 43 e0 1e 14 c4 dc 91 bf 44 d9 25 f3 c5
       311.37384 -592.4824 1532.5581 -7780.731
0001b0 df 19 15 c2 68 cb 8e c3 ab 69 e4 3f a2 83 ca 42
       -37.275265 -285.5891 1.7844747 101.257095
0001c0 0a ca b5 c5 2e d1 e3 c5 2e de 28 42 2d 48 b5 42
       -5817.255 -7290.1475 42.216972 90.64097
0001d0 c8 16 e0 c3 e3 68 92 46 48 ed 12 c2 42 a9 28 c4
       -448.17798 18740.443 -36.73172 -674.64465
0001e0 bc ed d6 41 80 2d 38 c1 ea e2 4e 43 50 1d 33 46
       26.866081 -11.511108 206.88638 11463.328
0001f0 1c 40 1f c6 8d 42 09 c5 ba 6b b9 44 14 77 67 c5
       -10192.027 -2196.1594 1483.3665 -3703.4424

bn1.running_var f4 [128]
000000 91 1e 03 48 14 bf 9e 4c 1e ba 34 46 aa e2 79 47
       134266.27 8.322883e+07 11566.529 63970.664
000010 2a 04 40 4b a4 b5 11 45 ac 25 57 4b 19 02 f3 4b
       1.2583978e+07 2331.3525 1.4099884e+07 3.185157e+07
000020 70 48 87 47 4a 02 bd 4a a4 c6 ff 4a 58 4f be 46
       69264.875 6.193445e+06 8.381266e+06 24359.672
000030 22 82 4a 46 d1 ca 1d 4b 21 59 7b 43 4e 0b bc 46
       12960.533 1.0341073e+07 251.34816 24069.652
000040 dc 91 b5 45 f9 b8 91 46 da 47 57 43 ec a4 3a 4a
       5810.2324 18652.486 215.28067 3.057979e+06
000050 f7 e7 89 48 a6 3d 85 4c fe 13 74 47 34 bc a7 4c
       282431.72 6.985656e+07 62483.992 8.794154e+07
000060 f7 b7 13 4b 27 99 0d 47 96 e8 29 4b 09 29 e0 4a
       9.680887e+06 36249.152 1.1135126e+07 7.3452845e+06
000070 da 58 14 4b 51 70 bd 48 d0 ff bc 46 0b 17 22 48
       9.722074e+06 387970.53 24191.906 165980.17
000080 3a ba de 46 87 6c 74 4b c9 f5 c1 44 d0 eb 78 43
       28509.113 1.6018567e+07 1551.6808 248.92114
000090 77 3d 2c 47 c9 90 b0 45 27 5c 77 45 26 1f 19 4b
       44093.465 5650.098 3957.7595 1.0034982e+07
0000a0 a9 ad 3c 49 e1 4e 42 4b db 10 a4 47 3e c9 27 47
       772826.56 1.2734177e+07 84001.71 42953.242
0000b0 39 c8 b0 45 b2 4f 0e 46 0c 7a c6 4b 04 ad 74 4b
       5657.028 9107.924 2.6014744e+07 1.6035076e+07
0000c0 c2 4a 33 47 c3 9e 5d 4a ce a3 13 46 86 8b 32 46
       45898.758 3.6310248e+06 9448.951 11426.881
0000d0 46 c3 fd 4b e3 10 0b 4a 2c 65 b6 4a a3 0f 27 4a
       3.3261196e+07 2.2784568e+06 5.976726e+06 2.7371288e+06
0000e0 58 a5 0c 48 83 82 ad 49 a0 2f 65 4b 6a 32 0b 47
       144021.38 1.4213924e+06 1.5019936e+07 35634.414
0000f0 e8 5c 04 4a fa 3e 66 4a 03 cf fd 47 17 11 79 45
       2.168634e+06 3.7723505e+06 129950.02 3985.068
000100 93 08 43 47 9e 07 7f 4c 91 bd ed 45 be 5d 1b 47
       49928.574 6.685452e+07 7607.696 39773.742
000110 54 7d 7d 46 4c ca 93 46 eb 05 0d 46 29 1f 47 47
       16223.332 18917.148 9025.4795 50975.16
000120 ed f5 dd 4b 8e 04 b3 43 ae 75 c2 46 72 c0 0a 47
       2.9092826e+07 358.03558 24890.84 35520.445
000130 ec 19 74 4b 38 22 7f 45 1a bf 72 4b 79 50 35 4c
       1.599742e+07 4082.1387 1.5908634e+07 4.7530468e+07
000140 94 c1 39 4b 07 ba e6 44 4e dc b5 46 af 84 13 4a
       1.2173716e+07 1845.8134 23278.152 2.4169398e+06
000150 e7 a7 14 47 42 4a a3 47 a2 cf 8e 45 37 a5 d7 47
       38055.902 83604.516 4569.954 110410.43
000160 db 22 2f 4b e8 fe 01 4b 6c be 83 46 fe 84 9a 48
       1.1477723e+07 8.5194e+06 16863.21 316455.94
000170 71 79 a1 43 3e 1d 6f 47 a2 e6 99 4a be e8 76 46
       322.94876 61213.242 5.043025e+06 15802.186
000180 ee 48 7e 47 5c a2 fc 48 ac a0 12 43 0b 82 cf 4b
       65096.93 517394.88 146.62762 2.7198486e+07
000190 ec ec 09 4b 4d 30 08 49 9e cf 7e 45 34 d4 96 49
       9.039084e+06 557828.8 4076.976 1.2355905e+06
0001a0 a2 ca d0 47 7a 35 53 49 f6 9a 5c 49 b2 92 7e 4b
       106901.266 865111.6 903599.4 1.6683698e+07
0001b0 f9 2b 09 44 f4 ee af 46 6a c1 1d 44 5d 6b 79 46
       548.6871 22519.477 631.0221 15962.841
0001c0 18 bd 0e 4b a1 c7 77 4b 45 a0 64 44 ef b3 6a 45
       9.35452e+06 1.6238497e+07 914.5042 3755.2458
0001d0 5b 43 b5 47 92 93 bb 4c bd c5 1e 48 3b b7 f9 47
       92806.71 9.834408e+07 162582.95 127854.46
0001e0 cc ad 88 44 05 1d bf 46 5a f7 55 47 43 fc 0b 4c
       1093.4312 24462.51 54775.35 3.6696332e+07
0001f0 e2 13 db 4b 9c 05 1a 4a d9 f5 02 4a f2 b0 ce 4a
       2.8714948e+07 2.523495e+06 2.1456542e+06 6.772857e+06

bn1.num_batches_tracked f8 []
000000 00 00 00 00 00 c1 ac 40
       3680.5

fc2.weight f4 [64, 128]
000000 7d 95 31 bd 83 4d ac ba f6 76 c5 3c 3d 08 80 3c
       -0.043355454 -0.0013145659 0.024104577 0.015628928
000010 0a 51 f1 bc 95 e2 8a bd b8 97 16 bc bd 9b 85 bd
       -0.029457588 -0.06781498 -0.009191446 -0.06523845
000020 28 9f 52 bd 23 62 45 bd 00 d2 d3 bd 2f ef d9 3c
       -0.051421314 -0.048189294 -0.10342789 0.02660331
000030 20 46 db 39 f6 0f da bc 5c 25 31 3d 4a 8d 74 bd
       0.00041823182 -0.026618939 0.04324852 -0.059705056
000040 32 87 94 bd d8 c4 1d bd 02 c9 5b 3d 3a 27 26 3d
       -0.07252349 -0.038517803 0.053658493 0.040564753
000050 c2 1b 11 bd 12 75 da bb 39 a8 ae bc ae a8 0f bd
       -0.035426863 -0.006666788 -0.02132045 -0.035072975
000060 01 e3 12 3c 70 5f 56 bd 6e 8e 07 3d c4 46 56 bd
       0.008965255 -0.05233711 0.033094816 -0.05231358
000070 56 f3 f0 3c 66 57 24 bd a7 c1 a3 bc 8a de 94 bd
       0.029412907 -0.040122412 -0.019989802 -0.072690085
000080 c2 fe c2 3c b6 f4 21 3d 51 49 0a bc cb 78 29 3c
       0.023803119 0.039540015 -0.008440332 0.010343741
000090 38 1b 12 bd de 6f 1e 3d 73 48 33 bd b9 2f 9e bd
       -0.03567049 0.038680904 -0.043770265 -0.07723946
0000a0 49 1a 2d 3d f7 0f 72 bd 06 00 79 bd 22 2e 8d 3d
       0.042261396 -0.059097257 -0.060791038 0.06893565
0000b0 9c 57 fc 3c 7c 10 86 bd f4 ac 4a 3d b4 a1 4b bc
       0.030803494 -0.06546113 0.049481347 -0.01242869
0000c0 4d 0c b0 bd e0 8c 75 3d 90 4a 29 3d 2c 01 b8 bd
       -0.08596096 0.059948802 0.041330874 -0.089845985
0000d0 d1 ba 81 bd f0 62 a6 bc ba ec b1 3c 6a d9 85 3d
       -0.063344605 -0.020310849 0.021719325 0.06535609
0000e0 8a 04 66 bd 9a b1 f4 bd 3b e0 35 bd 60 22 ba 3c
       -0.056156673 -0.11947937 -0.044403296 0.02272147
0000f0 ac dc 31 3d 10 b6 56 bc 14 05 62 3d 58 52 d2 3c
       0.04342334 -0.0131049305 0.055180624 0.02567403
000100 f1 7e c2 bd da 28 83 bd 63 99 bf 3c de 08 3e bd
       -0.094968684 -0.06404276 0.02338857 -0.046395175
000110 f2 0e 27 bd 1c 10 3a bc d0 80 5d bd 44 ee d4 bd
       -0.040785737 -0.01135638 -0.054077923 -0.10397008
000120 4a 87 22 bd 42 67 e6 bd 73 d5 bf 3c 46 40 d1 bc
       -0.039679803 -0.112501636 0.02341721 -0.025543343
000130 26 2a 3b bc a2 0e 51 bd 13 95 25 3d 4c ea fa 3c
       -0.011423623 -0.051039346 0.04042537 0.0306293
000140 3e 92 a8 bd d1 5b 17 bd 71 0c 96 3b 86 0a e3 bb
       -0.082310185 -0.036952797 0.00457912 -0.0069287447
000150 39 16 98 bd b6 a5 5f bc 61 3a f9 bb f4 24 ab bd
       -0.07426114 -0.013650348 -0.0076058363 -0.083566576
000160 ce 07 0c 3d 84 07 6b 3d 7a 19 b4 bd e3 35 c1 bd
       0.03418713 0.057380214 -0.08793922 -0.09434106
000170 d7 7b 13 bd 17 03 df bc a8 4c 40 bb fc d3 09 3d
       -0.036006775 -0.027223153 -0.0029342566 0.03364943
000180 18 0f 8c bd a8 34 3b bd 31 6f ea 3c 14 1c e0 bc
       -0.068388164 -0.045704514 0.028617473 -0.027357139
000190 c4 95 a8 bc e2 21 f9 bc 7c 76 41 3d 76 c2 db bd
       -0.020579226 -0.030411664 0.047232136 -0.1073045
0001a0 76 a3 c0 bc 55 8f 0e 3d 06 da 4a 3d 60 f3 92 3d
       -0.023515444 0.03480466 0.04952433 0.07175326
0001b0 66 82 9d bd 9a 29 d3 3c 35 0a 1f 3d e0 b7 85 3d
       -0.07690887 0.025776673 0.038828094 0.06529212
0001c0 9f bd d8 3c 00 56 70 3d 0b 79 21 3d fc d7 61 3d
       0.026457606 0.058675766 0.039422076 0.05513762
0001d0 27 f1 a0 bd f5 c3 bd bd ec 8a 9c 3d 3e 98 30 3c
       -0.07858496 -0.092658915 0.07643685 0.010778485
0001e0 76 de 71 3d 27 1d df bd b6 48 09 3d 65 8a a1 bd
       0.059050046 -0.10894232 0.03351661 -0.07887725
0001f0 e5 44 7f 3d 44 71 df 3c 12 52 12 bd 9a a5 73 3d
       0.062321562 0.027275689 -0.0357228 0.0594841
000200 b3 83 9d bc 54 ec 03 bd ca 5c 6c 3d f4 08 91 3d
       -0.019227838 -0.032207802 0.057705678 0.07081786
000210 0e a8 ba bd 5c 05 ab 3c c3 a6 25 bb a6 2d 20 3d
       -0.09114085 0.020876579 -0.00252764 0.039106034
000220 53 09 16 bd 39 88 33 3d 19 f6 f8 bc 96 ac b8 bc
       -0.036629986 0.043831084 -0.030390786 -0.022543233
000230 12 b9 e9 bc 20 fc af bd 7c 1c be 3d a8 cd 1a 3d
       -0.028530631 -0.08593011 0.09282777 0.037793785
000240 4a 57 a8 bd 42 ab dc bc 4f 4a b6 3c 8a 42 66 3c
       -0.08219774 -0.02693713 0.02225223 0.01405395
000250 84 8d 73 bc 82 a7 35 3d d6 ef 47 3d 74 81 6c 3d
       -0.014865283 0.0443492 0.04881271 0.057740644
000260 e6 8d 07 bd c7 77 17 bc 2b 65 57 bd 14 04 63 bd
       -0.03309431 -0.009244866 -0.052586716 -0.05542381
000270 cd 1c 3c bc ef 5e 31 3d 70 32 09 3d 10 fa 5a bc
       -0.011481476 0.043303426 0.033495367 -0.013365284
000280 c0 fa a2 3c b9 0b 9c bd 04 c8 93 3d b4 d6 ed bd
       0.019894958 -0.076194234 0.07215884 -0.11613217
000290 e4 be 9c 3d 58 e3 47 3d 84 60 32 bd a7 b6 be bc
       0.07653597 0.048800796 -0.043549076 -0.023280455
0002a0 b4 34 a3 bd 06 f8 fb 3c e4 04 3a bd 0e b2 92 ba
       -0.07969037 0.030757915 -0.04541482 -0.001119198
0002b0 de ba 7c bd b1 b9 88 3c 68 b8 d1 3c e6 82 1e ba
       -0.061701648 0.016690107 0.025600627 -0.0006046727
0002c0 22 59 00 3d be cb 90 bd 1a 54 0e bd ed 94 23 3b
       0.031335004 -0.07070111 -0.034748174 0.0024960593
0002d0 92 86 a6 bd 1c 72 26 3c 0c df 76 3d 1a e3 eb 3b
       -0.08131136 0.010159042 0.060271308 0.0071987035
0002e0 44 0f 8d bc 3b 23 09 ba a0 94 da b9 96 e5 63 bd
       -0.017219193 -0.0005231385 -0.00041690934 -0.055638872
0002f0 7a 3f a3 3d 50 8f ab bc 64 58 51 3c 72 11 f7 3d
       0.079710916 -0.02094236 0.012777422 0.12063874
000300 67 27 cf ba 98 1b 1a bd d2 6d ac bc 4a 72 f5 3b
       -0.001580459 -0.03762397 -0.02104846 0.007490431
000310 f0 4e 4d 3d e1 7b 92 bd 1e 2a e4 3b bb fd 7c bd
       0.05012411 -0.07152534 0.0069630286 -0.061765414
000320 e8 4e 36 bd 40 5e 23 be 22 11 8c bd e9 65 97 3c
       -0.044508845 -0.15953922 -0.06839205 0.018481212
000330 9a 99 cd 3c 16 ce 8c 3d 09 31 2f bc 8a b8 ee bc
       0.025097657 0.06875245 -0.010692843 -0.02914073
000340 0b 32 2e 3d f8 e0 8c 3d a2 39 59 bd 0e a5 9b 3c
       0.042528193 0.06878847 -0.05303348 0.018999603
000350 fd ec 3e 3d bc 70 33 3c 08 b8 6f 3d 12 32 99 bd
       0.04661273 0.010952171 0.058525115 -0.07480253
000360 c6 dc 88 3d 48 ec 45 3d 88 ce 67 bd d7 8e 8f 3c
       0.06682734 0.04832104 -0.056593448 0.017524166
000370 1e 06 f1 bd 24 15 42 bd 76 ff 7f bc 5c b5 43 bd
       -0.11768745 -0.047383443 -0.0156248715 -0.04778038
000380 44 08 a6 bd 7d 80 19 3d 5e a5 d5 bd e6 85 4b bd
       -0.08107045 0.03747605 -0.10431932 -0.049688242
000390 88 c8 84 3d ba 96 85 bd 52 fe 3f bd b6 c3 bf bc
       0.06483561 -0.065228894 -0.046873398 -0.023408752
0003a0 5c 9f 8f 3c 68 18 54 bd 97 d6 a7 39 fa 72 a1 bc
       0.017532043 -0.051781088 0.00032012604 -0.019708145
0003b0 22 49 d2 bc 96 da ab 3c 3e 0e 03 bd b6 92 e5 3b
       -0.025669638 0.020978253 -0.031996004 0.0070060147
0003c0 3a 59 7b bc 3a 52 42 3d 9f 6b a6 bd 78 36 a7 bb
       -0.0153410975 0.0474417 -0.08125996 -0.0051029287
0003d0 3f 5b af bc 0a b2 3c bd fe 3d 8d 3c 70 0c 8f bc
       -0.021405814 -0.04606823 0.017241474 -0.017461985
0003e0 26 66 a0 3d 50 72 c7 bd 74 6a d2 bc 18 b7 4a 3d
       0.07831983 -0.097386 -0.025685526 0.049491018
0003f0 3a 05 35 3d 24 74 a3 3c 74 5c a7 3c c5 86 0c bd
       0.044194438 0.019952841 0.020429827 -0.034308214

fc2.bias f4 [64]
000000 6a ae 18 bd ba c4 94 3d b5 4f 11 3a 0a 7d 47 3d
       -0.03727571 0.07264085 0.00055431883 0.04870323
000010 56 88 da bc 20 67 2b bd 30 e7 3c 3c f0 68 87 bd
       -0.026676338 -0.041846395 0.011529729 -0.06611812
000020 aa 75 d5 3c f6 a5 2f 3d 0c dc 72 3d 3c 43 54 bd
       0.026057083 0.042882882 0.059291884 -0.051821932
000030 8e a4 3a bc 51 ac 3a 3d 17 65 58 bb 64 21 93 bd
       -0.011391772 0.04557449 -0.0033019239 -0.07184103
000040 90 ab b2 bc fe cf 0c bd 70 d6 d6 3c 32 eb 63 3d
       -0.021810323 -0.034378044 0.026225299 0.05564422
000050 7b 45 17 3d d4 b9 74 3d bc 86 5b 3d 84 33 60 3d
       0.036931496 0.059747532 0.05359529 0.05473663
000060 c3 03 42 3d 46 f0 b4 bc e2 89 72 bc 53 a8 ab 3c
       0.04736687 -0.022087228 -0.014803382 0.020954287
000070 a8 a8 9a bd b2 c1 30 3a 6b 52 2f bd 26 75 8b bc
       -0.075517 0.000674273 -0.04280321 -0.017023634
000080 ce 06 61 bd c6 fd aa bd 5a dc 5d 3d 1d 46 38 3b
       -0.05493813 -0.08349185 0.05416522 0.0028117963
000090 52 dd 29 3d e0 be 79 3d 30 c6 1b bd 72 ef 70 bb
       0.041470833 0.06097305 -0.038030803 -0.0036763814
0000a0 34 eb d9 bc aa 6c e5 bc 76 da 0a bd e4 22 8d bd
       -0.026601411 -0.028005917 -0.033899747 -0.068914205
0000b0 de 1e 6e bc bc 6a 0f 3d bc 3a 57 bd 1f 4f d5 3b
       -0.0145337265 0.0350139 -0.052546248 0.006509676
0000c0 ba 26 45 3b 96 a8 8c bb 26 78 39 bc 4a c4 8f bc
       0.0030082897 -0.004292558 -0.0113201495 -0.017549653
0000d0 72 98 e7 bc 2c cf 27 bb 80 38 98 bc d4 d0 74 bd
       -0.028270934 -0.0025605662 -0.018581629 -0.059769467
0000e0 2b 1a 3f 3d 85 5d 17 3b 52 50 3e bd 6f c9 a4 bd
       0.046655815 0.0023096513 -0.04646332 -0.08046233
0000f0 ee 05 5c 3d c2 fc 6c 3d 18 28 8e 3d 46 c1 77 bc
       0.053716592 0.057858236 0.06941241 -0.015121764

bn2.weight f4 [64]
000000 a6 45 81 3f 7c 6d 7f 3f 16 2a 74 3f d8 d9 86 3f
       1.009938 0.99776435 0.9537672 1.0535231
000010 1e ba 80 3f 54 58 7d 3f ec 27 82 3f 40 1e 74 3f
       1.0056798 0.98962903 1.0168433 0.9535866
000020 18 90 80 3f 74 42 80 3f 95 67 81 3f 84 47 7a 3f
       1.0043974 1.002028 1.0109736 0.97765374
000030 36 35 6b 3f 7e 02 7d 3f 38 8f 71 3f d7 5a 76 3f
       0.9187807 0.9883193 0.9435916 0.9623236
000040 60 e3 75 3f 01 64 80 3f b6 3b 6f 3f e0 f6 71 3f
       0.9605007 1.0030519 0.93450487 0.94517326
000050 25 31 7b 3f 38 1c 7d 3f cc 7c 7a 3f c7 1b 80 3f
       0.98121864 0.98871183 0.97846675 1.0008477
000060 b0 7b 82 3f ae 1b 80 3f c7 ce 7e 3f 77 9f 81 3f
       1.0193996 1.0008447 0.9953427 1.012679
000070 d0 6d 8a 3f 0b 3f 6a 3f 38 70 7b 3f c4 d2 83 3f
       1.0814762 0.91502446 0.9821811 1.0298696
000080 56 aa 75 3f c2 82 89 3f 3e 03 7c 3f 71 c1 7a 3f
       0.95963037 1.0743029 0.9844245 0.9795142
000090 5e e6 78 3f b4 ac 7b 3f 39 16 7c 3f 96 d6 74 3f
       0.9722651 0.983104 0.9847141 0.9563993
0000a0 84 7e 76 3f 4e 63 89 3f 56 b0 72 3f be 1b 7a 3f
       0.962868 1.073343 0.9480032 0.9769858
0000b0 af 9b 7d 3f bb fe 7b 3f d2 84 83 3f f0 74 78 3f
       0.9906568 0.9843556 1.0274909 0.9705343
0000c0 fe 4e 87 3f 9a 36 80 3f aa 1c 82 3f f2 70 8b 3f
       1.0570982 1.0016663 1.0164998 1.0893843
0000d0 6a 8b 7b 3f f2 6c 7c 3f 96 40 76 3f 54 6d 72 3f
       0.98259604 0.9860374 0.961923 0.9469807
0000e0 86 44 81 3f 44 84 83 3f 67 48 7e 3f 50 61 74 3f
       1.0099037 1.0274739 0.9932923 0.9546099
0000f0 dc 9d 78 3f b3 c6 74 3f e2 44 7e 3f 2e f6 72 3f
       0.97115874 0.9561569 0.99323857 0.9490689

bn2.bias f4 [64]
000000 28 1d de 39 04 1d f4 bc f3 61 bb bc b3 62 33 3d
       0.00042364863 -0.029798992 -0.022873854 0.0437953
000010 e2 ca 98 3c 53 0a 87 3c a5 0f bf 3c 8a 87 98 bc
       0.01865143 0.016484415 0.02332289 -0.018619318
000020 bc 8e 85 bd 5d ed 3e bc 0c 8b 53 3c 24 16 78 3c
       -0.06521365 -0.0116532715 0.012911569 0.0151419975
000030 65 ca 42 bd 61 93 9f 3a 9b 31 6e 3b 06 77 c9 bc
       -0.0475563 0.001217466 0.0036345485 -0.024592888
000040 c9 2e 50 bc 82 b5 d8 bc fc 0e b0 bc 40 ed ab bc
       -0.012706467 -0.026453737 -0.02149152 -0.020987153
000050 b8 2a a3 bd 2c 15 fc bc 93 ac 56 3a 78 d3 94 bc
       -0.07967132 -0.030771814 0.0008189168 -0.018167242
000060 ee 43 82 3c 5e 92 7f bc ab fd d3 3c 69 ee 02 bd
       0.015901532 -0.0155988615 0.025877794 -0.031965647
000070 1c 07 06 3d 4a 66 4d bd c6 d4 fb 3b 33 70 02 3d
       0.032721624 -0.05014638 0.0076852767 0.031845283
000080 07 9f c9 bc fc ba 89 3d 44 95 b8 bb cc e2 20 bd
       -0.024611963 0.067251176 -0.005633028 -0.03927879
000090 b9 65 4f bc 79 9d 6a bc 70 15 89 bd a6 0e 86 3d
       -0.01265853 -0.014319771 -0.06693542 0.06545763
0000a0 7c 33 20 bd 7d 51 54 3c 57 ae 98 bc 46 e4 ed bc
       -0.0391116 0.012958881 -0.01863782 -0.029039513
0000b0 0c 91 42 3c 05 ff 86 3c b9 fd 7e bc f5 14 45 bd
       0.011875402 0.016479025 -0.015563422 -0.04811569
0000c0 41 b3 e7 bc 36 98 42 3b 10 f7 78 bc 1c 69 00 3d
       -0.028283717 0.0029692776 -0.015195623 0.03135024
0000d0 3e 62 28 bb 2c e4 26 bc 34 45 6c bd be 6b 20 bd
       -0.0025693323 -0.010186236 -0.057683185 -0.03916525
0000e0 90 fe 06 3c c3 3f c4 3b d4 5c 59 3c 54 22 55 bd
       0.008239403 0.0059890463 0.013266761 -0.05203469
0000f0 16 6a a3 bc 94 2b 89 bc 48 85 30 bc 64 9c 2c bd
       -0.019948047 -0.016744412 -0.010773964 -0.042141333

bn2.running_mean f4 [64]
000000 08 99 3b bf 13 1a a3 be 72 29 9c 3e 82 c0 5c be
       -0.7328038 -0.3185583 0.3050037 -0.21557811
000010 c0 e8 cf bc e6 20 95 bf c5 0f 63 be b5 54 41 bf
       -0.025379539 -1.1650665 -0.22173984 -0.7551988
000020 b0 b2 97 bf 2f e8 80 bf ce 9a 51 bd 56 8c d0 be
       -1.1851406 -1.0070857 -0.051173024 -0.40732068
000030 4c 4b 4a 3f 47 f9 80 bf 9b 10 a4 be 44 80 f3 be
       0.79021144 -1.0076073 -0.3204392 -0.47558796
000040 71 13 27 3d e2 41 0a bd b0 16 23 3f 22 95 15 3f
       0.040790025 -0.033754237 0.63706493 0.58430684
000050 8e 74 1a 3f 90 ce be 3d 36 a9 47 3d fb 19 e9 be
       0.603341 0.093167424 0.048745357 -0.45527634
000060 47 76 91 bd ca 86 44 be 63 77 b9 be 79 46 e7 bd
       -0.07102638 -0.19192043 -0.36223897 -0.112927385
000070 92 88 87 be 6b 0e 22 be 24 a8 8f bf f6 e4 6e be
       -0.26471382 -0.15825813 -1.1223187 -0.23329529
000080 7b 06 0d 3f c7 45 3d be e4 b8 2e bf 90 23 d2 be
       0.55088013 -0.18483649 -0.6825087 -0.41042757
000090 9b 56 a6 be 7b 96 83 3e 12 2d 0f 3f bc 14 3e be
       -0.3248795 0.25700745 0.55928147 -0.18562597
0000a0 d0 01 52 3f 98 56 72 be a8 51 32 3e a3 a5 87 3c
       0.82034016 -0.23665845 0.17413962 0.016558474
0000b0 58 2d 6f bf ea a7 d9 bc 00 71 1c 3d a4 72 e9 3e
       -0.93428564 -0.026569325 0.038193703 0.45595276
0000c0 45 c9 84 be 37 2e 5c be f2 b4 62 be 7c 4c 25 be
       -0.25934806 -0.21502005 -0.22139338 -0.16142458
0000d0 31 52 b7 bd bb 59 08 bf 1b 6a 8a 3d ec e7 be 3d
       -0.08951224 -0.5326192 0.06758519 0.09321579
0000e0 a0 e5 05 3e 16 a2 14 3f 3e eb 6d bf 5c aa 8a bd
       0.13075876 0.58059824 -0.92937076 -0.06770775
0000f0 3b e4 6e be 64 d0 3f 3e 3c 49 28 be f8 08 0a bf
       -0.2332925 0.18731838 -0.16434187 -0.53919935

bn2.running_var f4 [64]
000000 21 14 0b 3f a6 bf c2 3e a4 3f 00 3f f0 a0 bb 3e
       0.5432759 0.3803684 0.5009711 0.36646223
000010 3f fa ad 3e b6 2d 87 3f 1f f2 48 3f 78 20 56 3f
       0.33979985 1.0560825 0.7849445 0.83643293
000020 dc 51 5a 3f f6 f0 7f 3f 30 81 d8 3e 8e ea ef 3e
       0.8528116 0.9997705 0.42286062 0.4685864
000030 a2 db 94 3e 9f 27 69 3f de fe 8a 3e 71 b8 61 3e
       0.29073817 0.9107608 0.27147573 0.22043015
000040 2a eb b1 3e 3b d2 c7 3e 4c 7d c4 3e 40 42 6f 3e
       0.34749728 0.3902758 0.38376844 0.23365116
000050 e3 08 de 3e 2f 1b 05 3f 94 f6 e8 3e fb 05 fa 3e
       0.43366155 0.51994604 0.45500624 0.48832688
000060 c6 47 08 3f 33 c5 17 3f 8d 66 c5 3e b0 4e c1 3e
       0.5323452 0.5928528 0.38554803 0.37755346
000070 d1 93 a8 3e e6 2b 1f 3e fd a2 ac 3f ad 9b f4 3e
       0.32925275 0.1554409 1.348724 0.4777502
000080 66 b4 86 3e e2 45 e1 3e 44 c6 3c 3f 6d 85 81 3e
       0.26309508 0.4399863 0.7374003 0.25297108
000090 04 03 40 3f 0e d1 43 3f f7 03 4d 3f f1 a5 4c 3f
       0.750046 0.7649087 0.80084175 0.79940706
0000a0 47 35 9e 3e 56 81 2b 3f c6 0a 88 3e 9e 7f b2 3e
       0.30900022 0.66994226 0.2657072 0.3486299
0000b0 85 c9 22 3f dc 4c 37 3f 2e f9 80 3e d6 a8 fa 3e
       0.63588744 0.71601653 0.2519011 0.48956937
0000c0 da 17 ce 3e fa 33 fb 3e 7a ca 0f 3f 56 a5 24 3f
       0.40252572 0.49063092 0.5616833 0.6431478
0000d0 78 54 2c 3f 57 de 0d 3f 46 5e 44 3f af 75 e5 3d
       0.6731639 0.5541739 0.7670635 0.11204087
0000e0 95 56 1d 3f a0 57 27 3f 60 e7 8d 3e 52 43 99 3e
       0.6146024 0.6536808 0.27715588 0.29934174
0000f0 aa d6 5d 3e bd 1d 89 3e aa 5d c3 3e e7 4b c7 3e
       0.21663919 0.267805 0.38157398 0.38925096

bn2.num_batches_tracked f8 []
000000 00 00 00 00 00 c1 ac 40
       3680.5

fc3.weight f4 [32, 64]
000000 74 48 bb 3d fb 78 1e 3b aa 4b 73 bd 9a 84 00 be
       0.09144679 0.0024180997 -0.05939833 -0.12550583
000010 5b 95 4a bc 3a 06 a5 bd 1d 2d dd bd 58 4e cd bd
       -0.012364711 -0.08057828 -0.1079962 -0.100247085
000020 8b 14 a2 bd 7b f8 a6 3b 86 ea 66 3d 29 4f b0 3c
       -0.079140745 0.005095539 0.056376003 0.021522122
000030 c2 f0 a8 bc 6e 5d 66 bc 26 96 20 3d fe 4e 88 bd
       -0.020622615 -0.014060361 0.039205693 -0.066556916
000040 ac ae 93 bd c3 ad 23 3d 56 57 07 bd aa d7 00 3d
       -0.072110504 0.039960634 -0.033042274 0.031455673
000050 a0 5d 89 b9 0e b9 75 3c 64 e2 94 bb e2 a7 5d 3d
       -0.00026200432 0.014997734 -0.0045435894 0.054115184
000060 96 56 af bd 7c 8d 29 3d 65 bd 7f 3d 95 6c 0e 3d
       -0.08561437 0.041394696 0.06243648 0.03477152
000070 d7 a4 05 be 2e 53 8b 3d bc 10 68 3d 44 fa 55 bd
       -0.13051163 0.06802975 0.056656584 -0.052240625
000080 98 ae 5f bd 65 e7 01 bd 9e 0d 26 3d 62 a8 ba bd
       -0.054609865 -0.031714816 0.04054033 -0.09114148
000090 06 e3 86 3d 8f b6 63 bd 22 aa 0a 3d 84 11 26 bd
       0.0658627 -0.055594023 0.033853658 -0.040544048
0000a0 1e 59 3e bd 7c 44 fc bd fe fb 1d 3c ac 3f 9d bd
       -0.046471708 -0.1231775 0.009642599 -0.0767816
0000b0 51 46 c9 3b d2 dc be bd 84 d3 be bc 7c e0 8f bd
       0.0061424156 -0.09319462 -0.023294218 -0.07025239
0000c0 1b d5 0d be c5 0c ce bd 6e b3 3e bd 74 73 34 bc
       -0.13850825 -0.10061029 -0.046557836 -0.011013854
0000d0 7c 38 e9 bd 1a 80 93 3c c5 e0 a0 3d 3e 05 4d 3b
       -0.11387727 0.01800542 0.078553714 0.0031283642
0000e0 b6 7e 50 bd a1 7b 9a 3d 04 26 34 bd 84 74 b3 bd
       -0.05090209 0.075431116 -0.043981567 -0.08762458
0000f0 4a 7f eb 3a 2f 5c 29 3d 2e 05 7a 3c 6a 57 91 bd
       0.0017967012 0.04134768 0.015260024 -0.07096751
000100 f4 86 3e 3c 1e d3 fc 3d be ca c5 bc 76 d8 1a bd
       0.011628855 0.12344955 -0.024144527 -0.03780409
000110 59 27 c4 3d f0 54 d4 3d 6a f9 28 bd 3c 11 b1 bd
       0.095778175 0.10367763 -0.041253485 -0.08645865
000120 f0 f1 cd bc 13 e6 0a 3d f2 ed 8d 3b 72 ed 9d 3d
       -0.025139779 0.033910822 0.004331344 0.07711305
000130 a6 15 9b 3c 2d 9c a1 3a 31 85 3c 3d 64 52 19 be
       0.018931221 0.0012329869 0.04602546 -0.14972836
000140 02 4e bd bc f2 f5 97 bc ac 4e 89 3c a2 74 64 bd
       -0.023108486 -0.018549893 0.016761146 -0.055775292
000150 38 42 15 bd 8e 43 d8 bd 89 4b 11 be 86 d8 c5 3d
       -0.036440104 -0.1055976 -0.1418897 0.09660439
000160 2d d6 4b 3d d8 5b 81 3d 9d 3e 72 3d c7 46 fd 3d
       0.0497648 0.06316346 0.059141744 0.12367015
000170 30 d2 f4 3d 7a 46 7f 3d 72 2d 37 bd 1a ca fd 3d
       0.119541526 0.06232307 -0.044721074 0.123920634
000180 3b 9c b9 bd b9 ee 09 3d 6e d7 6d 3d c6 df fd 3d
       -0.09063002 0.03367493 0.058066778 0.12396197
000190 62 3c e8 bc 6f da e6 bc 77 53 a5 3d b8 ff d9 bc
       -0.028349105 -0.02818033 0.0807256 -0.026611194
0001a0 0e a8 c3 3d 86 c8 07 bd 36 ff 54 bc 30 f7 d0 3d
       0.09553538 -0.03315022 -0.0130003 0.10203397
0001b0 95 4a 96 bd e0 68 b6 bc 5a 43 ec 3d 42 65 f5 3d
       -0.07338444 -0.022266805 0.11536284 0.11982204
0001c0 89 e4 46 3d db d4 4f 3b a0 1a f8 bd 84 57 9c bc
       0.04855779 0.0031712565 -0.12114453 -0.0190847
0001d0 cd da a3 3a 09 a4 ac 3c 6c eb 2e 3d 8a d8 61 bc
       0.0012501121 0.021074312 0.042704985 -0.013784537
0001e0 7a bd ce bc ce d7 90 bd 80 ce 8f bd 89 00 79 3d
       -0.025236834 -0.070724115 -0.070218086 0.060791526
0001f0 ef 79 b3 3c c6 03 d7 3a 35 c9 ee 3b fa 22 f9 3d
       0.021908728 0.0016404323 0.0072871693 0.121648744
000200 45 5d 32 3b a4 c7 be bd 7c d9 05 be 88 9c 47 3d
       0.0027216238 -0.09315422 -0.13071245 0.048733264
000210 7a d3 54 3d 5f 57 d3 3b 4e 2c 38 bb 94 60 d7 3d
       0.051959492 0.0064496244 -0.002810258 0.10516468
000220 17 2c 07 be c1 01 ec bd ae c2 5e 3c d8 ba 7f bd
       -0.13200413 -0.11523772 0.01359622 -0.062434047
000230 4c dc 04 be ed fb f5 3c 91 72 39 3d fa e1 06 bd
       -0.12974662 0.030027354 0.045275275 -0.03293035
000240 14 ba a6 3d 55 cb 77 3c 70 94 c1 bd bb 41 06 be
       0.0814096 0.015124162 -0.0945214 -0.13111012
000250 35 70 8d 3d a1 a0 51 bd 6a f3 a6 bd 8c af 57 3d
       0.069061674 -0.05117858 -0.08151896 0.05265765
000260 ca 3e f9 3d 8f 6e 64 bd 45 d8 d9 bb d2 a9 2d 3d
       0.12170179 -0.0557695 -0.006648096 0.04239828
000270 cc 78 75 3d 3c 0f 66 bd 2c 15 b1 bd 91 de c5 3d
       0.059929654 -0.056166872 -0.08646616 0.09661592
000280 4c 49 af 3c 14 a3 25 3d 84 1e 4f bd db 45 a5 3d
       0.021397255 0.040438727 -0.05056621 0.080699645
000290 88 36 26 bd 68 53 01 be 85 17 57 3b be 1f a1 bc
       -0.04057935 -0.12629473 0.0032820415 -0.019668456
0002a0 7c 06 f4 bd 9c b9 94 3d 92 83 66 bd a4 11 df 3d
       -0.11915299 0.07261965 -0.05627782 0.108920366
0002b0 18 bf b0 bd 86 ce f5 bd 22 44 56 3d 11 be 91 bd
       -0.08630198 -0.12002282 0.05231107 -0.071163304
0002c0 4a 1c 03 bd 6e aa bd bd d2 36 d6 3d 83 2f c9 3d
       -0.0320094 -0.092610225 0.10459675 0.09823515
0002d0 fd f7 b5 bd 50 dd 23 bc aa e6 9d 3b 8e 9a a4 bc
       -0.08885191 -0.0100014955 0.004818757 -0.020093229
0002e0 84 8c 0b be ba 21 7a bc f0 b6 ea bd af ca a4 bb
       -0.13627821 -0.01526683 -0.11460674 -0.0050290446
0002f0 e2 5d 21 3d 9d b4 54 bd 6d 6c ab 3d 53 18 ad bd
       0.039396174 -0.05193006 0.0837029 -0.08451905
000300 0c bc 02 3e ff 2e 9b bd 0c ef f0 bd a8 bf fd 3d
       0.12767047 -0.07577323 -0.117643446 0.12390071
000310 84 6e 13 bd 78 ce ab 3d 9e 09 86 3d d4 1c cb 3c
       -0.035994068 0.0838899 0.06544803 0.02479402
000320 2a 2f 00 bd ae f4 37 bd c2 1f a9 bd 40 06 3e 39
       -0.03129498 -0.04491108 -0.082580104 0.0001812214
000330 cb 8d 8d bd aa 20 25 3d 44 c6 d5 bd db 90 c8 bd
       -0.069118105 0.040314354 -0.10438207 -0.09793254
000340 e3 75 dd 3d 9e 8e 13 3c d6 c3 97 bc 1c a7 8f bd
       0.10813501 0.009006171 -0.018525999 -0.070142955
000350 d8 7e 30 3e 6c fb 12 3d 45 a6 35 bd 76 56 97 bd
       0.17235887 0.035884306 -0.04434802 -0.07389538
000360 c8 f6 04 3e da 51 03 3d b6 34 6f 3c 22 a9 2c 3c
       0.12984765 0.03206048 0.01459997 0.010538371
000370 2e 6b d6 3d 6e 15 41 3d bd d6 9e 3d 4e 8e 41 3d
       0.10469662 0.047139578 0.07755802 0.047254853
000380 be 11 9f bd d6 06 ea 3d 4f c3 62 bd f9 65 7e bd
       -0.07767056 0.11427085 -0.055362042 -0.062108967
000390 6d 27 81 bd 02 3d 8f bd f6 ec 57 3d 11 dd 3a 3b
       -0.06306348 -0.06994058 0.052716218 0.0028513114
0003a0 b8 c3 a9 bd 96 93 89 3d 1f 7c e1 3b a0 7d ce bd
       -0.082892835 0.06717603 0.0068812515 -0.10082555
0003b0 4e 13 b9 bd 79 ff 50 bd 3b c9 39 bd 04 d6 7a bd
       -0.09036885 -0.051024888 -0.045357924 -0.061239257
0003c0 84 24 1e 3d 60 6a e2 3d f2 a2 35 3e 36 a9 b2 3d
       0.038609043 0.11055446 0.1773794 0.08723681
0003d0 3c 35 96 3b 8d 5d 3a bd 42 60 ee bc 72 32 8a bd
       0.0045839828 -0.045499373 -0.029098634 -0.06747903
0003e0 2c b7 0f bd bd ab 88 3d c1 4a 17 3d 29 36 72 3d
       -0.035086796 0.066733815 0.036936525 0.059133682
0003f0 d0 62 c7 3d 60 27 4c bd 98 1c 6e bd 4c 1d 78 bd
       0.09735644 -0.04984224 -0.058132738 -0.060574815

fc3.bias f4 [32]
000000 c0 aa ea bd 36 72 63 3d ca 5d d0 bd 60 c4 08 bd
       -0.11458349 0.055528842 -0.10174139 -0.033390403
000010 c8 c5 9a bd d4 2e 3c bd 68 16 c7 bd d4 01 99 3d
       -0.07557255 -0.045943096 -0.097210705 0.07471052
000020 a2 81 22 3c 86 35 af bd 61 37 f6 3d 46 ff 05 be
       0.009918602 -0.08555131 0.120222814 -0.1308566
000030 26 0b b0 bd 28 7b ad 3d b6 56 e0 bd 31 d4 0c bd
       -0.085958764 0.08470756 -0.10954039 -0.03438205
000040 13 42 dd bd 8a d0 87 bd f4 98 91 3c 56 59 6e 3c
       -0.10803618 -0.066315725 0.017773129 0.014547667
000050 2e d5 fd bd c0 0d b3 bc 5e b3 65 3c 44 d7 e2 bd
       -0.123941764 -0.021857142 0.014019815 -0.11076215
000060 be d2 c5 bd e9 88 1e 3c 02 68 89 3d 1c 84 20 3d
       -0.096593365 0.009676197 0.06709291 0.03918849
000070 d4 46 c1 3d 7f 51 95 3b 52 80 da 3d 30 30 15 3d
       0.094373375 0.004556834 0.106690064 0.03642291

bn3.weight f4 [32]
000000 78 82 a1 3f f0 5a ab 3f aa 82 aa 3f 64 a7 96 3f
       1.2617941 1.3387127 1.3321126 1.1769834
000010 98 cc a1 3f c3 76 a4 3f 10 95 a3 3f aa f9 a4 3f
       1.2640562 1.2848743 1.2779865 1.2888691
000020 7c 62 a8 3f d5 7d a4 3f 43 70 a3 3f ba 79 a2 3f
       1.3155055 1.2850901 1.2768635 1.2693398
000030 42 be a1 3f f6 3b a0 3f 64 c3 9a 3f 5c 6a 81 3f
       1.2636187 1.2518299 1.2090878 1.0110583
000040 2e 6f a3 3f 83 9a 9c 3f 22 c6 9d 3f 10 df 9f 3f
       1.2768304 1.2234653 1.232609 1.2489948
000050 0a c1 aa 3f 41 49 a4 3f 4a 0f 97 3f 52 a0 95 3f
       1.3340161 1.2834855 1.1801541 1.1689551
000060 61 4e a6 3f 34 0c a9 3f 02 c2 a4 3f 89 f1 a2 3f
       1.2992669 1.3206849 1.2871706 1.2729961
000070 d3 b3 a9 3f f8 b0 a7 3f 22 64 b1 3f 2d 50 97 3f
       1.3258003 1.3100882 1.3858683 1.1821343

bn3.bias f4 [32]
000000 90 ed f4 3d 1c 86 8d 3e 6c 5a 8d 3e a6 b5 b8 3d
       0.11959374 0.2764138 0.2760805 0.09019022
000010 ba 32 51 3e 40 9d f5 3d 4f 7d 45 3e 38 25 6a 3e
       0.20429507 0.11992884 0.19286083 0.2286576
000020 04 58 79 3e c6 95 60 3e ad 1e 52 3e 22 0f cc 3d
       0.24349982 0.21932134 0.20519514 0.09963824
000030 6e f9 69 3e 74 74 cb 3d 74 c3 31 3e cc 4e 3f bd
       0.22849056 0.09934321 0.17359716 -0.046706006
000040 88 bd 60 3e 79 f3 d7 3d c6 13 3b 3e a1 4c 96 3d
       0.219473 0.105444856 0.18269262 0.073388346
000050 72 6e 7e 3e b7 b6 eb 3d 18 5d 14 3e 8e b4 31 3d
       0.24846819 0.115094595 0.14488637 0.04338508
000060 3c 23 80 3e 77 1b 72 3e 6a 54 66 3e 74 7c 98 3d
       0.25026882 0.2364329 0.22493139 0.074456125
000070 f0 22 82 3e 69 39 7d 3e f0 fe 92 3e 45 0c 14 3e
       0.2541728 0.24728931 0.28710127 0.14457805
