examples/hello-world/ml-to-fl/pt/fraudnet/jobs/workdir/server/simulate_job/app_server/best_FL_global_model.pt (torch, 68336 bytes, 22 tensors)

fc1.weight f4 [128, 30]
0.0057616495 0.06898191 -0.4246654 0.4111805 -0.64451605 0.21874215 0.4189024 0.13351977
-0.102903575 0.5312215 0.3798218 -0.44421947 0.35132593 0.14812982 0.654268 -0.114044726
0.33227223 0.30749977 0.39210075 -0.072064355 -0.033144075 -0.4318199 -0.16070822 0.020725604
0.28532386 0.014610009 0.12394832 -0.34259087 -0.1272037 0.07630552 -0.095831044 0.15847433
-0.21520323 0.18843679 -0.19704878 0.22649899 0.22087996 0.32698092 0.12120457 0.355311
-0.02348134 -0.20185119 0.13612199 0.14896405 0.053775594 -0.08914159 0.12015175 0.022796296
0.092459954 0.08547799 0.021339767 0.05617562 -0.26616478 -0.12332258 -0.06046495 0.019418463
-0.22307 -0.08308392 -0.013583858 0.05481162 0.0042042504 0.26015437 -0.53865373 0.2953161
-0.70150936 0.22072417 0.3128469 0.29778296 0.28960735 0.42255002 0.6733382 -0.6834256
0.7201997 0.11939162 0.67431974 0.2610738 0.64080435 0.5561712 0.33275563 0.047846556
0.18197024 -0.12712067 -0.04922303 -0.20175415 -0.1769245 -0.19528511 0.06428331 -0.06594963
-0.0856055 0.01560373 0.0340257 0.12224466 0.10090248 -0.24206424 0.26941943 0.1823188
0.025402393 0.14866604 0.18202934 0.10712833 -0.119576745 0.023577683 -0.17296487 0.03138066
-0.2804616 0.06908149 0.07548158 0.10413227 -0.07897511 0.08862747 -0.025974851 0.2862765
-0.33176166 -0.081928484 -0.0059819897 0.059970446 0.09163302 0.16781622 -0.067658395 -0.20546927
0.037921496 -0.17755592 0.17484477 -0.43799847 0.37473732 -0.08381158 -0.2026893 -0.24894312
0.03583988 -0.2127699 -0.1725217 0.29311556 -0.5431427 -0.012486281 -0.562674 0.096308574
-0.38429493 -0.12222311 -0.20961848 0.016692013 -0.04510556 -0.016644103 -0.10445661 0.09681356
0.23859826 -0.06740514 0.16372225 0.041131724 -0.062660374 -0.024914496 -0.0076418114 0.2653447
-0.1364945 0.106814794 -0.49655727 0.08257815 -0.08009301 -0.007119514 0.36469036 0.068858206
0.22179449 -0.2124412 0.33176666 0.027575972 0.36083913 -0.046496212 0.19647345 0.18287405
0.24362564 -0.027828319 0.053949952 -0.024154589 -0.2245355 0.09560919 0.10082501 -0.1938282
-0.26597238 0.035462517 -0.15003057 -0.00082402024 0.005488615 -0.14656273 0.5375777 -0.33679253
0.7369444 -0.21294752 -0.40101397 -0.4500175 0.028735906 -0.25562754 -0.6548016 0.46277976
-0.4439211 -0.39189196 -0.7905068 -0.018796764 -0.3146329 -0.44529402 -0.48116523 0.36606875
0.25272235 0.41026002 0.050303467 -0.07447909 -0.062472258 0.1904608 0.07716474 0.35649896
0.18720782 0.14344662 -0.0008011846 0.23162514 -0.37182924 0.7715403 -1.016624 0.10845114
0.56866956 0.4969297 -0.0568579 0.5937019 0.75988925 -0.61873585 0.9785625 0.4344767
1.174549 -0.1562051 0.6595862 0.5793304 0.2717842 -0.12543291 0.16721314 -0.35568097
-0.28445545 0.12441331 -0.15974644 -0.11276835 0.19701414 -0.17010355 -0.10162292 -0.002818983
-0.033444963 -0.23565087 0.111941256 -0.19489941 0.40629715 0.038962387 -0.21163891 -0.05657062
0.13570058 -0.29558527 -0.23731199 0.20812066 -0.114439115 -0.24851634 -0.18891405 -0.091219634
00000000: 38cc bc3b 6346 8d3d be6d d9be 4086 d23e
00000010: 01ff 24bf f1fd 5f3e 607a d63e 68b9 083e
00000020: 1cbf d2bd 22fe 073f 0178 c23e bc70 e3be
00000030: fee0 b33e 58af 173e 1c7e 273f 4890 e9bd
00000040: 961f aa3e 9c70 9d3e 6ec1 c83e 7a96 93bd
00000050: 15c2 07bd 7f17 ddbe b290 24be bec8 a93c
00000060: f815 923e d25e 6f3c 9ed8 fd3d 1268 afbe
00000070: b041 02be 1246 9c3d 1143 c4bd 1847 223e
00000080: 3c5e 5cbe 93f5 403e 28c7 49be 5aef 673e
00000090: 5b2e 623e 0b6a a73e 1a3a f83d 53eb b53e
000000a0: f05b c0bc 14b2 4ebe 9063 0b3e 088a 183e
000000b0: cc43 5c3d de8f b6bd 1f12 f63d 4cbf ba3c
000000c0: a55b bd3d 160f af3d bcd0 ae3c 6818 663d
000000d0: c046 88be 8c90 fcbd 18aa 77bd 7813 9f3c
000000e0: 766c 64be e727 aabd d48e 5ebc 2682 603d
000000f0: cfc3 893b f432 853e 36e5 09bf ac33 973e
00000100: 1e96 33bf 8405 623e 782d a03e 0277 983e
00000110: 6a47 943e 7a58 d83e e45f 2c3f fbf4 2ebf
00000120: 025f 383f 9883 f43d 38a0 2c3f 77ab 853e
00000130: c10b 243f 3c61 0e3f f25e aa3e c0fa 433d
00000140: 6856 3a3e ec2b 02be 179e 49bd a498 4ebe
00000150: b22b 35be d2f8 47be f8a6 833d 9a10 87bd
00000160: f051 afbd caa6 7f3c 885e 0b3d 695b fa3d
00000170: f6a5 ce3d b0df 77be 58f1 893e c8b1 3a3e
00000180: ae18 d03c e93b 183e e665 3a3e 1966 db3d
00000190: a7e4 f4bd fc25 c13c b41d 31be 0289 003d
000001a0: aa98 8fbe 997a 8d3d 1696 9a3d 4d43 d53d
000001b0: b4bd a1bd 5282 b53d 36c9 d4bc d592 923e
000001c0: aadc a9be 1fca a7bd 9104 c4bb 92a3 753d
000001d0: 18aa bb3d 04d8 2b3e 7c90 8abd 8966 52be
000001e0: 9253 1b3d 38d1 35be 820a 333e 5641 e0be
000001f0: 92dd bf3e 68a5 abbd c98d 4fbe f2ea 7ebe
00000200: d7cc 123d 5ae0 59be 87a9 30be 3e13 963e
00000210: 660b 0bbf 4293 4cbc 670b 10bf 6e3d c53d
00000220: 4ec2 c4be 1c50 fabd 3aa6 56be b0bd 883c
00000230: 9cc0 38bd 3759 88bc 59ed d5bd 3046 c63d
00000240: 1a53 743e b50b 8abd cea6 273e bd79 283d
00000250: 1554 80bd 7c19 ccbc 2968 fabb 43db 873e
00000260: 37c5 0bbe b7c1 da3d c13c febe bc1e a93d
00000270: ce07 a4bd d04a e9bb b2b8 ba3e 8805 8d3d
00000280: 181e 633e 308a 59be 52dd a93e 01e7 e13c
00000290: e8bf b83e d072 3ebd 5630 493e 5643 3b3e
000002a0: 0079 793e 37f8 e3bc a0fa 5c3d d8df c5bc
000002b0: a2ec 65be c0ce c33d 587d ce3d e67a 46be
000002c0: 882d 88be 2541 113d 9da1 19be 1003 58ba
000002d0: d7d9 b33b 8a14 16be b19e 093f 1270 acbe
000002e0: 63a8 3c3f ea0e 5abe b451 cdbe b268 e6be
000002f0: 9067 eb3c 9de1 82be 14a1 27bf 78f1 ec3e
00000300: a049 e3be 10a6 c8be a75e 4abf acfb 99bc
00000310: 9017 a1be 94fd e3be 4a5b f6be 5d6d bb3e
00000320: d364 813e 9a0d d23e 020b 4e3d 7e88 98bd
00000330: e9e2 7fbd 2808 433e 8c08 9e3d 0887 b63e
00000340: 68b3 3f3e ace3 123e 9706 52ba 242f 6d3e
00000350: 6760 bebe aa83 453f bc20 82bf a21b de3d
00000360: 5494 113f 926d fe3e d4e3 68bd d9fc 173f
00000370: 1a88 423f 7965 1ebf 1283 7a3f bb73 de3e
00000380: 9f57 963f 3bf4 1fbe a4da 283f ff4e 143f
00000390: 4c27 8b3e 7c71 00be ec39 2b3e d11b b6be
000003a0: 25a4 91be 68cc fe3d 9294 23be 18f3 e6bd
000003b0: 13be 493e a02f 2ebe ad1f d0bd b0be 38bb
000003c0: 96fd 08bd 764e 71be 7541 e53d b693 47be
000003d0: 2e06 d03e 0697 1f3d dfb7 58be 98b6 67bd
000003e0: 18f5 0a3e f456 97be ea01 73be 951d 553e
000003f0: 0e5f eabd 117b 7ebe af72 41be 5cd1 babd

fc1.bias f4 [128]
0.11938016 -0.14190818 -0.18194377 -0.10451621 0.1107862 -0.04086092 -0.028617026 -0.056862526
-0.046500847 -0.123017356 0.08278304 -0.020518582 -0.08054391 -0.10410024 0.081242464 -0.18202516
-0.16296989 -0.17065103 0.037299894 0.13459766 -0.11237865 -0.059377678 -0.12680992 0.11850568
0.11353147 0.17429549 0.07973883 -0.07285709 -0.062430006 0.11555636 -0.004873302 0.03685845
-0.14182508 0.06400786 -0.016880888 -0.088316575 -0.02451491 -0.10855532 -0.13114053 0.05482958
-0.062158138 -0.06177788 -0.16978854 0.05165755 -0.058861613 -0.031130215 0.1348513 -0.12238298
-0.023611879 -0.115704626 -0.15933105 0.15960708 -0.1561343 0.17887382 0.17334574 -0.06014459
0.03862151 -0.04101957 0.08426668 0.16210605 -0.13643831 0.16682728 -0.10434669 0.10447724
0.043027677 0.13955897 -0.040988058 -0.0043696593 0.06279294 -0.059635423 0.14254738 -0.1728519
-0.13526858 -0.02668636 -0.10109823 0.15189663 -0.05721364 -0.044866532 0.08552294 -0.12922174
0.16445902 0.1657775 0.115783125 -0.05457782 -0.04294077 0.12185989 0.15553504 0.13612515
0.1506769 0.08206415 -0.10694593 -0.14321247 0.066565774 -0.18193147 -0.14706002 0.038292225
-0.16345567 -0.093501486 0.17920695 0.11331762 0.14286686 0.15260634 0.17329282 0.15884951
0.1263847 -0.110373914 0.16186535 -0.090930104 0.14801162 0.07489041 0.1603905 -0.09395238
0.120337024 0.0784135 -0.025313497 0.064253375 -0.019695919 0.05494704 0.16020639 0.0035041468
-0.17079182 0.026924621 0.11524493 0.054229565 -0.08883375 -0.12785663 -0.07575469 -0.10061753
00000000: 967d f43d 6150 11be 784f 3abe 980c d6bd
00000010: e0e3 e23d c85d 27bd 416e eabc aee8 68bd
00000020: ac77 3ebd 86f0 fbbd 288a a93d 9616 a8bc
00000030: 35f4 a4bd 8232 d5bd 7362 a63d ce64 3abe
00000040: 94e1 26be 25bf 2ebe c6c7 183d f8d3 093e
00000050: c726 e6bd 0236 73bd 76da 01be 1bb3 f23d
00000060: 3083 e83d 847a 323e 1d4e a33d 1936 95bd
00000070: 9bb6 7fbd d0a8 ec3d 38b0 9fbb e3f8 163d
00000080: 983a 11be 8e16 833d ca49 8abc 52df b4bd
00000090: 7ed3 c8bc 4052 debd b449 06be fb94 603d
000000a0: 8899 7ebd cd0a 7dbd 0cdd 2dbe de96 533d
000000b0: e018 71bd cb04 ffbc 7616 0a3e eea3 fabd
000000c0: b36d c1bc 8cf6 ecbd ae27 23be 0a70 233e
000000d0: ace1 1fbe b32a 373e 8c81 313e 2c5a 76bd
000000e0: 9731 1e3d 2304 28bd 0294 ac3d 21ff 253e
000000f0: 7cb6 0bbe c5d4 2a3e b8b3 d5bd 2af8 d53d
00000100: ca3d 303d 8ce8 0e3e 18e3 27bd 5c2f 8fbb
00000110: 9699 803d 4644 74bd f1f7 113e 1700 31be
00000120: d983 0abe 5a9d dabc 970c cfbd ca8a 1b3e
00000130: da58 6abd f8c5 37bd a726 af3d b452 04be
00000140: f267 283e 94c1 293e b41f ed3d fe8c 5fbd
00000150: a9e2 2fbd ae91 f93d 9444 1f3e 6464 0b3e
00000160: 0c4b 1a3e 4011 a83d 7806 dbbd 4aa6 12be
00000170: a353 883d 3e4c 3abe e796 16be 4fd8 1c3d
00000180: ec60 27be b57d bfbd 0782 373e 1113 e83d
00000190: b14b 123e d644 1c3e ac73 313e 72a9 223e
000001a0: fe6a 013e b80b e2bd 08c0 253e 9039 babd
000001b0: 5c90 173e 2560 993d 683d 243e 1b6a c0bd
000001c0: 4273 f63d 4297 a03d 405e cfbc 4697 833d
000001d0: 5659 a1bc 2610 613d 250d 243e d4a5 653b
000001e0: 0de4 2ebe 0691 dc3c 8905 ec3d d21f 5e3d
000001f0: 78ee b5bd d9ec 02be 4625 9bbd 9010 cebd

bn1.weight f4 [128]
0.9411696 0.95658815 1.006107 0.9701768 0.9389043 0.93671787 0.9699563 1.0689855
0.98393285 0.9562566 1.0326622 0.9623922 0.9572141 0.98933786 0.9847896 1.13148
0.9547856 0.9281406 0.94339484 0.9424504 0.96328145 1.0053257 1.0005703 0.9904119
0.9453387 0.93342656 0.95855904 1.006686 0.9710197 0.9694177 0.9330149 0.99020016
0.971014 0.96505713 1.0222061 0.97170496 0.9612719 0.95099914 0.98748994 0.9311898
0.96157396 0.9664418 0.9770723 0.9572084 0.9463563 0.9667932 0.9504297 0.95237446
0.98669183 0.9695486 0.96079 0.9667336 0.962774 0.9369119 0.9505497 0.95047814
0.94705504 0.9591014 0.96943057 0.9867759 1.1928766 0.9580389 0.9638889 0.92630094
0.92710555 0.9554946 0.9422639 1.0584583 0.9670013 0.9626266 0.94844496 0.9386685
0.98254263 0.93091726 0.95609117 1.0185517 0.97327673 0.9499937 0.9320969 0.95899904
0.9963099 1.023788 0.95377535 1.0218253 0.9851935 0.96847427 0.99618644 0.9406126
1.1206348 0.9986836 0.9599016 0.97578096 0.9886259 0.97859955 0.9845263 0.9678658
0.95858264 0.95033234 0.963119 1.0158205 0.93261397 0.9474523 0.9758596 0.9360477
0.9210547 0.97020817 0.96853703 0.98994094 0.9791481 0.96328413 0.9357616 0.9445417
0.98257935 0.96857786 0.990711 1.0394126 0.9757495 0.9507256 0.9716983 1.0795289
0.96673 1.0106429 0.9632627 0.9324695 0.9699866 1.071744 0.9826541 0.9202774
00000000: 7ef0 703f f6e2 743f 1dc8 803f 825d 783f
00000010: 085c 703f becc 6f3f 0e4f 783f 84d4 883f
00000020: 06e3 7b3f 3ccd 743f 462e 843f 565f 763f
00000030: fc0b 753f 3f45 7d3f 2c1b 7c3f 56d4 903f
00000040: d46c 743f 9f9a 6d3f 5382 713f 6e44 713f
00000050: 9d99 763f 83ae 803f b012 803f a28b 7d3f
00000060: b801 723f 0bf5 6e3f 2064 753f 16db 803f
00000070: bf94 783f c22b 783f 11da 6e3f c27d 7d3f
00000080: 6094 783f fc0d 773f a6d7 823f a8c1 783f
00000090: ea15 763f ae74 733f 24cc 7c3f 7462 6e3f
000000a0: b629 763f bb68 773f 6921 7a3f 9c0b 753f
000000b0: 6844 723f c27f 773f 5c4f 733f d0ce 733f
000000c0: d697 7c3f 5634 783f 55f6 753f da7b 773f
000000d0: 5b78 763f 75d9 6f3f 3a57 733f 8952 733f
000000e0: 3372 723f ab87 753f 9a2c 783f 589d 7c3f
000000f0: 2eb0 983f 0a42 753f 6cc1 763f 0f22 6d3f
00000100: ca56 6d3f 4b9b 743f 3538 713f 907b 873f
00000110: 668d 773f b26e 763f 4acd 723f 944c 703f
00000120: ea87 7b3f 9850 6e3f 64c2 743f e75f 823f
00000130: aa28 793f ca32 733f e79d 6e3f f680 753f
00000140: 2a0e 7f3f 7c0b 833f 9f2a 743f 2ccb 823f
00000150: a435 7c3f eeed 773f 1306 7f3f fdcb 703f
00000160: f670 8f3f baa9 7f3f 1cbc 753f c8cc 793f
00000170: 9616 7d3f 8085 7a3f ea09 7c3f 0ec6 773f
00000180: ac65 753f fb48 733f f78e 763f 6806 823f
00000190: cabf 6e3f 3c8c 723f efd1 793f d2a0 6f3f
000001a0: 3eca 6b3f 905f 783f 0bf2 773f c56c 7d3f
000001b0: 73a9 7a3f ca99 763f 128e 6f3f 7ccd 713f
000001c0: 528a 7b3f b8f4 773f 3c9f 7d3f 790b 853f
000001d0: b8ca 793f c162 733f 38c1 783f 012e 8a3f
000001e0: 9e7b 773f bf5c 813f 6298 763f 52b6 6e3f
000001f0: 0b51 783f e82e 893f 388f 7b3f 4d97 6b3f

bn1.bias f4 [128]
-0.06891848 -0.05258664 -0.117464475 -0.01986246 -0.05336894 -0.017175594 -0.08033155 -0.09981209
-0.06479767 -0.043620516 -0.018050855 -0.054528005 -0.035809472 -0.04348574 -0.038784996 -0.028929345
-0.047114864 -0.05019178 -0.033516433 -0.05677899 -0.026913917 -0.08562208 -0.10479531 -0.01989764
-0.06593016 -0.041982006 -0.03255393 -0.017876156 -0.041734472 -0.051695265 -0.051936317 -0.13103929
-0.049479626 -0.015208166 0.017640248 -0.09227819 -0.021571476 -0.015957355 0.020298071 -0.07252714
-0.040459093 -0.01444946 0.018601563 -0.013329699 -0.019625992 -0.060810897 -0.07177204 0.0032864711
-0.08514439 -0.061040565 -0.06515606 -0.018633898 -0.040583447 -0.062635496 -0.0427014 -0.04008678
-0.042563416 -0.023069393 -0.026326928 -0.02913993 0.062111784 -0.07495678 -0.08442134 -0.08346993
-0.06365108 -0.0005257204 -0.08502698 -0.110239655 -0.07284514 -0.03513743 -0.107449144 -0.0455926
-0.0033429656 -0.046405517 -0.060944617 -0.016597694 -0.030840263 -0.07358994 -0.09328814 -0.024493905
-0.022857342 -0.012396004 -0.05920647 -0.1047177 -0.045585006 -0.09955682 -0.013706373 -0.04535582
-0.022390265 -0.029551573 -0.09656699 -0.03661164 -0.028057622 -0.00026466843 -0.07346989 -0.026061835
-0.068496235 -0.06854778 -0.08554288 -0.0575102 -0.026606068 -0.1176125 -0.02667078 -0.0670152
-0.07948157 -0.06774853 -0.057285294 -0.009438088 -0.037823327 -0.07268903 -0.094750255 -0.09285571
-0.0758489 -0.06998329 -0.07498017 -0.0710403 -0.016063262 -0.05961128 -0.0024746298 0.0136165805
-0.05949754 -0.012292016 -0.00047319918 -0.05130586 -0.058544848 -0.0374803 -0.006517944 -0.079406075
00000000: 2225 8dbd 1765 57bd 3791 f0bd 99b6 a2bc
00000010: 6499 5abd d5b3 8cbc de84 a4bd 486a ccbd
00000020: a4b4 84bd 6dab 32bd 63df 93bc c258 5fbd
00000030: f4ac 12bd 1a1e 32bd 04dd 1ebd 3cfd ecbc
00000040: 84fb 40bd e595 4dbd 8748 09bd 1691 68bd
00000050: 937a dcbc a15a afbd ec9e d6bd 6000 a3bc
00000060: 6406 87bd 53f5 2bbd 4557 05bd 0471 92bc
00000070: c4f1 2abd 6abe 53bd 2dbb 54bd 2a2f 06be
00000080: 26ab 4abd ac2b 79bc 4882 903c 59fc bcbd
00000090: aab6 b0bc 00b9 82bc 2448 a63c 1c89 94bd
000000a0: 6fb8 25bd 6ebd 6cbc 4e62 983c cf64 5abc
000000b0: b0c6 a0bc d914 79bd 38fd 92bd d661 573b
000000c0: 2f60 aebd ac05 7abd 8a70 85bd 1ea6 98bc
000000d0: d43a 26bd 0a47 80bd aae7 2ebd 0932 24bd
000000e0: fa56 2ebd 06fc bcbc 92ab d7bc ddb6 eebc
000000f0: ed68 7e3d f182 99bd 18e5 acbd 48f2 aabd
00000100: 7f5b 82bd 80d0 09ba a022 aebd 54c5 e1bd
00000110: d52f 95bd 44ec 0fbd 4c0e dcbd 4ebf 3abd
00000120: a815 5bbb b613 3ebd 10a1 79bd e3f7 87bc
00000130: b8a4 fcbc 53b6 96bd da0d bfbd 71a7 c8bc
00000140: 523f bbbc 9c18 4bbc 7c82 72bd 3c76 d6bd
00000150: 58b7 3abd 72e4 cbbd b290 60bc 06c7 39bd
00000160: ca6b b7bc 2416 f2bc eac4 c5bd 16f6 15bd
00000170: 19d9 e5bc 32c3 8ab9 6277 96bd a17f d5bc
00000180: c147 8cbd c762 8cbd 1b31 afbd d18f 6bbd
00000190: f8f4 d9bc d3de f0bd ae7c dabc 443f 89bd
000001a0: 3cc7 a2bd bebf 8abd fca3 6abd 36a2 1abc
000001b0: a2ec 1abd fcdd 94bd 6c0c c2bd 222b bebd
000001c0: ab56 9bbd 6653 8fbd 348f 99bd 947d 91bd
000001d0: 1a97 83bc f52a 74bd 662d 22bb 1418 5f3c
000001e0: b1b3 73bd 7464 49bc b817 f8b9 1826 52bd
000001f0: b9cc 6fbd f184 19bd 7a94 d5bb a79f a2bd

bn1.running_mean f4 [128]
525.9077 -8792.961 379.4691 3152.7986 3506.7136 -700.37463 530.77545 -92.96959
-2984.9473 2.556305 77.78102 -240.1096 -1132.2935 2585.6628 -4916.651 -118.33887
2504.163 -547.0506 -12931.348 -11837.481 3961.7693 54.481873 85.65521 5703.552
4269.1475 -2518.933 4349.702 4453.4346 -15.190277 -641.9458 -632.5362 -0.45589447
-821.3544 -3291.8137 -10228.669 450.9359 -1171.5565 -12043.867 -7441.984 -240.81993
1383.9017 -10764.746 16310.141 -19667.31 -3345.0942 182.34888 -562.08386 5112.2207
-75.06464 -508.44897 -296.19113 -498.01135 -7.447983 11201.986 -7052.2197 -9726.869
-2044.5571 -6326.505 6998.8545 4326.264 -7.413416 632.2991 175.61972 -151.099
-2420.4224 -12250.369 -47.958008 120.58422 329.03024 -493.5675 -534.4389 -12446.316
1399.7275 -196.8931 54.686676 195.60252 714.83606 3735.3901 -425.43848 -2275.4138
-275.72476 129.49396 -6895.1577 -231.00284 -597.676 113.64255 8056.944 6143.5073
-16.998983 4329.4355 -46.79602 5970.2876 -395.8059 1110.4198 436.62213 298.61987
225.17441 4452.156 36.612335 6957.44 -3153.5293 -330.1261 -5578.911 5389.4146
201.24205 -1016.5798 -15965.078 -7582.7983 -51.334923 -381.6494 674.39667 298.42896
472.97137 -107.11243 433.15637 -241.28444 -7540.826 11795.191 -10368.1875 -269.26346
-58.205475 8547.298 -16507.344 5658.201 440.09924 1.9550033 -10981.502 -11161.045
00000000: 187a 0344 d863 09c6 0bbc bd43 c70c 4545
00000010: 6b2b 5b45 fa17 2fc4 a1b1 0444 6ef0 b9c2
00000020: 288f 3ac5 809a 2340 e28f 9b42 0f1c 70c3
00000030: 6489 8dc4 9b9a 2145 35a5 99c5 80ad ecc2
00000040: 9c82 1c45 3dc3 08c4 640d 4ac6 edf5 38c6
00000050: 4f9c 7745 70ed 5942 784f ab42 6a3c b245
00000060: 2e69 8545 ee6e 1dc5 9eed 8745 7a2b 8b45
00000070: 600b 73c1 887c 20c4 5122 1ec4 006b e9be
00000080: ae56 4dc4 05bd 4dc5 add2 1fc6 cc77 e143
00000090: cf71 92c4 782f 3cc6 df8f e8c5 e7d1 70c3
000000a0: dbfc ac44 fc32 28c6 90d8 7e46 9fa6 99c6
000000b0: 8211 51c5 5059 3643 5e85 0cc4 c4c1 9f45
000000c0: 1821 96c2 7839 fec3 7718 94c3 7401 f9c3
000000d0: e055 eec0 f207 2f46 c261 dcc5 7afb 17c6
000000e0: d491 ffc4 0ab4 c5c5 d6b6 da45 1d32 8745
000000f0: b43a edc0 2413 1e44 a69e 2f43 5819 17c3
00000100: c246 17c5 7a69 3fc6 00d5 3fc2 1f2b f142
00000110: df83 a443 a4c8 f6c3 179c 05c4 4479 42c6
00000120: 48f7 ae44 a2e4 44c3 28bf 5a42 3f9a 4343
00000130: 82b5 3244 3e76 6945 20b8 d4c3 9f36 0ec5
00000140: c5dc 89c3 747e 0143 4379 d7c5 ba00 67c3
00000150: 446b 15c4 fc48 e342 8dc7 fb45 0ffc bf45
00000160: ebfd 87c1 7c4b 8745 202f 3bc2 4d92 ba45
00000170: 28e7 c5c3 6fcd 8a44 a24f da43 584f 9543
00000180: a62c 6143 3f21 8b45 0873 1242 856b d945
00000190: 7818 45c5 2410 a5c3 4a57 aec5 516b a845
000001a0: f73d 4943 1b25 7ec4 5074 79c6 63f6 ecc5
000001b0: f656 4dc2 20d3 bec3 6399 2844 e836 9543
000001c0: 567c ec43 9039 d6c2 0494 d843 d148 71c3
000001d0: 9ca6 ebc5 c44c 3846 c000 22c6 b9a1 86c3
000001e0: 68d2 68c2 318d 0546 b0f6 80c6 9cd1 b045
000001f0: b40c dc43 8c3d fa3f 0296 2bc6 2e64 2ec6

bn1.running_var f4 [128]
106304.55 2.3974552e+07 80134.71 4.037605e+06 5.530312e+06 139370.12 124570.23 5683.115
4.8351915e+06 35382.33 5719.7476 68135.11 1.3322648e+06 4.122234e+06 1.3821683e+07 6563.9307
5.8791295e+06 107313.66 4.742908e+07 4.8346376e+07 8.123942e+06 21853.004 5080.6523 1.4368883e+07
8.2610945e+06 4.203716e+06 8.393606e+06 9.554918e+06 117219.734 119539.07 111088.055 1301.8894
824972.9 4.9689295e+06 2.981376e+07 68174.73 417363.4 4.070129e+07 1.7220578e+07 42768.914
1.8287296e+06 3.2629544e+07 7.654253e+07 1.08929224e+08 4.454686e+06 51348.246 95284.26 1.575605e+07
7254.384 73556.25 40943.027 101608.35 33182.902 3.5466e+07 3.0435764e+07 3.3632336e+07
3.04404e+06 1.2480172e+07 2.949914e+07 8.608532e+06 334.27008 123987.24 71957.52 172495.86
2.1118528e+06 4.2423452e+07 55272.586 9730.326 60963.684 80274.88 85393.82 5.0840676e+07
630991.4 129910.34 134488.56 17827.621 151425.75 1.0826637e+07 62574.83 3.3218265e+06
147803.48 9088.21 2.398173e+07 16641.018 171328.92 27562.348 3.23264e+07 2.5537508e+07
310.15417 5.390029e+06 91756.7 2.1885278e+07 57118.062 1.5452052e+06 155270.83 28231.348
18923.91 1.7107202e+07 14947.203 2.6879516e+07 3.3749928e+06 28641.074 1.84909e+07 9.773894e+06
106717.23 413316.88 8.074664e+07 2.5189696e+07 25275.352 140525.77 166735.61 23984.176
63403.258 80843.5 93827.37 24942.637 1.7723772e+07 3.9451804e+07 3.0652136e+07 36755.48
131015.17 2.1801304e+07 7.864424e+07 1.5218107e+07 54391.695 396.9624 3.6245836e+07 4.6057452e+07
00000000: 46a0 cf47 4ce9 b64b 5b83 9c47 946f 764a
00000010: 90c5 a84a 881a 0848 1d4d f347 ec98 b145
00000020: ef8e 934a 5436 0a47 fbbd b245 8e13 8547
00000030: 46a1 a249 e899 7b4a f3e6 524b 721f cd45
00000040: b36a b34a d498 d147 76ed 344c 426d 384c
00000050: 4cec f74a 02ba aa46 38c5 9e45 7340 5b4b
00000060: cd1b fc4a 8849 804a 8613 004b e6cb 114b
00000070: def1 e447 8979 e947 07f8 d847 76bc a244
00000080: ce68 4949 c3a3 974a 0076 e34b 5d27 8547
00000090: 6dca cb48 5a43 1b4c f161 834b ea10 2747
000000a0: cd3b df49 94f1 f84b 48fe 914c 19c4 cf4c
000000b0: 3cf2 874a 3f94 4847 211a ba47 126b 704b
000000c0: 12b3 e245 20aa 8f47 07ef 1f47 2d74 c647
000000d0: e79e 0147 c44a 074c da34 e84b 144c 004c
000000e0: 20cb 394a ac6e 3e4b 820f e14b 145b 034b
000000f0: 9222 a743 9f29 f247 c38a 8c47 f773 2848
00000100: b3e5 004a 27d5 214c 96e8 5747 4e09 1846
00000110: af23 6e47 71c9 9c47 e9c8 a647 19f1 414c
00000120: f60c 1a49 2cbb fd47 2456 0348 3e47 8b46
00000130: 70e0 1348 8d33 254b d46e 7447 8abf 4a4a
00000140: df56 1048 d700 0e46 51f7 b64b 0902 8246
00000150: 3b50 2748 b254 d746 80a1 f64b f2d5 c24b
00000160: bc13 9b43 9a7d a44a 5a36 b347 aff8 a64b
00000170: 101e 5f47 aa9f bc49 b5a1 1748 b28e dc46
00000180: d2d7 9346 8184 824b d08c 6946 0e13 cd4b
00000190: 43fe 4d4a 26c2 df46 0a13 8d4b 4623 154b
000001a0: 9d6e d047 9cd0 c948 1203 9a4c a02e c04b
000001b0: b476 c546 713b 0948 e7d3 2248 5a60 bb46
000001c0: 42ab 7747 c0e5 9d47 af41 b747 46dd c246
000001d0: be38 874b 277f 164c 74db e94b 7b93 0f47
000001e0: 96e3 ff47 ac54 a64b 8200 964c bb35 684b
000001f0: b277 5447 307b c643 5344 0a4c fbb1 2f4c

bn1.num_batches_tracked f8 []
4900.0
00000000: 0000 0000 0024 b340

fc2.weight f4 [64, 128]
0.012477706 -0.06644447 -0.087225676 -0.05728886 0.04949876 0.0015019486 0.076856375 0.009742174
0.00986777 0.012163758 0.08199838 -0.02819988 0.019733027 0.047797408 0.039528105 -0.06652881
-0.08262758 -0.040233918 -0.018746503 0.00800692 -0.071957044 -0.029014079 0.041894022 -0.021352325
-0.082640916 -0.08345326 -0.07136497 0.028373484 0.0002664641 0.09104961 0.06819627 -0.037876405
-0.05137016 -0.0062378016 -0.07039979 0.050977696 -0.004129664 -0.010741132 0.0020908148 -0.05254776
0.03799784 -0.07388129 -0.03810308 -0.00038449466 0.03442218 0.0578634 -0.019333852 0.05899915
-0.08914031 0.053172447 0.07150342 0.046524554 0.009199116 0.052633524 -0.055845946 -0.019968584
-0.036134936 -0.017074876 -0.113995545 0.025665034 0.026399082 -0.017555699 -0.010668405 0.041690484
0.015687127 -0.068633616 0.019904505 -0.06218225 -0.06708067 -0.049221274 -0.09526642 0.009716861
-0.0018475009 0.057803076 -0.07309945 0.05268012 0.05195441 -0.07900463 -0.021627478 -0.026274836
-0.087875664 -0.049506485 -0.002541036 -0.08919874 0.0045575504 0.016212841 -0.05962635 -0.10972893
-0.009864074 -0.02717257 -0.024747107 -0.09775597 -0.07745486 0.033462442 -0.038820565 -0.022907369
-0.042431504 -0.1059099 0.024622642 -0.11524196 0.073357075 -0.02161549 -0.010996891 0.0017419456
-0.10454996 0.042048372 -0.034140572 -0.033666205 0.029648002 -0.12514931 0.01709979 -0.022834165
-0.018506832 0.034796864 -0.10276227 0.08751121 0.07541773 -0.02516171 -0.03507056 -0.00033015665
0.026021542 0.035582162 0.015752306 0.018791286 -0.04499816 0.057285972 0.03412281 -0.014975714
0.0089852875 0.03530254 -0.08072899 -0.08042815 -0.0015754331 -0.043824848 -0.06596163 -0.11616203
-0.049887616 -0.06656729 0.04829015 0.084530726 -0.015631974 0.04548161 0.021969818 -0.1118878
-0.028074402 0.02929462 -0.047426086 -0.044469144 0.0055520358 -0.057911288 -0.08123953 -0.064758554
-0.03998004 0.018259581 -0.044168524 0.033298016 0.013889413 0.07066434 -0.032525733 -0.09113674
-0.03910415 0.009163098 -0.06431989 -0.051605828 -0.07443215 0.056163788 -0.043700375 0.04161974
-0.043937054 -0.0046109455 -0.08359332 -0.040620245 0.085611746 -0.0520496 -0.020324266 -0.100177675
-0.04167457 0.035123613 -0.04138079 -0.01220386 0.023123749 -0.09124844 -0.02617317 -0.00218488
0.09436459 -0.07112154 -0.058266476 0.060181774 -0.07708854 -0.027751751 0.084496036 -0.00067701354
0.09319095 0.02704495 0.002861458 -0.11440992 0.017561682 0.005768006 -0.05719699 -0.06319189
-0.02399945 0.07873806 -0.060804125 -0.055707417 -0.007511341 -0.028468776 0.08174335 0.021352416
-0.086516425 -0.03712789 -0.008866048 -0.014707617 -0.06580609 -0.0023215988 -0.090882346 -0.06904246
-0.07603747 -0.025601901 0.060714394 0.05109188 0.00899952 0.06923503 -0.040013 0.023391599
-0.08039309 0.06727636 -0.014226257 -0.1031951 0.055322222 0.042108357 0.045696214 -0.085960925
-0.05262141 0.06914461 0.05720236 -0.057278506 0.046174813 -0.0067417077 -0.05691549 -0.094974026
-0.0013985857 0.010308304 -0.015934175 -0.05541326 0.05610597 0.058697138 -0.051274836 -0.0713849
0.06924714 -0.07858792 -0.043756872 0.022462185 0.013131249 0.008292244 -0.030001555 -0.030198982
00000000: 4b6f 4c3c 0a14 88bd 60a3 b2bd b9a7 6abd
00000010: 36bf 4a3d 08dd c43a e066 9d3d a49d 1f3c
00000020: 6dac 213c 804a 473c c4ee a73d 6f03 e7bc
00000030: 28a7 a13c 37c7 433d 39e8 213d 4240 88bd
00000040: a638 a9bd 52cc 24bd 4492 99bc 752f 033c
00000050: 375e 93bd efae edbc 1199 2b3d 12eb aebc
00000060: a43f a9bd 8be9 aabd cc27 92bd 826f e83c
00000070: 35b4 8b39 3878 ba3d 7caa 8b3d 4a24 1bbd
00000080: 8469 52bd 7966 ccbb c42d 90bd fdcd 503d
00000090: 2252 87bb 93fb 2fbc 0d06 093b 523c 57bd
000000a0: a0a3 1b3d 134f 97bd fa11 1cbd 0096 c9b9
000000b0: 46fe 0c3d 2c02 6d3d 0762 9ebc 18a9 713d
000000c0: 328f b6bd 5acb 593d 6370 923d 8890 3e3d
000000d0: e4b7 163c 4096 573d b8be 64bd 2895 a3bc
000000e0: 3a02 14bd 9ce0 8bbc 7f76 e9bd 7a3f d23c
000000f0: e342 d83c f8d0 8fbc 89ca 2ebc a4c3 2a3d
00000100: 4a82 803c c88f 8cbd c60e a33c d1b2 7ebd
00000110: 9761 89bd 3f9c 49bd 0a1b c3bd 7833 1f3c
00000120: d827 f2ba ebc2 6c3d 2ab5 95bd 1cc7 573d
00000130: 26ce 543d 2ecd a1bd 1c2c b1bc 533e d7bc
00000140: 28f8 b3bd 50c7 4abd 8387 26bb d4ad b6bd
00000150: 8157 953b cbd0 843c c23a 74bd 90b9 e0bd
00000160: ed9c 21bc 0299 debc 72ba cabc 4834 c8bd
00000170: a7a0 9ebd ea0f 093d 5002 1fbd 3ca8 bbbc
00000180: a8cc 2dbd 4ae7 d8bd 6cb5 c93c fa03 ecbd
00000190: 3c3c 963d f812 b1bc 4e2c 34bc ff51 e43a
000001a0: 4a1e d6bd ea3a 2c3d fcd6 0bbd 93e5 09bd
000001b0: 5ee0 f23c 2427 00be dc14 8c3c b70e bbbc
000001c0: a49b 97bc 2887 0e3d 0675 d2bd 1439 b33d
000001d0: 9c74 9a3d ee1f cebc 26a6 0fbd e018 adb9
000001e0: 212b d53c 9abe 113d fb0a 813c 2ff0 993c
000001f0: fe4f 38bd b2a4 6a3d 5cc4 0b3d b25c 75bc
00000200: 0737 133c 6599 103d 3e55 a5bd 84b7 a4bd
00000210: c37e ceba af81 33bd e416 87bd 5ce6 edbd
00000220: f556 4cbd 6e54 88bd e4cb 453d 721e ad3d
00000230: a00e 80bc ed4a 3a3d 0cfa b33c 6e25 e5bd
00000240: 4afc e5bc 45fb ef3c db41 42bd 4725 36bd
00000250: daed b53b 6334 6dbd e960 a6bd 22a0 84bd
00000260: 1cc2 23bd 1e95 953c 0eea 34bd 8063 083d
00000270: 6c90 633c 77b8 903d b439 05bd e6a5 babd
00000280: ac2b 20bd d220 163c 26ba 83bd a260 53bd
00000290: e26f 98bd 000c 663d 2aff 32bd 7679 2a3d
000002a0: 57f7 33bd 6a17 97bb f932 abbd 6a61 26bd
000002b0: 3655 af3d f631 55bd 137f a6bc f429 cdbd
000002c0: f4b2 2abd c7dd 0f3d e77e 29bd b3f2 47bc
000002d0: 046e bd3c 76e0 babd 1e69 d6bc 3430 0fbb
000002e0: 3942 c13d 2ca8 91bd d4a8 6ebd 2a81 763d
000002f0: 99e0 9dbd a457 e3bc 420c ad3d 9c79 31ba
00000300: e6da be3d 5f8d dd3c 4d87 3b3b c04f eabd
00000310: 84dd 8f3c 8b01 bd3b 6447 6abd c06a 81bd
00000320: 7f9a c4bc 6c41 a13d bf0d 79bd 762d 64bd
00000330: b221 f6bb 5a37 e9bc 0f69 a73d 43eb ae3c
00000340: 862f b1bd 6a13 18bd e742 11bc 38f8 70bc
00000350: 58c5 86bd f725 18bb 8620 babd 2266 8dbd
00000360: 88b9 9bbd 14bb d1bc a8af 783d b845 513d
00000370: b972 133c 18cb 8d3d ace4 23bd bd9f bf3c
00000380: 22a5 a4bd 30c8 893d 3f15 69bc f457 d3bd
00000390: 8e99 623d d079 2c3d f42b 3b3d 480c b0bd
000003a0: 8c89 57bd b09b 8d3d 064d 6a3d de9c 6abd
000003b0: cd21 3d3d 8be9 dcbb 3820 69bd be81 c2bd
000003c0: c050 b7ba 29e4 283c 6388 82bc 04f9 62bd
000003d0: 60cf 653d 696c 703d 9005 52bd 3f32 92bd
000003e0: 72d1 8d3d b4f2 a0bd 683a 33bd 9e02 b83c
000003f0: 7324 573c 31dc 073c d2c5 f5bc db63 f7bc

fc2.bias f4 [64]
-0.042366542 0.018090636 -0.07357928 0.040706087 -0.06066239 0.08659087 -0.07605011 0.034393
-0.030149426 -0.052338094 0.01049532 -0.08606156 -0.020370793 -0.07830419 0.021669889 0.07169693
0.027359648 -0.017570816 -0.04513082 -0.022826688 0.0062777274 -0.044590607 -0.07608773 0.040302493
0.055338085 -0.037874814 -0.030940969 0.07445089 -0.007643178 0.0119310655 0.0777684 0.07483593
0.062612966 -0.048465054 0.08564429 -0.019277338 -0.08069275 0.085318 0.0381933 -0.025989722
0.064416215 0.060268078 0.07527343 0.02602103 0.026758302 -0.023843683 0.06856257 -0.013759212
0.039215915 0.0244807 -0.00067905965 0.005794316 0.04173559 -0.053146757 0.0027218747 -0.0322824
-0.074948885 0.0005620009 -0.08134795 -0.048374753 0.048787676 0.08321147 -0.0201443 -0.035662044
00000000: 8a88 2dbd d032 943c bcb0 96bd 6dbb 263d
00000010: 2079 78bd 8e56 b13d 29c0 9bbd addf 0c3d
00000020: eefb f6bc 7860 56bd 90f4 2b3c 0b41 b0bd
00000030: a6e0 a6bc f25d a0bd 0d85 b13c d7d5 923d
00000040: 5721 e03c acf0 8fbc 18db 38bd 09ff babc
00000050: 65b5 cd3b a4a4 36bd e2d3 9bbd 3a14 253d
00000060: 30aa 623d 9f22 1bbd ea77 fdbc b579 983d
00000070: a073 fabb 847a 433c 0a45 9f3d 9443 993d
00000080: 3a3b 803d 4b83 46bd 4666 af3d 82eb 9dbc
00000090: 3e42 a5bd 34bb ae3d 9470 1c3d 66e8 d4bc
000000a0: a6ec 833d a9db 763d f528 9a3d 0e2a d53c
000000b0: 3a34 db3c d453 c3bc 886a 8c3d 516e 61bc
000000c0: dea0 203d c08b c83c ec02 32ba 3fde bd3b
000000d0: f0f2 2a3d 6ab0 59bd 7b61 323b 8d3a 04bd
000000e0: cd7e 99bd 3e53 133a c199 a6bd 9b24 46bd
000000f0: 96d5 473d c66a aa3d a905 a5bc 5d12 12bd

bn2.weight f4 [64]
0.96239287 0.9876473 0.9545338 0.9356677 0.96967936 1.018086 1.0072953 1.0667547
0.9691858 1.0356717 0.94810784 0.9887779 0.9954497 0.9777013 0.99187136 0.9655778
1.0207381 0.9872314 1.0108414 1.0453389 0.97781307 1.0431349 0.9687768 1.0200858
0.99337256 0.9736331 1.0215471 1.0062597 0.9498259 0.9599122 0.97237766 0.96023214
0.99130625 0.9405532 1.0042409 0.96946394 0.97080183 0.955474 0.98754525 0.9972313
0.9983661 0.9821388 1.0169472 0.9669874 0.97409254 1.0120244 1.071567 1.0379899
1.005451 0.973636 0.9958363 0.99401927 0.9951699 1.0020841 1.0020504 0.9946004
0.9742498 0.9809929 0.99755406 0.95165914 1.014766 1.1041635 1.0063908 0.9593557
00000000: 615f 763f 74d6 7c3f 545c 743f eb87 6f3f
00000010: e83c 783f a450 823f 0def 803f 6b8b 883f
00000020: 901c 783f e490 843f 32b7 723f 8c20 7d3f
00000030: cbd5 7e3f a24a 7a3f 48eb 7d3f 1b30 773f
00000040: 8ca7 823f 32bb 7c3f 4063 813f aacd 853f
00000050: f551 7a3f 7285 853f c201 783f 2c92 823f
00000060: aa4d 7e3f 0540 793f 0ec2 823f 1ecd 803f
00000070: ca27 733f cebc 753f beed 783f c6d1 753f
00000080: 3fc6 7d3f 18c8 703f f78a 803f ca2e 783f
00000090: 7886 783f f299 743f c4cf 7c3f 8d4a 7f3f
000000a0: ec94 7f3f 736d 7b3f 532b 823f 7c8c 773f
000000b0: 215e 793f 048a 813f 1c29 893f dadc 843f
000000c0: 9eb2 803f 3540 793f 21ef 7e3f 0c78 7e3f
000000d0: 74c3 7e3f 4b44 803f 3043 803f 229e 7e3f
000000e0: 6f68 793f 5a22 7b3f b45f 7f3f ef9f 733f
000000f0: dae3 813f 3b55 8d3f 6ad1 803f 5698 753f

bn2.bias f4 [64]
-0.0069600893 -0.061791733 -0.0129318 -0.0058684014 -0.054908857 0.05474232 0.033766117 0.05313514
-0.016846027 0.00446344 -0.06521874 -0.011003459 -0.0064453906 -0.028914247 0.012020455 -0.016986297
0.01073225 -0.022651467 0.015514895 0.02844499 -0.02217618 -0.0035069813 -0.022078596 -0.017775271
0.02810938 0.0022428408 0.010679293 -0.0005043489 -0.031737663 -0.011147648 -0.020862259 -0.014122855
0.016237916 0.009415324 0.0065585235 0.0020703906 -0.007958993 -0.035990667 -0.008961118 0.0083151795
-0.005423878 -0.016366292 -0.0012234771 0.015023548 -0.027686143 0.01579981 0.015079253 0.030619165
0.03214924 -0.060501475 -0.015274249 -0.042437967 0.0013841577 0.0076628625 -0.01769416 -0.0045746667
-0.00046046544 -0.031720005 0.00044804858 -0.03746745 0.0015261546 0.0187556 -0.0003216914 -0.017000085
00000000: 7611 e4bb 5419 7dbd e7df 53bc b84b c0bb
00000010: 1ce8 60bd 7c39 603d 574e 0a3d 3ca4 593d
00000020: ae00 8abc 0c42 923b 6791 85bd da47 34bc
00000030: db33 d3bb 92dd ecbc 71f1 443c d926 8bbc
00000040: 52d6 2f3c 928f b9bc 3032 7e3c 7805 e93c
00000050: d2aa b5bc 62d5 65bb 2cde b4bc 729d 91bc
00000060: a445 e63c a0fc 123b 34f8 2e3c 4836 04ba
00000070: 5aff 01bd a0a4 36bc 54e7 aabc 8c63 67bc
00000080: 6105 853c bb42 1a3c e2e8 d63b 64af 073b
00000090: 7066 02bc f36a 13bd a7d1 12bc 643c 083c
000000a0: c9ba b1bb 9a12 86bc 145d a0ba 5425 763c
000000b0: 0dce e2bc 9a6e 813c f90e 773c 0bd5 fa3c
000000c0: ecae 033d 65d0 77bd d840 7abc 6fd3 2dbd
000000d0: a06c b53a c018 fb3b 58f3 90bc 16e7 95bb
000000e0: a06a f1b9 d6ec 01bd 10e8 ea39 7877 19bd
000000f0: 4009 c83a 58a5 993c b0a8 a8b9 c343 8bbc

bn2.running_mean f4 [64]
-0.6951965 -0.7866541 0.120451786 0.39591798 0.3981791 -0.8344625 -0.99399257 -0.06192545
-0.64096 0.15637916 0.5999101 -0.3112929 0.28365827 0.16285844 -0.11743162 -0.11827829
0.19971633 0.63685846 -1.0207865 -0.28083825 0.90302324 0.01166977 -0.38380677 0.14941892
-0.9712756 -0.40292102 -0.34827906 -0.15615943 0.077200636 -0.82081974 -0.2545835 0.15753402
0.004507033 -0.82406485 0.17262426 -0.74544096 -0.14501172 0.36526674 0.39539963 -0.6092578
0.17875266 0.036204398 0.45924115 -1.0429587 0.42225364 -0.4618997 0.027049474 -0.11908892
-0.24658592 0.04538173 -0.17937292 -0.25398645 -0.30170903 -0.17374054 0.25599727 0.3255896
-0.7920665 0.24417147 -0.18457831 -0.5346669 -0.50940424 0.019864822 -0.42905855 0.7685275
00000000: 66f8 31bf 2a62 49bf 6daf f63d c3b5 ca3e
00000010: 22de cb3e 569f 55bf 4c76 7ebf 8aa5 7dbd
00000020: f415 24bf dc21 203e b593 193f c861 9fbe
00000030: a83b 913e 5dc4 263e fd7f f0bd e33b f2bd
00000040: 7082 4c3e 2809 233f 22a9 82bf 08ca 8fbe
00000050: 882c 673f 9032 3f3c 5282 c4be 4601 193e
00000060: 85a5 78bf aa4b cebe a251 b2be 42e8 1fbe
00000070: 5e1b 9e3d 3e21 52bf c558 82be 9950 213e
00000080: bcaf 933b eaf5 52bf 6ac4 303e 38d5 3ebf
00000090: f47d 14be 3e04 bb3e d271 ca3e 52f8 1bbf
000000a0: f00a 373e 104b 143d a821 eb3e ac7f 85bf
000000b0: a131 d83e 1e7e ecbe dc96 dd3c e4e4 f3bd
000000c0: 0581 7cbe 31e2 393d 89ad 37be 830a 82be
000000d0: 9b79 9abe 0ae9 31be 1312 833e aeb3 a63e
000000e0: dfc4 4abf 1608 7a3e 1902 3dbe eedf 08bf
000000f0: 5168 02bf 8dbb a23c 90ad dbbe 38be 443f

bn2.running_var f4 [64]
0.38538882 0.4103456 0.22464919 0.49693578 0.35230318 1.5326703 1.2336196 0.4578364
0.7468754 0.29612803 0.41675422 0.7056353 0.31867427 0.4222132 0.42653 0.57009244
0.43332708 0.49188012 1.4581951 0.42607757 0.3909133 0.58862084 0.46111757 0.5068433
1.0022659 0.84977496 0.56263876 0.8497764 0.76630497 0.621133 0.72912204 0.7361634
0.5294287 0.5977227 0.33289763 0.8941544 0.6798098 0.7142894 0.6403091 0.49483615
0.38570037 0.53786385 0.44059074 1.4261769 0.30859426 0.3936856 0.4215176 0.43214735
0.54406226 0.55941933 0.74022937 0.83833635 0.50948423 0.30175433 0.44683245 0.37368608
0.4506356 0.5063058 0.45413506 1.1412079 0.50448346 0.48893768 0.7044575 0.383668
00000000: af51 c53e d218 d23e 700a 663e 5e6e fe3e
00000010: 1561 b43e 8a2e c43f 3fe7 9d3f 8869 ea3e
00000020: 3a33 3f3f 189e 973e cf60 d53e 84a4 343f
00000030: 4629 a33e 542c d83e 2462 da3e 94f1 113f
00000040: 0cdd dd3e b6d7 fb3e 23a6 ba3f d726 da3e
00000050: ca25 c83e dbaf 163f 9a17 ec3e 7cc0 013f
00000060: 404a 803f da8a 593f 1809 103f f28a 593f
00000070: 902c 443f 9302 1f3f bea7 3a3f 3475 3c3f
00000080: a488 073f 5b04 193f 8f71 aa3e 4ee7 643f
00000090: 0408 2e3f acdb 363f 4ceb 233f 2a5b fd3e
000000a0: 857a c53e 72b1 093f 1c95 e13e f78c b63f
000000b0: 1100 9e3e 2991 c93e 28d1 d73e 6b42 dd3e
000000c0: aa47 0b3f 1b36 0f3f ac7f 3d3f 369d 563f
000000d0: 8f6d 023f 8b7f 9a3e 39c7 e43e c853 bf3e
000000e0: b6b9 e63e 429d 013f 6484 e83e 1a13 923f
000000f0: d425 013f 0a56 fa3e 5457 343f 2270 c43e

bn2.num_batches_tracked f8 []
4900.0
00000000: 0000 0000 0024 b340

fc3.weight f4 [32, 64]
0.10060713 -0.05539892 0.001107675 0.06448958 0.094444014 0.028665036 -0.0689325 0.0034618685
0.055539634 0.021548089 -0.044139393 -0.08536403 0.118263155 0.04079926 -0.03311102 -0.09324366
0.13547969 -0.10998085 -0.12935524 0.08159752 -0.06671175 0.11902493 0.05443532 -0.16199705
-0.0016739102 0.026758406 -0.061875008 0.052770402 0.054230906 -0.09851062 0.092354536 -0.08085403
0.017011547 -0.10650119 0.048818424 -0.13681833 0.024839524 -0.039225608 0.07478878 -0.040225152
-0.08914107 0.13883403 0.06398426 -0.10747859 -0.026243621 0.0035527756 -0.040256247 0.1077132
-0.040432338 -0.120281205 -0.06703072 0.062332597 -0.14887993 -0.045238737 -0.10197811 0.115789816
-0.030731313 -0.13019305 -0.04348872 -0.009694489 0.06954928 -0.03993526 0.052836 -0.016296962
0.03229578 0.03919076 0.054839756 0.04587588 -0.09707771 0.11191842 0.110794745 -0.020474449
0.015991258 0.123798415 0.09457935 -0.14559606 -0.09884359 -0.022787116 0.09496935 -0.08277368
-0.108624704 -0.05095546 0.0904481 -0.15628074 0.09012088 0.04226797 -0.06511188 -0.045718867
-0.14045548 0.017685961 0.013182182 0.07270083 -0.11088354 -0.0018645934 -0.06276207 0.08281633
-0.07410167 0.0082294755 -0.011615618 -0.018325659 0.11314224 0.0790579 0.09736327 -0.12811914
-0.08871247 -0.08149661 0.052755646 -0.084517814 0.0045781564 0.036542103 0.12403297 -0.0016663377
-0.043719977 -0.09783648 -0.087573156 -0.043367766 0.033808954 0.0061486117 -0.15058726 -0.04656563
0.05005073 0.08272318 0.13138482 -0.12980075 -0.06898944 0.1426169 0.057553716 -0.05639398
-0.0076529356 -0.06956205 -0.044221576 -0.10447848 -0.022023115 0.1370646 0.10465698 0.01758172
0.07267681 0.09373646 0.018801099 0.017251194 -0.11323102 0.12445462 -0.11690896 -0.0984596
0.013177181 0.08805449 0.1064697 -0.032460265 0.09780906 -0.011984537 -0.07089437 -0.07487641
-0.06470572 0.122795776 -0.11541329 -0.10151233 0.08904321 0.01259288 0.040124547 0.027678408
0.039787605 -0.012808858 -0.088939995 -0.009777533 -0.077580184 -0.051049523 -0.019406877 -0.10395141
-0.122272655 0.017977647 0.076006465 -0.04648342 -0.09040334 0.009899909 0.10743797 0.048818693
0.14962855 -0.042493884 0.020649048 -0.028307913 -0.003940932 -0.056674868 -0.06131824 0.10306771
0.10056937 0.09617761 0.111695156 -0.07595732 -0.062205236 0.09220259 0.022507355 -0.023629047
0.06254244 -0.09506618 0.06877822 -0.057134546 0.08494702 0.049310356 -0.10589129 -0.10831954
0.06910233 -0.045872837 0.07069963 0.087125316 0.02032521 -0.052130155 0.064620234 0.07848814
-0.0448984 -0.12315938 0.007679317 0.07314493 -0.033192538 0.055532478 -0.0010941725 -0.098663636
0.12565114 0.032906834 -0.013083931 -0.044505395 0.07510695 -0.11390346 -0.10354414 -0.017653277
0.15499957 -0.072814256 0.08969304 -0.07188067 -0.052182138 -0.065740846 0.045805804 0.019724231
0.04950736 0.0074359253 0.0017738712 -0.0012200354 -0.05801228 0.14499345 0.07919937 0.10980198
-0.016429536 -0.0039684055 -0.06003479 -0.0331686 0.030278675 0.013332907 0.05029244 -0.07694034
0.09025718 0.030251987 -0.099188514 -0.0571912 0.11849378 -0.023043614 -0.03450749 -0.0011831527
00000000: 1c0b ce3d fae9 62bd 682f 913a 1d13 843d
00000010: dd6b c13d f0d2 ea3c 7c2c 8dbd 84e0 623b
00000020: 877d 633d 9e85 b03c 82cb 34bd 56d3 aebd
00000030: f433 f23d 201d 273d 6c9f 07bd 88f6 bebd
00000040: 30bb 0a3e a43d e1bd b375 04be 9a1c a73d
00000050: 2ca0 88bd 58c3 f33d 92f7 5e3d 8ee2 25be
00000060: 1b67 dbba 7234 db3c a670 7dbd c725 583d
00000070: 3a21 5e3d f0bf c9bd 6024 bd3d cc96 a5bd
00000080: cd5b 8b3c 4c1d dabd d4f5 473d 1b1a 0cbe
00000090: 427c cb3c 08ab 20bd dc2a 993d 21c3 24bd
000000a0: 988f b6bd 822a 0e3e 2e0a 833d bc1d dcbd
000000b0: ddfc d6bc afd5 683b bce3 24bd bd98 dc3d
000000c0: 619c 25bd fe55 f6bd 6747 89bd 7750 7f3d
000000d0: fb73 18be 414c 39bd e6d9 d0bd 3623 ed3d
000000e0: 3cc0 fbbc 5451 05be 3a21 32bd a2d5 1ebc
000000f0: da6f 8e3d 2893 23bd 906a 583d 3581 85bc
00000100: 9448 043d 7e86 203d a79f 603d 59e8 3b3d
00000110: aed0 c6bd 7c35 e53d 5be8 e23d 08ba a7bc
00000120: 1900 833c 068a fd3d d1b2 c13d 2217 15be
00000130: 826e cabd 0cac babc 4a7f c23d 3f85 a9bd
00000140: a176 debd acb6 50bd da3c b93d 0f08 20be
00000150: 4c91 b83d 2e21 2d3d 6159 85bd b543 3bbd
00000160: 90d3 0fbe 26e2 903c 14fa 573c 2ce4 943d
00000170: e916 e3bd 5f65 f4ba 6689 80bd 9c9b a93d
00000180: 9ec2 97bd ecd4 063c 6f4f 3ebc b11f 96bc
00000190: 1eb7 e73d 1ce9 a13d 6566 c73d aa31 03be
000001a0: e2ae b5bd b2e7 a6bd 4e16 583d ad17 adbd
000001b0: 5c04 963b 2cad 153d ff04 fe3d 0469 daba
000001c0: b813 33bd 7e5e c8bd 8e59 b3bd 66a2 31bd
000001d0: 427b 0a3d 4b7a c93b 8c33 1abe 9abb 3ebd
000001e0: ff01 4d3d c56a a93d be89 063e 7dea 04be
000001f0: 564a 8dbd 2a0a 123e 72bd 6b3d 60fd 66bd
00000200: 7ac5 fabb 8c76 8ebd af21 35bd d0f8 d5bd
00000210: d269 b4bc aa5a 0c3e 6656 d63d 8a07 903c
00000220: 94d7 943d e7f8 bf3d c304 9a3c 6052 8d3c
00000230: aae5 e7bd 10e2 fe3d f76d efbd 30a5 c9bd
00000240: 1ae5 573c ea55 b43d c90c da3d 0ef5 04bd
00000250: 1e50 c83d cb5a 44bc 1131 91bd ce58 99bd
00000260: 6f84 84bd 5a7c fb3d ce5d ecbd b2e5 cfbd
00000270: 495c b63d 5e52 4e3c a359 243d d4bd e23c
00000280: 54f8 223d 3fdc 51bc 2c26 b6bd f231 20bc
00000290: 5ce2 9ebd 4e19 51bd 2cfb 9ebc 7ae4 d4bd
000002a0: 166a fabd dc45 933c 47a9 9b3d 6665 3ebd
000002b0: 6325 b9bd 3a33 223c 7008 dc3d 1cf6 473d
000002c0: 3a38 193e 110e 2ebd 3128 a93c ffe5 e7bc
000002d0: ef22 81bb e823 68bd d628 7bbd 2a15 d33d
000002e0: 50f7 cd3d c4f8 c43d 6ec0 e43d 838f 9bbd
000002f0: ebca 7ebd b6d4 bc3d 5861 b83c b491 c1bc
00000300: 4016 803d 0fb2 c2bd 98db 8c3d ea05 6abd
00000310: b4f8 ad3d a8f9 493d 88dd d8bd a3d6 ddbd
00000320: 8685 8d3d 28e5 3bbd f8ca 903d c26e b23d
00000330: 0e81 a63c 6e86 55bd 9d57 843d 64be a03d
00000340: 62e7 37bd fc3a fcbd c8a2 fb3b 02cd 953d
00000350: e6f4 07bd 0676 633d 566a 8fba 2910 cabd
00000360: b1aa 003e 51c9 063d fc5d 56bc 4a4b 36bd
00000370: acd1 993d 3846 e9bd f30e d4bd 9b9d 90bc
00000380: 35b8 1e3e a41f 95bd fcb0 b73d 2c36 93bd
00000390: f0bc 55bd 23a3 86bd de9e 3b3d b694 a13c
000003a0: 3bc8 4a3d 10a9 f33b 3e81 e83a 98e9 9fba
000003b0: 499e 6dbd 2a79 143e 4833 a23d dcdf e03d
000003c0: 3c97 86bc 6609 82bb 0ae7 75bd ccdb 07bd
000003d0: fc0a f83c 4472 5a3c 72ff 4d3d e692 9dbd
000003e0: c2d8 b83d 04d3 f73c 5923 cbbd 5241 6abd
000003f0: deac f23d f6c5 bcbc ba57 0dbd 0414 9bba

fc3.bias f4 [32]
-0.09629057 0.11731441 0.085952714 -0.108011544 0.046933524 -0.022245863 0.03425484 0.011795165
-0.12662739 -0.07851624 -0.10557146 0.049806647 -0.049447525 0.117687166 -0.06667122 -0.11712514
0.04431185 0.060970835 0.07185868 0.011895346 -0.094461545 0.119497284 0.0504564 -0.0054300707
0.07306493 0.10199197 -0.106865026 -0.012512517 -0.070455566 -0.11093317 -0.075596526 -0.056997523
00000000: fe33 c5bd 8a42 f03d fa07 b03d 2835 ddbd
00000010: 5e3d 403d f53c b6bc ce4e 0c3d 8240 413c
00000020: 9caa 01be 1fcd a0bd da35 d8bd 0e02 4c3d
00000030: 7d89 4abd f805 f13d ec8a 88bd 4edf efbd
00000040: 5880 353d 8ebc 793d a52a 933d b3e4 423c
00000050: 0e75 c1bd feba f43d 5fab 4e3d bcee b1bb
00000060: 11a3 953d 2ae1 d03d 0ddc dabd 4d01 4dbc
00000070: 024b 90bd ee30 e3bd 5ad2 9abd 3c76 69bd

bn3.weight f4 [32]
1.2645569 1.3566899 1.2574692 1.2744507 1.260484 1.3299575 1.2775068 1.357971
1.2676536 1.27801 1.3489538 1.3446549 1.3146889 1.3373289 1.2664113 1.3863487
1.3414922 1.2520611 1.3935096 1.2627487 1.3524808 1.2912467 1.273695 1.2524806
1.3024063 1.3507409 1.25254 1.3439027 1.3693461 1.3469529 1.273517 1.2588592
00000000: 00dd a13f 04a8 ad3f c0f4 a03f 3321 a33f
00000010: 8a57 a13f 0c3c aa3f 5885 a33f fed1 ad3f
00000020: 7942 a23f d595 a33f 85aa ac3f a71d ac3f
00000030: ba47 a83f 982d ab3f c419 a23f e073 b13f
00000040: 04b6 ab3f 8a43 a03f 865e b23f c0a1 a13f
00000050: 171e ad3f 9247 a53f 7008 a33f 4951 a03f
00000060: 40b5 a63f 14e5 ac3f 3b53 a03f 0105 ac3f
00000070: bc46 af3f f468 ac3f 9b02 a33f 4c22 a13f

bn3.bias f4 [32]
0.19881754 0.27810106 0.20341305 0.23724458 0.21068877 0.26079744 0.2144332 0.10010409
0.24407855 0.20459968 0.28413236 0.104362294 0.306393 0.08383184 0.25431615 0.27368158
0.298648 0.06090717 0.36328036 0.22356641 0.34119058 0.22699395 0.21913609 0.1997763
0.2434672 0.10370058 0.19920656 0.10521369 0.29324785 0.11232021 0.23871632 0.22972155
00000000: d396 4b3e 4363 8e3e 834b 503e 3ef0 723e
00000010: ccbe 573e 3e87 853e 6094 5b3e 6003 cd3d
00000020: baef 793e 9482 513e cc79 913e e6bb d53d
00000030: 8bdf 9c3e 07b0 ab3d ba35 823e fe1f 8c3e
00000040: 64e8 983e cc79 793d e2ff b93e 98ee 643e
00000050: 88b0 ae3e 1a71 683e 3665 603e 2992 4c3e
00000060: 774f 793e f860 d43d cefc 4b3e 467a d73d
00000070: 9524 963e 2308 e63d 0d72 743e 203c 6b3e

bn3.running_mean f4 [32]
-0.34294868 0.03601656 0.19250244 -0.0073919846 0.03763873 -0.046043612 -0.1912654 -0.20770916
-0.49934143 -0.1463106 -0.036183108 -0.06022463 -0.17103563 0.14127374 -0.035039593 -0.30609012
-0.1976115 -0.09704535 -0.29372963 -0.14304462 -0.4117552 0.1673701 0.10479868 0.06921588
0.1462042 0.07041838 -0.083419815 -0.07216299 -0.36384994 -0.13740088 -0.5736666 -0.34907842
00000000: f896 afbe 1a86 133d 5c1f 453e 7638 f2bb
00000010: 122b 1a3d 3a98 3cbd 14db 43be b6b1 54be
00000020: aea9 ffbe 72d2 15be bd34 14bd 1aae 76bd
00000030: f723 2fbe 10aa 103e ad85 0fbd d8b7 9cbe
00000040: ab5a 4abe b6bf c6bd bb63 96be 4a7a 12be
00000050: 94d1 d2be 1163 2b3e b1a0 d63d 0ec1 8d3d
00000060: 8eb6 153e 8337 903d 02d8 aabd 31ca 93bd
00000070: 8a4a babe d1b2 0cbe d0db 12bf 68ba b2be

bn3.running_var f4 [32]
0.17643562 0.416485 0.40066844 0.1493579 0.34325257 0.22780484 0.1685895 0.23033287
0.2609142 0.26253572 0.35424733 0.28276587 0.20891812 0.23181425 0.16780683 0.21456164
0.35731596 0.27567676 0.25157136 0.17594275 0.25267157 0.33644032 0.27886313 0.25200742
0.26460862 0.23207429 0.30960426 0.1332348 0.21561582 0.28491434 0.3514821 0.16103354
00000000: 8aab 343e 863d d53e 6a24 cd3e 47f1 183e
00000010: cdbe af3e ac45 693e baa2 2c3e 61dc 6b3e
00000020: 8c96 853e 156b 863e e85f b53e b0c6 903e
00000030: a2ee 553e b760 6d3e 8ed5 2b3e 0cb6 5b3e
00000040: 1ef2 b63e 8125 8d3e f6cd 803e 562a 343e
00000050: 2b5e 813e e841 ac3e 26c7 8e3e 1e07 813e
00000060: c87a 873e e2a4 6d3e 7384 9e3e b46e 083e
00000070: 65ca 5c3e 4be0 913e 76f5 b33e fae5 243e

bn3.num_batches_tracked f8 []
4900.0
00000000: 0000 0000 0024 b340

fc4.weight f4 [1, 32]
-0.36571506 -0.21002378 -0.334019 -0.30806255 -0.35284406 -0.20195383 -0.36541384 0.36273593
-0.35348088 -0.2771477 -0.2121248 0.34046486 -0.20849657 0.34206843 -0.3615207 -0.21478543
-0.23853058 0.25306255 -0.22885564 -0.31944466 -0.20642066 -0.18297544 -0.18827222 -0.32413027
-0.3172063 0.39243037 -0.29423642 0.3966436 -0.21117729 0.40705413 -0.29310971 -0.33890715
00000000: 013f bbbe 7910 57be 8a04 abbe 60ba 9dbe
00000010: faa7 b4be fccc 4ebe 8617 bbbe 86b8 b93e
00000020: 72fb b4be 4ee6 8dbe 3e37 59be 6951 ae3e
00000030: 2080 55be 9823 af3e 3e19 b9be b6f0 5bbe
00000040: 5c41 74be 6a91 813e 2259 6abe 408e a3be
00000050: f05f 53be ea5d 3bbe 6fca 40be 67f4 a5be
00000060: dd68 a2be a2ec c83e 28a6 96be df14 cb3e
00000070: dc3e 58be 6669 d03e 7a12 96be 3d85 adbe
