examples/hello-world/ml-to-fl/pt/fraudnet/jobs/workdir/server/simulate_job/app_server/FL_global_model.pt (torch, 68201 bytes, 22 tensors)

fc1.weight f4 [128, 30]
0.015340858 0.019941045 -0.49434316 0.43674645 -0.6833375 0.29807228 0.35059655 0.07853531
-0.048037082 0.4759372 0.5066811 -0.48657608 0.47989652 0.18248777 0.83597106 -0.12294583
0.35245577 0.33503288 0.42274302 -0.01909244 0.047452778 -0.40415132 -0.16978528 0.019749023
0.3726998 -0.12902606 0.24078676 -0.28990203 -0.06365598 0.05550582 -0.024605025 0.22442655
-0.26057506 0.26840317 -0.20640709 0.24305898 0.27236238 0.39648986 0.13794127 0.43960035
-0.044156313 -0.21976271 0.11449271 0.10523963 -0.033074632 -0.2860729 0.100064225 0.07267119
0.0856204 0.2035335 0.044976514 0.06096671 -0.15827331 -0.1177032 -0.00035690144 -0.02846425
-0.2621024 -0.2014274 -0.060496785 0.04152788 0.00030255294 0.24075371 -0.62057483 0.42958212
-1.0142962 0.14328173 0.42027813 0.3761168 0.4155839 0.5481627 0.9112405 -0.9229887
1.098511 0.24893294 1.1062043 0.27803296 0.79621065 0.68853724 0.35997605 0.006954651
0.211 -0.18078494 -0.13693267 -0.18631022 -0.32891434 -0.1863536 0.04357052 -0.14171897
-0.14629227 0.0046136742 0.013625058 0.246007 0.07033589 -0.12885813 0.1781871 0.20709115
-0.011935053 0.26657823 0.28703237 0.19894004 -0.05112024 -0.09168179 -0.078102425 0.12486936
-0.1998651 0.1340596 0.13648675 0.17765307 -0.014659419 0.11016267 0.004563134 0.40730843
-0.45059508 -0.133129 0.023316158 -0.02020323 0.06782976 0.17652056 -0.07203143 -0.228535
-0.00053907675 -0.2705418 0.23800609 -0.6102076 0.6071963 -0.040409636 -0.37067896 -0.34577024
-0.027952854 -0.3443123 -0.30033827 0.4788884 -0.74305403 -0.038775727 -0.8081926 0.16073067
-0.49490768 -0.21155517 -0.24332933 0.0299258 0.0020795683 0.021168828 -0.10196865 0.12310158
0.35528585 -0.08837326 0.22854653 0.073524386 0.039352335 0.015599962 -0.003633003 0.20853075
-0.19001722 0.1533241 -0.64191425 0.06951611 -0.020258017 0.02623567 0.34185356 0.1286531
0.3718493 -0.33957946 0.52201873 0.117891625 0.6235223 0.03488012 0.31132448 0.3365444
0.32139707 -0.10356701 0.09629195 -0.06665535 -0.30623317 0.10231896 0.012692731 -0.19238526
-0.25216997 0.0291564 -0.16235994 0.022550214 0.0037679155 -0.19673109 0.6813942 -0.5656302
1.092788 -0.1736521 -0.63596964 -0.5973192 -0.034785885 -0.41754597 -0.96272993 0.7787554
-0.83813894 -0.5361911 -1.2561458 0.0025618114 -0.53824306 -0.6203266 -0.5922401 0.4638647
0.23256502 0.5330286 0.13723087 -0.13286544 0.042273384 0.17631517 0.10127189 0.43439838
0.32721356 0.10121699 6.877504e-05 0.16337454 -0.41256213 0.866526 -1.3063602 0.04381249
0.64835274 0.5721398 0.022570731 0.6611235 0.9665848 -0.8254032 1.3380513 0.57186216
1.6106222 -0.099902496 0.80695367 0.69790626 0.29786146 -0.20042586 0.19518475 -0.3833014
-0.4194698 0.15047155 -0.30684513 -0.1205964 0.18042317 -0.257877 -0.14897186 -0.007000874
0.0011315863 -0.22636122 0.16221064 -0.25326714 0.54691654 0.041513667 -0.253315 -0.09420942
0.09671323 -0.31911212 -0.36410868 0.33114028 -0.2590899 -0.31713575 -0.39541787 -0.12189643
00000000: 3958 7b3c 675b a33c 8c1a fdbe 3b9d df3e
00000010: 35ef 2ebf ee9c 983e 6481 b33e 1fd7 a03d
00000020: 88c2 44bd 0aae f33e dab5 013f 8020 f9be
00000030: ffb4 f53e 13de 3a3e 3302 563f 06cb fbbd
00000040: 1575 b43e 6e89 ab3e c671 d83e c067 9cbc
00000050: d85d 423d ecec cebe 31dc 2dbe b4c8 a13c
00000060: 82d2 be3e 681f 04be ce90 763e 0a6e 94be
00000070: 115e 82bd 125a 633d 7a90 c9bc 13d0 653e
00000080: 186a 85be 246c 893e 615c 53be 74e4 783e
00000090: 1573 8b3e b800 cb3e 7a40 0d3e 4c13 e13e
000000a0: 40dd 34bd 7a09 61be 277b ea3d e087 d73d
000000b0: 4479 07bd 2678 92be 79ee cc3d a2d4 943d
000000c0: c059 af3d 166b 503e 4b39 383d 3bb8 793d
000000d0: 6612 22be 600e f1bd 801e bbb9 dc2d e9bc
000000e0: 4932 86be fc42 4ebe 7acb 77bd 2319 2a3d
000000f0: f89f 9e39 2488 763e fedd 1ebf 30f2 db3e
00000100: 75d4 81bf 72b8 123e b22e d73e 6292 c03e
00000110: 6ac7 d43e 6454 0c3f 0f47 693f fd48 6cbf
00000120: 029c 8c3f 47e8 7e3e 1a98 8d3f 565a 8e3e
00000130: 76d4 4b3f fa43 303f c84e b83e d7e3 e33b
00000140: 6210 583e b01f 39be 1438 0cbe 1bc8 3ebe
00000150: 7667 a8be 7ad3 3ebe 0077 323d c71e 11be
00000160: a4cd 15be 4e2e 973b a33b 5f3c 42e9 7b3e
00000170: 430c 903d 63f3 03be ae76 363e b40f 543e
00000180: 3e8b 43bc f17c 883e e8f5 923e f0b6 4b3e
00000190: 7563 51bd aac3 bbbd 2af4 9fbd 82bb ff3d
000001a0: 70a9 4cbe eb46 093e 2fc3 0b3e b0ea 353e
000001b0: 0f2e 70bc f79c e13d 5886 953b bb8a d03e
000001c0: 66b4 e6be f852 08be 8701 bf3c 3f81 a5bc
000001d0: 54ea 8a3d cec1 343e 3785 93bd 1405 6abe
000001e0: d450 0dba 7484 8abe deb7 733e 9136 1cbf
000001f0: 3771 1b3f 9384 25bd a2c9 bdbe cc08 b1be
00000200: 62fd e4bc b449 b0be f0c5 99be dc30 f53e
00000210: ca38 3ebf 4cd3 1ebd b6e5 4ebf 9596 243e
00000220: 8a64 fdbe eba1 58be 532b 79be f426 f53c
00000230: 5e49 083b 406a ad3c f1d4 d0bd ae1c fc3d
00000240: 07e8 b53e 0afd b4bd 1a08 6a3e f493 963d
00000250: ea2f 213d fc96 7f3c ad17 6ebb 1689 553e
00000260: e093 42be fe00 1d3e 7e54 24bf 765e 8e3d
00000270: 24f4 a5bc 30ec d63c 6e07 af3e a3bd 033e
00000280: 0863 be3e 5cdd adbe 05a3 053f 2a71 f13d
00000290: 289f 1f3f 75de 0e3d ec65 9f3e 8c4f ac3e
000002a0: 288e a43e f11a d4bd b734 c53d 9a82 88bd
000002b0: 98ca 9cbe 9a8c d13d 2cf5 4f3c a400 45be
000002c0: 6c1c 81be 67d9 ee3c af41 26be 3abb b83c
000002d0: 22ef 763b e073 49be da6f 2e3f 24cd 10bf
000002e0: 7ae0 8b3f dbd1 31be e8ce 22bf e9e9 18bf
000002f0: a57b 0ebd 96c8 d5be 7875 76bf 845c 473f
00000300: 4690 56bf d243 09bf 63c9 a0bf 10e4 273b
00000310: 4cca 09bf b9cd 1ebf 0c9d 17bf ad7f ed3e
00000320: 8625 6e3e 9074 083f 4086 0c3e e10d 08be
00000330: db26 2d3d f78b 343e a367 cf3d 7769 de3e
00000340: 8988 a73e da4a cf3d 523b 9038 a84b 273e
00000350: 583b d3be a6d4 5d3f d036 a7bf ba74 333d
00000360: 72fa 253f c177 123f 41e6 b83c 643f 293f
00000370: 1a72 773f a04d 53bf 4445 ab3f 8f65 123f
00000380: de28 ce3f ae99 ccbd 8494 4e3f fca9 323f
00000390: 4c81 983e 703c 4dbe 83de 473e 1540 c4be
000003a0: bfc4 d6be 3715 1a3e ce1a 9dbe 3ffb f6bd
000003b0: dac0 383e 7408 84be 148c 18be 9667 e5bb
000003c0: bc51 943a 3ccb 67be 8c1a 263e 3bac 81be
000003d0: b902 0c3f 3c0a 2a3d 81b2 81be def0 c0bd
000003e0: 9611 c63d aa62 a3be 746c babe 388b a93e
000003f0: 6ea7 84be 9e5f a2be 3674 cabe d6a4 f9bd

fc1.bias f4 [128]
0.11937885 -0.1419084 -0.18192807 -0.10451649 0.11078606 -0.040857192 -0.0286276 -0.056845754
-0.04650521 -0.123013474 0.082791194 -0.020516764 -0.08054343 -0.10410051 0.081242174 -0.18189016
-0.16297036 -0.17065187 0.037299894 0.13459766 -0.112378806 -0.059412427 -0.12677228 0.11850618
0.11353121 0.17429496 0.07973889 -0.072857425 -0.06243043 0.11555371 -0.0048743607 0.036870245
-0.14182487 0.064008005 -0.016881065 -0.08832329 -0.024515 -0.10855532 -0.13114053 0.054839164
-0.062157907 -0.06177788 -0.16978854 0.05165755 -0.05886311 -0.031133683 0.13485089 -0.12238304
-0.02359312 -0.115703695 -0.1593109 0.15960196 -0.15613192 0.17887382 0.17334574 -0.060144585
0.038621303 -0.041019548 0.084265575 0.16210605 -0.13651858 0.16682808 -0.10433277 0.10447104
0.043027017 0.13955897 -0.040979765 -0.0044106427 0.06280534 -0.05963697 0.14253874 -0.1728519
-0.1352722 -0.02668669 -0.10109764 0.15193664 -0.05721352 -0.04486634 0.08553092 -0.1292217
0.16446039 0.16578165 0.11578268 -0.054582246 -0.04294195 0.121846914 0.15553465 0.13612452
0.15053922 0.08206463 -0.10694902 -0.14321217 0.06656581 -0.1819331 -0.14708257 0.038296744
-0.1634716 -0.093501255 0.17920351 0.113316685 0.14286712 0.15254298 0.1732914 0.15884951
0.12638688 -0.11037575 0.16186535 -0.090930134 0.14800856 0.07488511 0.16039602 -0.093952954
0.120331176 0.07840981 -0.025300086 0.06413971 -0.019695882 0.05494704 0.16020639 0.0034449282
-0.17079017 0.026924618 0.11524493 0.054229513 -0.0888361 -0.12781382 -0.07575469 -0.10061752
00000000: e67c f43d 7050 11be 5a4b 3abe be0c d6bd
00000010: cde3 e23d df59 27bd 6e84 eabc 18d7 68bd
00000020: 3f7c 3ebd 7dee fbbd 6e8e a93d c612 a8bc
00000030: f4f3 a4bd a632 d5bd 4c62 a63d 6a41 3abe
00000040: b4e1 26be 5dbf 2ebe c6c7 183d f8d3 093e
00000050: dc26 e6bd 725a 73bd 98d0 01be 5eb3 f23d
00000060: 0d83 e83d 617a 323e 254e a33d 4636 95bd
00000070: 0db7 7fbd 6ca7 ec3d 1ab9 9fbb 4105 173d
00000080: 8a3a 11be a116 833d 294a 8abc d7e2 b4bd
00000090: aed3 c8bc 4052 debd b449 06be 089f 603d
000000a0: 4a99 7ebd cd0a 7dbd 0cdd 2dbe de96 533d
000000b0: 721a 71bd 110c ffbc 5a16 0a3e f6a3 fabd
000000c0: 5c46 c1bc 0ff6 ecbd 6622 23be b26e 233e
000000d0: 0ce1 1fbe b32a 373e 8c81 313e 2b5a 76bd
000000e0: 5f31 1e3d 1d04 28bd 6e93 ac3d 21ff 253e
000000f0: 87cb 0bbe fbd4 2a3e 6bac d5bd eaf4 d53d
00000100: 193d 303d 8ce8 0e3e 66da 27bd 2787 90bb
00000110: 16a0 803d e545 74bd adf5 113e 1700 31be
00000120: cc84 0abe 0c9e dabc 480c cfbd 4795 1b3e
00000130: b958 6abd c4c5 37bd d62a af3d b152 04be
00000140: 4e68 283e aac2 293e 781f ed3d a291 5fbd
00000150: e6e3 2fbd e08a f93d 7a44 1f3e 3a64 0b3e
00000160: f426 1a3e 8011 a83d 1608 dbbd 36a6 12be
00000170: a853 883d ac4c 3abe d09c 16be 0cdd 1c3d
00000180: 1965 27be 967d bfbd 2081 373e 9412 e83d
00000190: c24b 123e 3a34 1c3e 4d73 313e 72a9 223e
000001a0: 906b 013e ae0c e2bd 08c0 253e 9439 babd
000001b0: 8e8f 173e 5d5d 993d db3e 243e 686a c0bd
000001c0: 3170 f63d 5395 a03d 2042 cfbc ae5b 833d
000001d0: 4259 a1bc 2610 613d 250d 243e 4ec4 613b
000001e0: 9ee3 2ebe 0491 dc3c 8905 ec3d c41f 5e3d
000001f0: b4ef b5bd a0e1 02be 4625 9bbd 8f10 cebd

bn1.weight f4 [128]
0.9132517 0.93357944 1.0288576 0.9687563 0.90168357 0.9088403 0.97679305 1.1398866
0.95668304 0.9138826 1.0256814 0.9339366 0.91467535 0.96942145 0.9546509 1.1446769
0.94438934 0.89748967 0.93966365 0.936176 0.9600898 0.9990443 0.96898156 0.98347247
0.9335873 0.9164119 0.9707161 1.0106035 0.9560424 0.9607409 0.90440404 1.0407896
0.9431026 0.9811213 1.0225967 0.9578297 0.97474265 0.95990366 0.9870142 0.9343426
0.9511905 0.9655897 0.98753285 0.94394934 0.9247715 0.9565129 0.9252993 0.93887496
1.0017167 0.9501209 0.9625263 0.9618349 0.95098746 0.9291092 0.9318819 0.94757676
0.9460536 0.95489347 0.9633847 0.99698496 1.2037222 0.9316176 0.98123926 0.92188823
0.90079105 0.957793 0.9421614 1.0873246 0.9578614 0.9497324 0.94406664 0.9192734
0.9855012 0.9212227 0.9305668 1.0017111 0.9838469 0.92180043 0.9139227 0.933376
0.945812 0.9908174 0.9159956 1.0268795 0.9384911 0.96414256 0.96611625 0.8937533
1.1116891 0.9745804 0.96545166 0.95333195 0.9655659 0.9877025 0.9747782 0.94197404
0.9548974 0.9347452 0.9464519 1.0003421 0.93242836 0.96940887 0.9565 0.9306009
0.90508556 0.9563229 0.9693208 0.98428226 0.9802834 0.9294591 0.9175129 0.9078666
0.9827304 0.9439877 1.0080738 1.0424304 0.98589873 0.9465182 0.97271603 1.0424259
0.93857753 1.021951 0.95962983 0.9233465 0.95670474 1.0921476 0.9793567 0.9168129
00000000: ddca 693f 10ff 6e3f 9bb1 833f 6a00 783f
00000010: bcd4 663f c2a9 683f 1c0f 7a3f cee7 913f
00000020: 2ee9 743f 36f4 693f 8749 833f 7816 6f3f
00000030: 2a28 6a3f 012c 783f 0064 743f c684 923f
00000040: 80c3 713f e2c1 653f cc8d 703f 3ba9 6f3f
00000050: 72c8 753f 5ec1 7f3f 2d0f 783f dac4 7b3f
00000060: 94ff 6e3f f899 6a3f da80 783f 755b 813f
00000070: 32bf 743f 1ef3 753f 0687 673f 9838 853f
00000080: 2c6f 713f c42a 7b3f 73e4 823f 5434 753f
00000090: bc88 793f 3fbc 753f f6ac 7c3f 1431 6f3f
000000a0: 3881 733f e330 773f f4ce 7c3f aaa6 713f
000000b0: d3bd 6c3f 08de 743f 6ae0 6c3f 1c5a 703f
000000c0: 4138 803f 203b 733f 2068 763f d03a 763f
000000d0: ea73 733f 1ada 6d3f d08f 6e3f 6494 723f
000000e0: 9230 723f e673 743f 61a0 763f 683a 7f3f
000000f0: 9213 9a3f 7e7e 6e3f 7f32 7b3f de00 6c3f
00000100: 3e9a 663f ec31 753f 7d31 713f 742d 8b3f
00000110: 6836 753f aa21 733f 5aae 713f 8055 6b3f
00000120: cf49 7c3f 40d5 6b3f a039 6e3f 1238 803f
00000130: 64dd 7b3f 1dfb 6b3f d7f6 693f bbf1 6e3f
00000140: bc20 723f 36a6 7d3f b07e 6a3f ca70 833f
00000150: f440 703f 0cd2 763f 6553 773f 04cd 643f
00000160: d44b 8e3f 1a7e 793f d727 773f 900d 743f
00000170: 542f 773f 12da 7c3f 108b 793f 3625 713f
00000180: 2874 743f 764b 6f3f ac4a 723f 360b 803f
00000190: a0b3 6e3f 2e2b 783f 2fdd 743f dc3b 6e3f
000001a0: b0b3 673f 94d1 743f 6825 783f ecf9 7b3f
000001b0: daf3 7a3f 08f1 6d3f 20e2 6a3f f269 683f
000001c0: 3894 7b3f 2ea9 713f 9008 813f 5c6e 853f
000001d0: dc63 7c3f 044f 723f eb03 793f 366e 853f
000001e0: 9e46 703f 4acf 823f 4daa 753f 7060 6c3f
000001f0: 9aea 743f 7ecb 8b3f 1fb7 7a3f 40b4 6a3f

bn1.bias f4 [128]
-0.101762705 -0.080439985 -0.1734277 -0.014444474 -0.11439277 -0.04468757 -0.09756863 -0.08641468
-0.08795658 -0.07601236 -0.07128115 -0.08475129 -0.07829255 -0.08288464 -0.07721982 -0.0587976
-0.053894147 -0.1051237 -0.020118639 -0.06514772 -0.03558068 -0.16440922 -0.18438539 -0.03786649
-0.07417476 -0.07848829 -0.019230483 -0.022751836 -0.0820363 -0.10480337 -0.08630384 -0.17245507
-0.07937256 -0.0073102815 0.013860128 -0.15181123 -0.041995544 0.0069104726 0.017345458 -0.11924499
-0.059842758 -0.006435223 0.04125527 -0.02189813 -0.047472976 -0.0933408 -0.10140865 -0.021718439
-0.15920365 -0.11640525 -0.073273964 -0.04875335 -0.0777228 -0.05823636 -0.056678846 -0.042451456
-0.03874942 -0.026821647 -0.036294397 -0.01142153 0.0040522385 -0.12154871 -0.12259899 -0.111186795
-0.07473964 -0.00508378 -0.11431715 -0.13495152 -0.114794254 -0.04526865 -0.17131177 -0.05578416
-0.0036778112 -0.07777943 -0.102643475 -0.06990993 -0.018017156 -0.089294076 -0.14233455 -0.048691817
-0.06854479 -0.08328526 -0.08780512 -0.18036577 -0.08033694 -0.16231222 -0.030736208 -0.09309198
-0.09613551 -0.05543781 -0.12995042 -0.061206862 -0.0779331 -0.028660387 -0.119905606 -0.059513286
-0.12945202 -0.07331762 -0.10865894 -0.0946639 -0.03298039 -0.20901993 -0.06226688 -0.06801738
-0.08899686 -0.10629262 -0.05433669 -0.026801407 -0.04992652 -0.10871438 -0.12004663 -0.12204883
-0.084662415 -0.11855241 -0.13445836 -0.14667022 -0.004471869 -0.073231325 -0.0032848283 -0.06229516
-0.09572998 -0.003639915 -0.00507283 -0.064513564 -0.07970865 -0.0346255 -0.000648543 -0.093557864
00000000: f768 d0bd b8bd a4bd 0897 31be 84a8 6cbc
00000010: c246 eabd 500a 37bd 10d2 c7bd 2efa b0bd
00000020: 9422 b4bd 5eac 9bbd dafb 91bd 1692 adbd
00000030: d857 a0bd 6cbf a9bd 6d25 9ebd c1d5 70bd
00000040: 1cc0 5cbd 184b d7bd d8cf a4bc 2b6c 85bd
00000050: 0cbd 11bd e45a 28be 86cf 3cbe e519 1bbd
00000060: f0e8 97bd 78be a0bd 3f89 9dbc 0f62 babc
00000070: a602 a8bd 26a3 d6bd 11c0 b0bd 1098 30be
00000080: 158e a2bd 168b efbb 9715 633c 6774 1bbe
00000090: 8503 2cbd 3f71 e23b 1018 8e3c b836 f4bd
000000a0: ae1d 75bd 90de d2bb 49fb 283d b563 b3bc
000000b0: 0673 42bd 7629 bfbd 57af cfbd deea b1bc
000000c0: 4806 23be e065 eebd a910 96bd 98b1 47bd
000000d0: 222d 9fbd 4089 6ebd 1428 68bd 94e1 2dbd
000000e0: b6b7 1ebd 12b9 dbbc 6fa9 14bd 5e21 3bbc
000000f0: a4c8 843b 88ee f8bd 2e15 fbbd e7b5 e3bd
00000100: 1911 99bd d695 a6bb 1c1f eabd bb30 0abe
00000110: 4019 ebbd 9f6b 39bd 5a6c 2fbe ee7d 64bd
00000120: 6f07 71bb d24a 9fbd be36 d2bd f02c 8fbd
00000130: b798 93bc d0df b6bd 26c0 11be 1271 47bd
00000140: 3661 8cbd 7691 aabd 2cd3 b3bd ceb1 38be
00000150: b287 a4bd 2d35 26be 80ca fbbc 02a7 bebd
00000160: b2e2 c4bd c212 63bd b911 05be 0cb4 7abd
00000170: 649b 9fbd 30c9 eabc 1291 f5bd 34c4 73bd
00000180: 128f 04be 8c27 96bd 9488 debd 26df c1bd
00000190: 7216 07bd 5209 56be 8e0b 7fbd b24c 8bbd
000001a0: fc43 b6bd f2af d9bd 2690 5ebd a08e dbbc
000001b0: c07f 4cbd a5a5 debd 02db f5bd bdf4 f9bd
000001c0: 7d63 adbd 9bcb f2bd 74af 09be b830 16be
000001d0: c288 92bb 4efa 95bd 4646 57bb 3629 7fbd
000001e0: 140e c4bd a48b 6ebb fb39 a6bb b01f 84bd
000001f0: 4a3e a3bd 78d3 0dbd fc02 2aba 449b bfbd

bn1.running_mean f4 [128]
1379.9973 -2153.4207 55.615135 1294.9609 -48.710846 -292.33923 338.0876 -18.588764
96.92406 -171.47626 0.8856964 63.7081 315.3297 1459.4407 149.6737 -15.609791
743.27 -413.0053 -16327.715 -11002.185 4327.5435 -153.28418 -69.446724 -271.39124
3939.1025 -45.60295 3943.3574 4132.982 -103.77153 -352.6673 630.9578 -43.087975
464.2721 -3101.747 -6307.7534 91.71149 -750.3476 -11858.24 -4996.635 -162.1077
-0.8644409 -10471.285 13862.434 -20378.73 -448.6544 -277.65012 -121.361694 -73.96442
49.358063 -368.45322 52.04634 -7.6539 -160.17924 9072.503 -6373.757 -8137.299
-649.22235 -3871.4907 3946.7485 4559.4473 -25.380589 -180.49097 -129.6008 -376.56015
-622.1305 -12554.467 -110.70955 -25.342514 -441.84363 176.09526 -217.13544 -8834.033
-445.15503 -37.687355 -586.9224 -4.8950806 1106.5391 -850.4752 498.60196 -2905.9392
668.2093 88.7681 315.99048 -64.33374 -760.6092 -5.202034 -904.49426 7.845886
-14.85925 -111.5307 331.01248 1458.543 262.97025 701.99695 41.37688 -552.2665
-208.61597 1764.802 341.70767 64.77 -1460.9264 60.354103 -251.96921 5100.3965
132.4855 -307.2273 -16773.963 -5244.414 -154.83844 199.04416 29.784607 -601.0061
620.07605 -306.3486 41.13557 -8.002892 -5878.3037 11779.334 -8682.03 17.42011
-31.945358 8079.2915 -18784.703 4049.807 997.3254 0.65563583 -2971.4077 -6308.4067
00000000: ea7f ac44 bb96 06c5 e675 5e42 c0de a144
00000010: e8d7 42c2 6c2b 92c3 360b a943 cab5 94c1
00000020: 1ed9 c142 ec79 2bc3 00bd 623f 18d5 7e42
00000030: 34aa 9d43 1a6e b644 78ac 1543 b4c1 79c1
00000040: 48d1 3944 ae80 cec3 dc1e 7fc6 bde8 2bc6
00000050: 593c 8745 c048 19c3 b9e4 8ac2 14b2 87c3
00000060: a431 7645 6c69 36c2 b875 7645 db27 8145
00000070: 068b cfc2 6a55 b0c3 4dbd 1d44 165a 2cc2
00000080: d422 e843 f4db 41c5 071e c5c5 486c b742
00000090: 3f96 3bc4 f648 39c6 1425 9cc5 921b 22c3
000000a0: 004c 5dbf 249d 23c6 bc99 5846 7635 9fc6
000000b0: c353 e0c3 37d3 8ac3 30b9 f2c2 c8ed 93c2
000000c0: a86e 4542 033a b8c3 742f 5042 c0ec f4c0
000000d0: e32d 20c3 03c2 0d46 0e2e c7c5 644a fec5
000000e0: 3b4e 22c4 daf7 71c5 faab 7645 947b 8e45
000000f0: 720b cbc1 b07d 34c3 ce99 01c3 b347 bcc3
00000100: 5a88 1bc4 de29 44c6 4a6b ddc2 78bd cac1
00000110: fceb dcc3 6318 3043 ac22 59c3 2208 0ac6
00000120: d893 dec3 dabf 16c2 09bb 12c4 80a4 9cc0
00000130: 4051 8a44 6a9e 54c4 0d4d f943 079f 35c5
00000140: 650d 2744 4489 b142 c8fe 9d43 e0aa 80c2
00000150: fd26 3ec4 1077 a6c0 a21f 62c4 8011 fb40
00000160: 7dbf 6dc1 b80f dfc2 9981 a543 6051 b644
00000170: 317c 8343 ce7f 2f44 ed81 2542 0e11 0ac4
00000180: b09d 50c3 aa99 dc44 95da aa43 3d8a 8142
00000190: a59d b6c4 9a6a 7142 1ef8 7bc3 2c63 9f45
000001a0: 4a7c 0443 189d 99c3 ed0b 83c6 50e3 a3c5
000001b0: a4d6 1ac3 4e0b 4743 e046 ee41 6440 16c4
000001c0: de04 1b44 9f2c 99c3 d38a 2442 d80b 00c1
000001d0: 6eb2 b7c5 560d 3846 1fa8 07c6 635c 8b41
000001e0: 1890 ffc1 557a fc45 68c1 92c6 e91c 7d45
000001f0: d354 7944 c0d7 273f 86b6 39c5 4123 c5c5

bn1.running_var f4 [128]
727644.56 3.901977e+06 2497.9468 1.8654756e+06 96007.72 25966.074 29530.781 1106.2551
84478.05 9187.893 33206.28 122605.67 173208.39 1.4170355e+06 42083.39 615.65674
170937.72 46479.355 7.574742e+07 3.635943e+07 7.915595e+06 6885.67 13959.207 233382.66
7.6416135e+06 25474.145 6.4964915e+06 7.4337345e+06 31917.912 38718.594 123837.75 911.6667
64181.32 4.3017755e+06 1.947755e+07 75438.11 181910.69 4.1073136e+07 9.032094e+06 11119.143
156070.48 3.154978e+07 5.58294e+07 1.21428184e+08 574059.5 27575.383 25753.137 274719.1
2425.3682 49189.785 14230.389 22356.969 10906.465 2.6183568e+07 1.1496738e+07 2.2885836e+07
136475.84 4.324553e+06 9.758251e+06 7.596557e+06 784.3353 129366.01 6995.502 71198.875
1.1772159e+06 5.1177276e+07 65899.13 775.51904 61112.934 9946.281 27605.049 2.26531e+07
333899.88 18963.045 114518.83 25521.328 358984.34 211993.19 80917.84 3.9170205e+06
127611.25 15544.291 31102.273 4394.165 241925.39 8448.426 227624.22 195381.11
846.28174 209260.45 29592.016 1.4959505e+06 95164.05 338838.28 8786.554 85394.555
43300.44 3.4802662e+06 34326.89 4665.298 667668.4 13696.911 52840.594 7.374477e+06
144806.3 29978.875 7.971475e+07 7.77825e+06 52864.36 67418.35 8902.88 127272.41
108177.09 27378.543 2408.6917 2907.8096 1.7378422e+07 3.949928e+07 2.957002e+07 1315.3478
25427.84 1.8910868e+07 9.981184e+07 8.394901e+06 456069.66 1001.11206 2.5354012e+06 1.8412864e+07
00000000: c9a5 3149 6428 6e4a 261f 1c45 1db8 e349
00000010: dc83 bb47 26dc ca46 90b5 e646 2a48 8a44
00000020: 06ff a447 928f 0f46 48b6 0147 d676 ef47
00000030: 1926 2948 5cfa ac49 6463 2447 08ea 1944
00000040: 6eee 2648 5b8f 3547 0c7a 904c 42b3 0a4c
00000050: 9690 f14a 5c2d d745 d41c 5a46 aae9 6348
00000060: 1b34 e94a 4a04 c746 d741 c64a 0ddc e24a
00000070: d35b f946 983e 1747 e0de f147 abea 6344
00000080: 52b5 7a47 9f47 834a 179a 944b 0e57 9347
00000090: aca5 3148 7cae 1c4c 9ed1 094b 92bc 2d46
000000a0: 9f69 1848 aab4 f04b e6f8 544c 1b9b e74c
000000b0: b826 0c49 c46e d746 4632 c946 e323 8648
000000c0: e495 1745 c925 4047 8e59 5e46 f0a9 ae46
000000d0: dc69 2a46 c8c3 c74b 226d 2f4b e69a ae4b
000000e0: f646 0548 92f9 834a 2be6 144b 1ad4 e74a
000000f0: 7615 4444 01ab fc47 049c da45 700f 8b47
00000100: ffb3 8f49 cf39 434c 91b5 8047 38e1 4144
00000110: efb8 6e47 2069 1b46 19aa d746 56d4 ac4b
00000120: 7c09 a348 1726 9446 6aab df47 a862 c746
00000130: 0b49 af48 4c06 4f48 ec0a 9e47 7213 6f4a
00000140: a03d f947 2ae1 7246 8cfc f246 5251 8945
00000150: 5941 6c48 b401 0446 0e4a 5e48 47cd 3e48
00000160: 0892 5344 1d5b 4c48 0830 e746 749c b649
00000170: 06de b947 c972 a548 374a 0946 47c9 a647
00000180: 7124 2947 296b 544a e416 0647 62ca 9145
00000190: 4601 2349 a503 5646 9868 4e47 1a0d e14a
000001a0: 9369 0d48 c035 ea46 380b 984c 945f ed4a
000001b0: 5c80 4e47 2dad 8347 851b 0b46 3494 f847
000001c0: 8c48 d347 16e5 d546 118b 1645 f4bc 3545
000001d0: 3b96 844b 84ad 164c f299 e14b 216b a444
000001e0: aea7 c646 4a47 904b 4060 be4c 9518 004b
000001f0: b5b0 de48 2c47 7a44 a5bf 1a4a a07a 8c4b

bn1.num_batches_tracked f8 []
8166.0
00000000: 0000 0000 00e6 bf40

fc2.weight f4 [64, 128]
0.00034041237 -0.053057443 -0.0790959 -0.07262184 0.049256667 0.00030083183 0.08507815 0.03985697
0.018289767 0.019370437 0.07992387 -0.029963726 0.02773381 0.05016899 0.04743772 -0.06539751
-0.09358309 -0.02684707 -0.013922326 0.015172596 -0.08804868 -0.03309435 0.037339672 -0.026961224
-0.10352531 -0.081328854 -0.08822694 0.02191709 -0.00208339 0.10344249 0.06208779 -0.01793911
-0.05626888 0.009606296 -0.06459667 0.06003596 0.0138460575 0.0017933461 0.014042623 -0.043013476
0.02213269 -0.06667999 -0.047299936 0.013015647 0.03815047 0.04868144 -0.008304335 0.0497399
-0.09877486 0.06432444 0.08857076 0.053143866 0.024417398 0.043241844 -0.046491712 -0.008094153
-0.036402024 -0.004756942 -0.13531038 0.009678406 0.042205676 -0.031801127 -0.017111918 0.03850306
0.010277234 -0.056435294 0.010536819 -0.057421282 -0.06578173 -0.047132798 -0.08982424 0.021350376
-0.019493096 0.05579123 -0.052323222 0.054427296 0.040065665 -0.080921054 -0.005954607 -0.016091172
-0.07130036 -0.03339412 -0.0067486973 -0.09802663 0.006378085 0.009912685 -0.07610771 -0.09536263
-0.0083955545 -0.041153394 -0.016956327 -0.11219384 -0.036012188 0.038370892 -0.058219578 -0.039243143
-0.04702882 -0.1195454 0.016083349 -0.12843393 0.07392573 -0.011810875 -0.009840846 -0.008956571
-0.12878264 0.041027367 -0.016531339 -0.021946471 0.05177831 -0.11131555 0.017039796 -0.020441722
-0.020338388 0.05407554 -0.078984246 0.10928624 0.08192681 -0.031547423 -0.023167167 -0.027199538
0.012119114 0.024072058 0.030514665 -5.1048468e-05 -0.056897674 0.06822337 0.04441104 -0.0006018914
-0.004394807 0.037404828 -0.091486976 -0.104276374 0.016506486 -0.046476014 -0.059874475 -0.1540126
-0.05342497 -0.05343449 0.056653574 0.0935887 -0.02314245 0.033344556 0.026371563 -0.12299574
-0.048547424 0.023380786 -0.029007584 -0.027913239 -0.015223827 -0.0663784 -0.05025141 -0.08201891
-0.05386225 0.025911849 -0.06185632 0.014056225 0.012319926 0.08315227 -0.03183942 -0.10186541
-0.033500716 0.021610003 -0.04897962 -0.06644878 -0.058632247 0.068282515 -0.031834207 0.046187375
-0.06568735 0.0060861753 -0.10195547 -0.022105422 0.098631695 -0.065416135 -0.019737855 -0.0972929
-0.042002425 0.023093121 -0.05410991 -0.0069110123 0.025416672 -0.11078884 -0.013808422 0.004730072
0.106098905 -0.055244673 -0.07935035 0.04059812 -0.060853317 -0.050269052 0.083453044 0.020782541
0.10415879 0.03639732 0.0175376 -0.1243254 0.026234258 0.018177006 -0.04928547 -0.051691763
-0.041267138 0.07112298 -0.07139096 -0.084404185 -0.028240442 -0.031241938 0.077217564 0.038765647
-0.08196366 -0.051628724 0.004602191 -0.020356975 -0.05569449 -0.0006748121 -0.09420024 -0.058945194
-0.07432038 -0.041900247 0.07141416 0.019527737 0.009081336 0.038625207 -0.024420345 0.028310593
-0.08140887 0.04172922 -0.013065534 -0.09879917 0.06639339 0.01569619 0.051669423 -0.10104759
-0.06282279 0.061360817 0.06559891 -0.045155447 0.051087804 -0.015693963 -0.045428656 -0.09849267
-0.014844187 0.0050538 -0.009805369 -0.06974959 0.068335235 0.04221516 -0.042927053 -0.040546834
0.06528899 -0.09209517 -0.034230836 0.0032057047 -0.00041410048 -0.00032899622 -0.016243193 -0.0237184
00000000: 6079 b239 c352 59bd 08fd a1bd c2ba 94bd
00000010: 5cc1 493d f7b8 9d39 743d ae3d 1041 233d
00000020: 6cd4 953c c0ae 9e3c 20af a33d 7d76 f5bc
00000030: 0432 e33c 007e 4d3d 0e4e 423d 21ef 85bd
00000040: 7ea8 bfbd 63ee dbbc 781a 64bc 7b96 783c
00000050: de52 b4bd f18d 07bd 7cf1 183d c9dd dcbc
00000060: 1405 d4bd be8f a6bd 53b0 b4bd 788b b33c
00000070: 7c89 08bb a8d9 d33d c44f 7e3d 0af5 92bc
00000080: 327a 66bd ba63 1d3c 424b 84bd 44e8 753d
00000090: 93da 623c b60e eb3a 0813 663c e62e 30bd
000000a0: 9d4f b53c 858f 88bd 94bd 41bd 953f 553c
000000b0: ab43 1c3d 3166 473d e80e 08bc 11bc 4b3d
000000c0: 794a cabd 88bc 833d 9664 b53d 62ad 593d
000000d0: ff06 c83c 5c1e 313d 186e 3ebd 579d 04bc
000000e0: 4a1a 15bd 1fe0 9bbb ce8e 0abe 2d92 1e3c
000000f0: dcdf 2c3d e641 02bd 4b2e 8cbc 62b5 1d3d
00000100: d861 283c b228 67bd 9fa2 2c3c 9432 6bbd
00000110: 92b8 86bd 520e 41bd c5f5 b7bd fce6 ae3c
00000120: fcaf 9fbc 5885 643d e050 56bd 28ef 5e3d
00000130: e51b 243d f0b9 a5bd dd1e c3bb a2d1 83bc
00000140: ec05 92bd 46c8 08bd 2d24 ddbb 30c2 c8bd
00000150: 41ff d03b d068 223c 5cde 9bbd 7c4d c3bd
00000160: 828d 09bc 7690 28bd ffe7 8abc e2c5 e5bd
00000170: 8481 13bd cc2a 1d3d a777 6ebd 6bbd 20bd
00000180: 4ba1 40bd 38d4 f4bd 3ac1 833c 2f84 03be
00000190: 6066 973d 6682 41bc 803b 21bc 95be 12bc
000001a0: 99df 03be 500c 283d bb6c 87bc 16c9 b3bc
000001b0: 7e15 543d 68f9 e3bd 0b97 8b3c 6675 a7bc
000001c0: b19c a6bc 507e 5d3d 7ec2 a1bd 77d1 df3d
000001d0: 3ec9 a73d df37 01bd 12c9 bdbc 91d1 debc
000001e0: 408f 463c c432 c53c e4f9 f93c e01c 56b8
000001f0: 890d 69bd b2b8 8b3d 5ae8 353d 40c8 1dba
00000200: 5002 90bb ce35 193d 865d bbbd da8e d5bd
00000210: 9c38 873c a25d 3ebd f03e 75bd 7bb5 1dbe
00000220: 24d4 5abd 20de 5abd 940d 683d 6fab bf3d
00000230: 3c95 bdbc 4d94 083d 2d09 d83c 31e5 fbbd
00000240: aad9 46bd 1089 bf3c 50a1 edbc 4eaa e4bc
00000250: 5c6d 79bc 66f1 87bd 6cd4 4dbd 88f9 a7bd
00000260: aa9e 5cbd 1645 d43c 0d5d 7dbd 154c 663c
00000270: 84d9 493c bd4b aa3d 0d6a 02bd d09e d0bd
00000280: 0c38 09bd 7607 b13c db9e 48bd 4c16 88bd
00000290: 5e28 70bd b4d7 8b3d 9664 02bd f92e 3d3d
000002a0: 1787 86bd 8a6e c73b 08ce d0bd 6e16 b5bc
000002b0: 6aff c93d e5f8 85bd 48b1 a1bc 8041 c7bd
000002c0: bc0a 2cbd c92d bd3c 5aa2 5dbd c675 e2bb
000002d0: a036 d03c 42e5 e2bd b83c 62bc b8fe 9a3b
000002e0: 624a d93d 3d48 62bd 7082 a2bd 374a 263d
000002f0: 5441 79bd ece6 4dbd 6ee9 aa3d 2640 aa3c
00000300: 3451 d53d 5b15 153d 03ab 8f3c 519e febd
00000310: 3ae9 d63c f2e7 943c 90df 49bd beba 53bd
00000320: bb07 29bd eda8 913d 6c35 92bd 1adc acbd
00000330: 8058 e7bc 18ef ffbc 3e24 9e3d bac8 1e3d
00000340: 90dc a7bd a478 53bd facd 963b acc3 a6bc
00000350: e81f 64bd e0e5 30ba 0eec c0bd 8470 71bd
00000360: 4935 98bd 989f 2bbd 9641 923d a2f8 9f3c
00000370: e2c9 143c 7735 1e3d 2d0d c8bc 9eeb e73c
00000380: b2b9 a6bd 42ec 2a3d d210 56bc 3857 cabd
00000390: 42f9 873d 4c95 803c 51a3 533d 0af2 cebd
000003a0: 3ca9 80bd 7b55 7b3d b958 863d ebf4 38bd
000003b0: 7241 513d a090 80bc 6613 3abd 86b6 c9bd
000003c0: 0835 73bc 599a a53b b3a6 20bc dfd8 8ebd
000003d0: 58f3 8b3d cee9 2c3d 47d4 2fbd 7014 26bd
000003e0: 3cb6 853d 649c bcbd a235 0cbd cd16 523b
000003f0: a01b d9b9 207d acb9 7210 85bc 174d c2bc

fc2.bias f4 [64]
-0.042412862 0.017530736 -0.07236723 0.040361613 -0.058818396 0.0869765 -0.076031566 0.035970733
-0.030033942 -0.054977395 0.009940423 -0.085728884 -0.020372292 -0.078504264 0.021268079 0.072695255
0.027516227 -0.01775409 -0.045363396 -0.020100862 0.006171481 -0.045626413 -0.076749384 0.038924426
0.05522602 -0.03767609 -0.032612495 0.074773125 -0.007680252 0.012137435 0.07801744 0.074127235
0.061713636 -0.047907956 0.08571622 -0.019601684 -0.080893286 0.08497965 0.036963876 -0.024451748
0.066395625 0.061594915 0.07626612 0.025896594 0.025647571 -0.024454623 0.06804739 -0.011832645
0.038534448 0.024280239 -0.00070997234 0.0061214594 0.042530116 -0.053608045 0.0021514914 -0.031687133
-0.075170815 0.001616223 -0.0792364 -0.047958262 0.049772613 0.08447675 -0.018160537 -0.034609903
00000000: 1cb9 2dbd 9e9c 8f3c 4535 94bd 3852 253d
00000010: 8feb 70bd bc20 b23d 70b6 9bbd 0c56 133d
00000020: be09 f6bc fa2f 61bd 28dd 223c a092 afbd
00000030: cbe3 a6bc d8c6 a0bd 653a ae3c 40e1 943d
00000040: b669 e13c 0671 91bc f8ce 39bd 90aa a4bc
00000050: 233a ca3b c3e2 3abd c82e 9dbd 386f 1f3d
00000060: ae34 623d 3e52 1abd ae94 05bd a722 993d
00000070: a0aa fbbb 18dc 463c 9cc7 9f3d 05d0 973d
00000080: 70c7 7c3d 223b 44bd fc8b af3d b693 a0bc
00000090: 61ab a5bd d009 ae3d 6f67 173d 084f c8bc
000000a0: 6efa 873d f34a 7c3d 6931 9c3d 1825 d43c
000000b0: db1a d23c 1055 c8bc 6e5c 8b3d b6dd 41bc
000000c0: 4cd6 1d3d 5ae7 c63c 701d 3aba 8696 c83b
000000d0: 0f34 2e3d 1c94 5bbd 0900 0d3b 5eca 01bd
000000e0: 28f3 99bd 72d7 d33a b246 a2bd e26f 44bd
000000f0: 5ede 4b3d 2502 ad3d 68c5 94bc 1dc3 0dbd

bn2.weight f4 [64]
0.9488071 0.9796551 0.95173156 0.9180058 0.98241305 1.0271275 1.0094153 1.0728644
0.98191786 1.0266883 0.9542179 0.9835664 1.0093827 0.98342705 1.0118446 0.9206747
1.0293441 0.99856615 1.018554 1.0174595 0.964459 1.0667146 0.9676423 1.0218136
0.9871818 0.9624568 1.0180697 1.0040675 0.9458277 0.9473114 0.9572809 0.91087353
1.0028429 0.93652713 1.014262 0.9713558 0.95816517 0.965587 0.9629522 0.96666074
1.0162634 0.98488605 1.0292866 0.9725535 0.9398142 1.0203905 1.0770729 1.0425391
1.0196316 0.9720495 1.0027533 0.97946036 0.9813024 0.9850246 0.9933301 1.009681
0.9746094 0.9933846 1.0023961 0.9405534 1.0042285 1.1138685 1.0147443 0.96332335
00000000: 06e5 723f adca 7a3f aea4 733f 6e02 6b3f
00000010: 6c7f 7b3f ea78 833f 8534 813f 9f53 893f
00000020: f85e 7b3f 866a 833f a047 743f 02cb 7b3f
00000030: 7433 813f e0c1 7b3f 2084 813f 56b1 6b3f
00000040: 8cc1 833f 08a2 7f3f fa5f 823f 1d3c 823f
00000050: c9e6 763f 1b8a 883f 68b7 773f caca 823f
00000060: f2b7 7c3f 9263 763f 1c50 823f 4985 803f
00000070: c421 723f 0083 723f 5c10 753f 022f 693f
00000080: 285d 803f 3ec0 6f3f 56d3 813f c6aa 783f
00000090: 504a 753f b630 773f 0984 763f 1477 773f
000000a0: eb14 823f 7e21 7c3f aabf 833f 44f9 783f
000000b0: aa97 703f 289c 823f 86dd 893f ec71 853f
000000c0: 4a83 823f 3cd8 783f 385a 803f eabd 7a3f
000000d0: a236 7b3f 922a 7c3f e24a 7e3f 3a3d 813f
000000e0: 0080 793f 744e 7e3f 844e 803f 1cc8 703f
000000f0: 8f8a 803f 3e93 8e3f 24e3 813f 5c9c 763f

bn2.bias f4 [64]
-0.036030732 -0.06573884 -0.029122846 -5.960092e-05 -0.06509446 0.058390744 0.035740975 0.06183551
0.00096447696 -0.018736131 -0.0907668 -0.016308598 -0.004054405 -0.03509469 0.013485461 -0.030214798
0.018799577 -0.026153754 0.017621893 0.034912903 -0.040119987 0.00954493 -0.026010903 -0.03551266
0.032686062 -0.010915365 0.008681765 -0.012612948 -0.046332918 -0.019303882 -0.034384437 -0.040469885
0.019369299 0.018648116 0.008301349 0.004353418 -0.020985968 -0.050299317 -0.035988793 0.0030729158
-0.00041376147 -0.019699384 0.00017990265 0.016167238 -0.069605336 0.016210321 0.009845911 0.023555523
0.034637358 -0.07361702 -0.005893516 -0.05190889 -0.0059921835 0.03317437 -0.033261146 -0.005680223
-0.0074806157 -0.045266267 -0.01988551 -0.04514025 -0.017756918 0.0118302535 -0.0056645116 -0.0359172
00000000: f694 13bd 16a2 86bd 0993 eebc 00fc 79b8
00000010: 3f50 85bd 222b 6f3d 2165 123d 3b47 7d3d
00000020: f4d4 7c3a 847c 99bc f2e3 b9bd 9c99 85bc
00000030: d0da 84bb 73bf 0fbd 1ff2 5c3c 0685 f7bc
00000040: 9201 9a3c 6640 d6bc ca5b 903c d500 0f3d
00000050: db54 24bd 5762 1c3c d114 d5bc b975 11bd
00000060: d2e1 053d 5cd6 32bc f63d 0e3c 8aa6 4ebc
00000070: 96c7 3dbd 2d23 9ebc b2d6 0cbd c0c3 25bd
00000080: 5dac 9e3c efc3 983c 6202 083c 1ea7 8e3b
00000090: c4ea abbc a806 4ebd fc68 13bd f962 493b
000000a0: 20ee d8b9 9a60 a1bc 40a4 3c39 2871 843c
000000b0: 3e8d 8ebd 82cb 843c be50 213c 83f7 c03c
000000c0: e7df 0d3d 85c4 96bd 651e c1bb 6b9e 54bd
000000d0: 145a c4bb d9e1 073d d73c 08bd 2a21 babb
000000e0: f41f f5bb 1f69 39bd f0e6 a2bc fce4 38bd
000000f0: f576 91bc aed3 413c 5e9d b9bb ea1d 13bd

bn2.running_mean f4 [64]
-0.5431713 -0.8172276 0.037677564 0.74827945 0.46596363 -0.95692575 -0.96748877 -0.0938748
-0.69411075 0.26122794 0.3905381 -0.4235583 0.13697012 0.3095206 -0.113790005 -0.2756908
0.024844613 0.5371803 -1.0847387 -0.088544644 0.87934977 -0.1348207 -0.39205322 0.17081915
-1.1886547 -0.15618604 -0.51854056 -0.15563232 0.33067983 -0.8025344 -0.4776349 0.01134932
-0.10448949 -1.0680416 0.2411108 -0.94645816 -0.066513866 0.7036458 0.6639669 -0.7117243
0.21251915 -0.08193918 0.398919 -1.2331955 0.7576327 -0.5365336 -0.12965919 -0.17842618
-0.11250202 0.21607938 -0.23194858 -0.4652534 -0.38472307 -0.121645495 0.51125574 0.30815327
-0.8151833 0.1703792 -0.24883656 -0.5096998 -0.530412 -0.06432381 -0.2956736 0.6753599
00000000: 460d 0bbf d435 51bf ca53 1a3d 3e8f 3f3f
00000010: c992 ee3e 16f9 74bf 58ad 77bf 6e41 c0bd
00000020: 3eb1 31bf abbf 853e 9cf4 c73e a2dc d8be
00000030: e541 0c3e 7c79 9e3e bc0a e9bd 5827 8dbe
00000040: ee86 cb3c a684 093f b8d8 8abf e556 b5bd
00000050: 111d 613f 700e 0abe 33bb c8be 37eb 2e3e
00000060: d625 98bf 3cef 1fbe 13bf 04bf 145e 1fbe
00000070: de4e a93e e572 4dbf 908c f4be 80f2 393c
00000080: 96fe d5bd 96b5 88bf c0e5 763e 154b 72bf
00000090: 6c38 88bd 2222 343f bcf9 293f 9033 36bf
000000a0: 9f9e 593e bbcf a7bd 1c3f cc3e 5ad9 9dbf
000000b0: 37f4 413f 445a 09bf 61c5 04be 5ab5 36be
000000c0: 7667 e6bd ea43 5d3e ee83 6dbe b235 eebe
000000d0: 6cfa c4be 4621 f9bd a8e1 023f 44c6 9d3e
000000e0: daaf 50bf e377 2e3e 03cf 7ebe b07b 02bf
000000f0: 15c9 07bf 34bc 83bd 8862 97be 63e4 2c3f

bn2.running_var f4 [64]
0.64564294 0.39224148 0.1912488 0.5877511 0.39740178 1.7041314 1.6213741 0.4763589
0.8544196 0.23276605 0.5269346 0.45372677 0.5807505 0.45757028 0.3331254 0.18536401
0.632997 0.55208915 1.4726291 0.2052854 0.41778308 0.7558576 0.46831048 0.38351116
1.1119761 0.25873837 0.63510436 0.66933614 0.16925476 0.72299004 0.7581738 0.1930498
0.47393602 0.3547423 0.40046895 1.1618814 0.61382186 0.60626876 0.34354246 0.30345535
0.35932833 0.54719555 0.38806707 1.2720016 0.43624422 0.5910291 0.5365193 0.3077712
0.7853917 0.45485398 0.7302985 0.9714385 0.43320346 0.29295325 0.3301552 0.34040302
0.2955003 0.34121513 0.2857157 0.80826074 0.3070891 0.36670706 0.5377214 0.21240163
00000000: db48 253f e0d3 c83e bad6 433e db76 163f
00000010: 3f78 cb3e fa20 da3f 3089 cf3f 50e5 f33e
00000020: 3ebb 5a3f 395a 6e3e 30e5 063f e04e e83e
00000030: 11ac 143f a746 ea3e 6a8f aa3e 10d0 3d3e
00000040: 170c 223f b755 0d3f 1c7f bc3f 5636 523e
00000050: aae7 d53e e27f 413f 64c6 ef3e 935b c43e
00000060: 3c55 8e3f 5b79 843e 3396 223f 9d59 2b3f
00000070: 1f51 2d3e e015 393f ae17 423f d9ae 453e
00000080: bea7 f23e c8a0 b53e 440a cd3e 88b8 943f
00000090: 6e23 1d3f 6e34 1b3f cce4 af3e 805e 9b3e
000000a0: e2f9 b73e 0215 0c3f bab0 c63e f3d0 a23f
000000b0: 675b df3e af4d 173f 5459 093f 3094 9d3e
000000c0: 6e0f 493f 9fe2 e83e d8f4 3a3f 32b0 783f
000000d0: d8cc dd3e f8fd 953e 1a0a a93e 4e49 ae3e
000000e0: d14b 973e c0b3 ae3e 5449 923e 2dea 4e3f
000000f0: c83a 9d3e 07c1 bb3e 1ca8 093f d07f 593e

bn2.num_batches_tracked f8 []
8166.0
00000000: 0000 0000 00e6 bf40

fc3.weight f4 [32, 64]
0.10661601 -0.049023896 0.0031124938 0.053991906 0.092678465 0.02693604 -0.06990433 -0.004531987
0.04982133 0.027097344 -0.062106684 -0.08283366 0.12902194 0.03503926 -0.036645696 -0.09643003
0.13020864 -0.12128353 -0.12791583 0.07363834 -0.07398306 0.12958243 0.060001425 -0.17148022
-0.0087280935 0.028235959 -0.050811466 0.04870595 0.05336473 -0.09243338 0.092663184 -0.06740725
0.0106073 -0.102983296 0.053971216 -0.1362749 0.02879509 -0.03657889 0.055998452 -0.023290675
-0.083601765 0.12968244 0.069107786 -0.11806295 -0.025568858 -0.00413444 -0.04720709 0.09204608
-0.039724343 -0.12901002 -0.07324436 0.06275909 -0.14360261 -0.041724745 -0.10000299 0.11988081
-0.044766147 -0.13386202 -0.053123113 -0.007605534 0.046325035 -0.049940277 0.038866304 -0.02227305
0.028110512 0.032828964 0.07157306 0.044281203 -0.10582186 0.121738404 0.13010725 -0.02866524
0.016755946 0.1325554 0.078731254 -0.1455269 -0.10434436 -0.011469787 0.09729724 -0.07741819
-0.10843682 -0.054463815 0.11288625 -0.12873276 0.07366539 0.043974593 -0.07740228 -0.04987349
-0.14094776 0.03452524 0.008021213 0.05827103 -0.11275385 -0.0071217576 -0.061040044 0.07691848
-0.070796564 0.0023870436 -0.013861524 -0.0063452404 0.12751429 0.07325746 0.09858021 -0.10809295
-0.09923117 -0.07769027 0.042380244 -0.08879812 0.0034110446 0.052380912 0.1409195 -0.002326198
-0.009614336 -0.103781104 -0.094060965 -0.046052735 0.043516904 0.011657805 -0.14857861 -0.015876245
0.067346424 0.10953582 0.15315017 -0.12740123 -0.052760277 0.16123798 0.04327808 -0.044400282
-0.0017229877 -0.06777996 -0.024200553 -0.10060042 -0.024939066 0.145915 0.118425824 0.014246056
0.06903794 0.09497355 0.015097094 0.020477831 -0.12751219 0.12998244 -0.12193442 -0.08615853
0.0048285066 0.0861195 0.12345175 -6.363378e-05 0.08522313 -0.01933451 -0.074796975 -0.08045138
-0.060708962 0.13093969 -0.11245224 -0.10871724 0.085193194 0.010530112 0.047779113 0.029746518
0.032718107 -0.013811407 -0.09797445 -0.0016410267 -0.066201605 -0.05382312 -0.0105300825 -0.07450897
-0.13127664 0.011088351 0.061247185 -0.048905484 -0.08721857 0.019258607 0.107635304 0.04002793
0.16702546 -0.04662653 0.009494765 -0.03349606 0.0104178935 -0.044490583 -0.056480296 0.12391743
0.11677072 0.11240983 0.12194278 -0.06909741 -0.051233478 0.09697914 0.015324101 -0.0048411028
0.05985736 -0.09116699 0.07164825 -0.053735375 0.09716746 0.049623646 -0.10666406 -0.10592526
0.07589654 -0.056047976 0.071948305 0.089403115 0.030933201 -0.0484038 0.075126424 0.07060531
-0.039743807 -0.12810148 0.009540037 0.074215434 -0.031561732 0.06770368 -0.0018962667 -0.1015847
0.12727135 0.027025975 -0.012251765 -0.04183273 0.08243498 -0.110323794 -0.10139772 -0.003449755
0.15859058 -0.07218278 0.092821136 -0.067457125 -0.035838336 -0.04668662 0.046115644 0.03298591
0.055196047 0.010594996 0.002203764 0.0032629825 -0.046657085 0.14957945 0.082475476 0.1169993
-0.015634412 0.00047703972 -0.05918026 -0.028752271 0.03438056 0.011861981 0.06314309 -0.08103399
0.091131315 0.034245834 -0.10053863 -0.054388348 0.112964466 -0.020907938 -0.04177448 0.016901953
00000000: 7f59 da3d 48cd 48bd fbfa 4b3b 9e26 5d3d
00000010: 35ce bd3d f8a8 dc3c 002a 8fbd 1081 94bb
00000020: 7311 4c3d 40fb dd3c 9463 7ebd b2a4 a9bd
00000030: 541e 043e 5485 0f3d cc19 16bd 1c7d c5bd
00000040: 6a55 053e 8063 f8bd 5efc 02be b3cf 963d
00000050: 6e84 97bd 42b1 043e 0ec4 753d 8398 2fbe
00000060: 4700 0fbc 194f e73c af1f 50bd e47f 473d
00000070: fa94 5a3d b64d bdbd 32c6 bd3d d00c 8abd
00000080: 3eca 2d3c e8e8 d2bd ec10 5d3d a68b 0bbe
00000090: aee3 eb3c bfd3 15bd a25e 653d 16cc bebc
000000a0: 6737 abbd 79cb 043e 6288 8d3d fdca f1bd
000000b0: c875 d1bc 327a 87bb 395c 41bd a882 bc3d
000000c0: feb5 22bd 341b 04be 2401 96bd d687 803d
000000d0: 900c 13be 91e7 2abd 5ece ccbd 1284 f53d
000000e0: b55c 37bd 2013 09be 9f97 59bd d837 f9bb
000000f0: 52bf 3d3d 2d8e 4cbd 4632 1f3d f975 b6bc
00000100: 0448 e63c aa77 063d e594 923d 3560 353d
00000110: 22b9 d8bd fc51 f93d d63a 053e 5ed3 eabc
00000120: c443 893c 9abc 073e da3d a13d 0105 15be
00000130: 7fb2 d5bd c6eb 3bbc c643 c73d 6e8d 9ebd
00000140: 2014 debd 7315 5fbd e830 e73d 85d2 03be
00000150: e1dd 963d b41e 343d 1685 9ebd 2548 4cbd
00000160: 9c54 10be 576a 0d3d 686b 033c 9bad 6e3d
00000170: 7eeb e6bd a25d e9bb 2005 7abd 7087 9d3d
00000180: cafd 90bd f26f 1c3b 721b 63bc bceb cfbb
00000190: 1b93 023e 0208 963d 6ce4 c93d d65f ddbd
000001a0: b639 cbbd 141c 9fbd e896 2d3d cadb b5bd
000001b0: d58b 5f3b 5e8d 563d 344d 103e 2073 18bb
000001c0: 7385 1dbc 308b d4bd 09a3 c0bd cba1 3cbd
000001d0: c83e 323d 6100 3f3c fe24 18be e60e 82bc
000001e0: ecec 893d 5154 e03d 66d3 1c3e 7875 02be
000001f0: 291b 58bd 921b 253e 5b44 313d 12dd 35bd
00000200: e0d5 e1ba 38d0 8abd 3d40 c6bc 9807 cebd
00000210: 034d ccbc be6a 153e 3d89 f23d 4a68 693c
00000220: c363 8d3d 7e81 c23d cd59 773c 20c1 a73c
00000230: 8e92 02be 1e1a 053e c1b8 f9bd e273 b0bd
00000240: 7338 9e3b 6c5f b03d 45d4 fc3d 2073 85b8
00000250: 7789 ae3d 6863 9ebc 282f 99bd b1c3 a4bd
00000260: f6a9 78bd 0e15 063e 5c4d e6bd 25a7 debd
00000270: c579 ae3d 7e86 2c3c 08b4 433d f8ae f33c
00000280: 6c03 063d 3d49 62bc d4a6 c8bd b817 d7ba
00000290: b594 87bd a275 5cbd 5e86 2cbc 2998 98bd
000002a0: 626d 06be eaab 353c 54de 7a3d 1e51 48bd
000002b0: a69f b2bd 3ac4 9d3c e66f dc3d 54f4 233d
000002c0: b908 2b3e 76fb 3ebd ee8f 1b3c 2a33 09bd
000002d0: d0af 2a3c c23b 36bd e257 67bd 6cc8 fd3d
000002e0: 7d25 ef3d 2037 e63d 23bd f93d f182 8dbd
000002f0: 32da 51bd 009d c63d f011 7b3c 1da2 9ebb
00000300: fe2c 753d c2b5 babd 51bc 923d a019 5cbd
00000310: bcff c63d 2a42 4b3d b072 dabd 58ef d8bd
00000320: a56f 9b3d 9092 65bd a259 933d fb18 b73d
00000330: a067 fd3c 1043 46bd e2db 993d 8499 903d
00000340: 67ca 22bd 092d 03be d14d 1c3c 43fe 973d
00000350: e046 01bd 3aa8 8a3d 278c f8ba a40b d0bd
00000360: 6c53 023e 9465 dd3c a0bb 48bc cc58 2bbd
00000370: acd3 a83d 71f1 e1bd 9ca9 cfbd 4915 62bb
00000380: 9265 223e 91d4 93bd 0219 be3d f626 8abd
00000390: 38cb 12bd 783a 3fbd c2e3 3c3d 3c1c 073d
000003a0: 4015 623d a296 2d3c 066d 103b c3d7 553b
000003b0: 801b 3fbd 5b2b 193e e7e8 a83d 549d ef3d
000003c0: bd13 80bc 301b fa39 0067 72bd e289 ebbc
000003d0: a1d2 0c3d c158 423c 2a51 813d 26f5 a5bd
000003e0: 0ea3 ba3d 5c45 0c3d 32e7 cdbd 51c6 5ebd
000003f0: ea59 e73d 2047 abbc b81b 2bbd f775 8a3c

fc3.bias f4 [32]
-0.09824386 0.11730243 0.08701846 -0.10857824 0.047002766 -0.02233543 0.032134417 0.01116024
-0.12653396 -0.079016775 -0.10614373 0.051579285 -0.04977174 0.11971481 -0.06717819 -0.11693116
0.044399012 0.061702415 0.07157774 0.011079894 -0.09355344 0.11805829 0.04923676 -0.0039086146
0.07197 0.102737695 -0.10727039 -0.014180718 -0.0710334 -0.11242149 -0.07513168 -0.057709947
00000000: 1434 c9bd 423c f03d bc36 b23d 455e debd
00000010: f985 403d cbf8 b6bc 619f 033d 70d9 363c
00000020: 1e92 01be 8cd3 a1bd e261 d9bd cd44 533d
00000030: 74dd 4bbd 0a2d f53d b894 89bd 9b79 efbd
00000040: bddb 353d acbb 7c3d 5a97 923d 7288 353c
00000050: f298 bfbd 8bc8 f13d 7cac 493d d613 80bb
00000060: 0265 933d 2468 d23d 94b0 dbbd 3e56 68bc
00000070: f679 91bd 3d3d e6bd a3de 99bd 4461 6cbd

bn3.weight f4 [32]
1.3020747 1.3691332 1.2797291 1.3158967 1.2975605 1.3628492 1.3142097 1.4201767
1.2785199 1.2958379 1.3714671 1.4046812 1.3272142 1.3906353 1.3024282 1.4198823
1.3515363 1.3011591 1.4049442 1.2842734 1.3726696 1.2995262 1.3009992 1.2793202
1.3296292 1.417474 1.2660367 1.3875477 1.392448 1.4022624 1.2972624 1.2835464
00000000: 62aa a63f c23f af3f 2ace a33f 4e6f a83f
00000010: 7616 a63f d871 ae3f 0638 a83f 5ac8 b53f
00000020: 8aa6 a33f 04de a53f 3c8c af3f 98cc b33f
00000030: 28e2 a93f 5600 b23f f8b5 a63f b4be b53f
00000040: 24ff ac3f 628c a63f 36d5 b33f 1263 a43f
00000050: a3b3 af3f e056 a63f 2487 a63f c4c0 a33f
00000060: 4a31 aa3f ca6f b53f 7e0d a23f 2a9b b13f
00000070: bc3b b23f 567d b33f b20c a63f 404b a43f

bn3.bias f4 [32]
0.21380803 0.28787714 0.22128865 0.2439419 0.22716591 0.27321106 0.22109044 0.1050719
0.2501905 0.21567465 0.30075997 0.11453718 0.3187394 0.081772566 0.26768667 0.289001
0.31386167 0.062361926 0.35429287 0.23852089 0.3453862 0.22707625 0.23747289 0.21018225
0.25631306 0.0989862 0.21134076 0.11557898 0.291141 0.10402112 0.2483607 0.22357099
00000000: 7ef0 5a3e a264 933e 7e99 623e e8cb 793e
00000010: 2e9e 683e 52e2 8b3e 8865 623e f02f d73d
00000020: f818 803e d1d9 5c3e 36fd 993e 7892 ea3d
00000030: d031 a33e 6078 a73d 3a0e 893e f0f7 933e
00000040: 7ab2 a03e 386f 7f3d e065 b53e d23e 743e
00000050: 76d6 b03e ad86 683e 182c 733e 043a 573e
00000060: 773b 833e 47b9 ca3d b669 583e acb4 ec3d
00000070: 6f10 953e 0609 d53d 4452 7e3e cbef 643e

bn3.running_mean f4 [32]
-0.39104164 0.16085428 0.30085245 0.066944905 0.12292232 -0.014757486 -0.20629974 -0.3519422
-0.4082548 -0.050754335 0.041144814 -0.16665304 -0.20884478 0.13114463 0.018124174 -0.2681763
-0.16591021 -0.20042717 -0.10353475 -0.057841197 -0.37174165 0.18935888 0.12937467 0.17691736
0.2717039 0.06903984 0.019380663 -0.23510161 -0.32819957 -0.24489546 -0.4759243 -0.29921484
00000000: 9c36 c8be fcb6 243e 5509 9a3e 691a 893d
00000010: b3be fb3d 62c9 71bc 3d40 53be c531 b4be
00000020: c606 d1be c7e3 4fbd 7787 283d 18a7 2abe
00000030: 68db 55be c74a 063e 2679 943c 674e 89be
00000040: 5ee4 29be c83c 4dbe 070a d4bd e4ea 6cbd
00000050: ec54 bebe 4be7 413e cb7a 043e d329 353e
00000060: c61c 8b3e c264 8d3d 32c4 9e3c 7abe 70be
00000070: c609 a8be e0c5 7abe 5aac f3be b032 99be

bn3.running_var f4 [32]
0.15138991 0.74339616 0.6289836 0.21616387 0.45373243 0.20927641 0.13188353 0.2767812
0.23130758 0.38052326 0.54689777 0.36690664 0.28429607 0.22463012 0.25469127 0.255087
0.5122074 0.3962487 0.2401666 0.21358559 0.42568147 0.244997 0.31458512 0.4032338
0.325718 0.24607113 0.48352528 0.20422082 0.1449033 0.41131827 0.38874203 0.1346334
00000000: f505 1b3e 364f 3e3f 1205 213f 105a 5d3e
00000010: 9e4f e83e 8e4c 563e 7a0c 073e 44b6 8d3e
00000020: e5db 6c3e f2d3 c23e 7e01 0c3f 30db bb3e
00000030: 418f 913e 7005 663e e566 823e c39a 823e
00000040: 0620 033f 1ce1 ca3e 3cee 753e 2eb6 5a3e
00000050: ecf2 d93e 7ee0 7a3e 4d11 a13e a974 ce3e
00000060: 82c4 a63e 12fa 7b3e a090 f73e 431f 513e
00000070: 8861 143e 4f98 d23e 3209 c73e 57dd 093e

bn3.num_batches_tracked f8 []
8166.0
00000000: 0000 0000 00e6 bf40

fc4.weight f4 [1, 32]
-0.39927527 -0.22235249 -0.3555929 -0.34033006 -0.38527814 -0.22971624 -0.39619043 0.41882077
-0.36326468 -0.29389054 -0.2337062 0.39406914 -0.2218684 0.3906228 -0.3925992 -0.24361578
-0.25064236 0.2981332 -0.23269728 -0.340148 -0.22136688 -0.18900818 -0.21414822 -0.34806597
-0.34170032 0.4505332 -0.3076542 0.4372068 -0.22621115 0.45425582 -0.31357294 -0.35527048
00000000: cf6d ccbe 5fb0 63be 4610 b6be be3f aebe
00000010: 2d43 c5be bc3a 6bbe 79d9 cabe ad6f d63e
00000020: d4fd b9be d278 96be ae50 6fbe 6ec3 c93e
00000030: 7831 63be b6ff c73e c302 c9be 6a76 79be
00000040: 3254 80be eaa4 983e 3248 6ebe e127 aebe
00000050: 00ae 62be 5c8b 41be ac49 5bbe b435 b2be
00000060: 58f3 aebe 4aac e63e da84 9dbe 92d9 df3e
00000070: e5a3 67be 3894 e83e a28c a0be 03e6 b5be
