examples/hello-world/ml-to-fl/pt/fraudnet_stochastic/jobs/workdir/server/simulate_job/app_server/best_FL_global_model.pt (torch, 68336 bytes, 22 tensors)

fc1.weight f4 [128, 30]
0.054153737 0.075702935 -0.23492628 0.031422243 -0.27264178 0.1363959 -0.02265811 0.26208776
0.14978977 0.18648185 0.14564219 -0.036346834 0.24550326 0.053531684 0.08538964 0.26478693
0.3690722 0.27523923 0.27451512 0.0112276785 0.09817727 0.17831361 0.05020027 -0.12803306
-0.033362713 -0.109145015 0.0691076 -0.0434351 -0.058780916 0.06387985 -0.0024933978 0.4202469
-0.19747938 0.38540137 -0.57309866 -0.020118289 0.22842765 0.44995084 0.30630702 0.50420594
0.45433742 -0.55231434 0.688033 0.31601098 0.56375104 0.019876264 0.40429568 0.39580518
0.27016592 0.037611753 0.019431137 -0.1445921 -0.13745263 0.09567672 0.019613545 -0.03695882
0.032599077 -0.19848835 -0.48872924 -0.068704076 0.08557241 0.36164895 -0.053288773 0.019865997
-0.290623 -0.06994856 0.27090335 0.37004393 0.067604035 0.25616458 0.04050038 -0.4225532
0.26670778 0.09854843 0.11162123 -0.12631601 0.02900229 0.37180778 0.24406113 -0.312699
-0.09689162 0.027661212 -0.28105122 -0.22477199 -0.18945217 -0.11974983 0.19183697 -0.009646574
-0.25028682 0.09960139 0.083803535 0.31761825 -0.18877631 0.23947766 -0.40255874 0.304655
0.26251155 0.365941 -0.0052507194 0.12790786 0.42894185 -0.27435848 0.32237926 0.18796436
0.31221864 0.106510654 0.3541273 0.4191761 0.26330644 -0.3192849 -0.2245154 -0.09020946
-0.13669913 -0.02600144 0.0554549 0.09649655 0.14029542 0.18129437 -0.04671708 -0.1743601
0.00030879886 0.36346573 -0.83245 0.6096484 -0.9346544 0.1367911 0.43520904 0.4609126
-0.038139056 0.83091235 1.083115 -1.0861385 1.2576783 0.38350856 1.1741786 0.02524221
0.73273826 0.8855438 0.39760703 -0.07704117 -0.04341237 -0.21261932 -0.27741244 0.25305557
-0.27773264 0.07553832 -0.10885598 -0.25947726 -0.0006019026 0.020966377 0.012691833 0.08421247
-0.3626912 0.4253072 -0.4902826 0.34061742 0.0761299 0.1917601 0.13534814 0.21846986
0.25858307 -0.46963975 0.48279727 0.23777379 0.38633424 0.25061655 0.3683384 0.27570215
0.24540722 0.0099594705 0.26123062 -0.11393581 -0.013976999 -0.056125488 0.2899091 -0.32980257
0.025222097 -0.40601116 -0.2044229 0.14762942 0.0036666654 -0.21642318 0.21465157 -0.20776767
0.2728295 -0.12240045 -0.016685493 -0.13007095 0.20785147 0.09700818 -0.45709753 0.309867
-0.12840307 -0.14176491 -0.50532985 -0.075995766 -0.28297675 -0.10981992 -0.14001745 -0.1253337
-0.3139032 0.25085115 -0.15443416 -0.09452607 -0.3560902 0.08093515 -0.07638595 0.37471956
-0.024545742 -0.2550326 -0.21004316 -0.030650266 -0.059181448 -0.037975915 0.09865766 0.014245516
-0.11608343 0.06613293 -0.05496415 0.20764458 0.11175572 -0.15535605 -0.12967181 0.20037588
-0.025338545 -0.0064595384 0.14482379 -0.13894032 -0.07760328 0.15869829 0.20592052 0.17090595
0.19129021 0.054148607 -0.11279588 -0.20179826 -0.1982829 -0.15193838 -0.15802327 0.029683294
0.006920486 -0.21548265 0.21418044 -0.28863344 0.6582653 0.119688824 -0.34194052 -0.21722183
0.16567001 -0.3655311 -0.32298052 0.5199829 -0.65034866 -0.17445989 -0.6713318 -0.17016783
00000000: 4fd0 5d3d 240a 9b3d 8490 70be 9cb4 003d
00000010: b497 8bbe 5eab 0b3e 809d b9bc 5e30 863e
00000020: 7d62 193e 19f5 3e3e 3a23 153e 6be0 14bd
00000030: 3565 7b3e 0a44 5b3d c3e0 ae3d 2792 873e
00000040: 08f7 bc3e 28ec 8c3e 3f8d 8c3e 4cf4 373c
00000050: 2a11 c93d d897 363e cc9e 4d3d 191b 03be
00000060: 57a7 08bd 6c87 dfbd 4988 8d3d 01e9 31bd
00000070: 42c4 70bd 70d3 823d 4668 23bb 9a2a d73e
00000080: 0938 4abe 5453 c53e 98b6 12bf 1ccf a4bc
00000090: f0e8 693e f55f e63e 46d4 9c3e a413 013f
000000a0: ea9e e83e 7964 0dbf ee22 303f 31cc a13e
000000b0: fd51 103f 8cd3 a23c d8ff ce3e faa6 ca3e
000000c0: 3053 8a3e c80e 1a3d 0c2e 9f3c f40f 14be
000000d0: 62c0 0cbe 28f2 c33d 96ac a03c 2262 17bd
000000e0: 9c86 053d 8840 4bbe b83a fabe b9b4 8cbd
000000f0: 9640 af3d 0d2a b93e 5445 5abd 04be a23c
00000100: 8acc 94be 3141 8fbd d8b3 8a3e 6676 bd3e
00000110: fc73 8a3d 0128 833e bae3 253d e558 d8be
00000120: ec8d 883e c2d3 c93d ac99 e43d fc58 01be
00000130: 3696 ed3c 975d be3e 29eb 793e 151a a0be
00000140: 1d6f c6bd c499 e23c f2e5 8fbe a12a 66be
00000150: c0ff 41be 663f f5bd e970 443e aa0c 1ebc
00000160: 9825 80be d0fb cb3d 30a1 ab3d dc9e a23e
00000170: 944e 41be a239 753e 2e1c cebe bdfb 9b3e
00000180: ea67 863e 9e5c bb3e 3a0e acbb 47fa 023e
00000190: 449e db3e b778 8cbe e50e a53e bb79 403e
000001a0: 1fdb 9f3e 4222 da3d 2c50 b53e 409e d63e
000001b0: 1ad0 863e 4f79 a3be 5de7 65be bdbf b8bd
000001c0: dbfa 0bbe f900 d5bc ad24 633d fc9f c53d
000001d0: 9aa9 0f3e 3ba5 393e 695a 3fbd 748b 32be
000001e0: 48e6 a139 2e18 ba3e 711b 55bf eb11 1c3f
000001f0: 8345 6fbf f712 0c3e b8d3 de3e bcfc eb3e
00000200: b337 1cbd acb6 543f 83a3 8a3f 9606 8bbf
00000210: 9afb a03f 3c5b c43e 7c4b 963f c0c8 ce3c
00000220: bc94 3b3f 00b3 623f 2693 cb3e c3c7 9dbd
00000230: 2bd1 31bd e1b8 59be 0109 8ebe 8090 813e
00000240: f932 8ebe d6b3 9a3d e2ef debd 34da 84be
00000250: 00c9 1dba aec1 ab3c 68f1 4f3c 9677 ac3d
00000260: a9b2 b9be dec1 d93e 5206 fbbe 6865 ae3e
00000270: fee9 9b3d c25c 443e b498 0a3e 90b6 5f3e
00000280: 0065 843e 9f74 f0be 3431 f73e f97a 733e
00000290: 9acd c53e d050 803e da96 bc3e d528 8d3e
000002a0: 084c 7b3e 0c2d 233c 05c0 853e 2e57 e9bd
000002b0: c8ff 64bc d7e3 65bd f76e 943e e2db a8be
000002c0: 929e ce3c b2e0 cfbe 3d54 51be 2b2c 173e
000002d0: 704c 703b 0a9e 5dbe 9fcd 5b3e 0cc1 54be
000002e0: 4fb0 8b3e 16ad fabd 04b0 88bc 5231 05be
000002f0: 04d7 543e 3aac c63d b008 eabe e3a6 9e3e
00000300: 187c 03be d22a 11be 4c5d 01bf aba3 9bbd
00000310: 54e2 90be 44e9 e0bd bc60 0fbe 7a57 00be
00000320: ecb7 a0be 906f 803e fd23 1ebe e296 c1bd
00000330: 7451 b6be 54c1 a53d 3d70 9cbd 3edb bf3e
00000340: 2714 c9bc a293 82be 8e15 57be 4416 fbbc
00000350: 3f68 72bd a28c 1bbd 070d ca3d 0666 693c
00000360: 26bd edbd b470 873d 1722 61bd c8a0 543e
00000370: 2fe0 e43d a815 1fbe b0c8 04be 562f 4d3e
00000380: c892 cfbc 89aa d3bb b04c 143e 5f46 0ebe
00000390: 78ee 9ebd ce81 223e d4dc 523e f801 2f3e
000003a0: 95e1 433e eeca 5d3d 8701 e7bd 34a4 4ebe
000003b0: ac0a 4bbe bc95 1bbe dad0 21be 612a f33c
000003c0: 3fc5 e23b 7ca7 5cbe 1e52 5b3e c3c7 93be
000003d0: 1384 283f 6a1f f53d d412 afbe 666f 5ebe
000003e0: 66a5 293e e426 bbbe b45d a5be 991d 053f
000003f0: 407d 26bf 9da5 32be 67dc 2bbf 7a40 2ebe

fc1.bias f4 [128]
0.099567205 0.14990067 -0.093809426 0.041822106 -0.13728449 -0.022655051 0.109427825 -0.13876462
0.17208096 0.033158094 0.17500865 -0.046297833 -0.036739375 -0.15705779 0.17876014 -0.12584576
0.0046263 -0.09035056 0.17919594 0.070497066 0.15102872 -0.11980565 0.011182195 0.15862525
0.1364373 -0.026322793 -0.17344528 -0.118103534 0.03706654 -0.02235823 0.15712121 -0.08290325
0.111125365 -0.040494967 -0.0021324786 -0.15629147 0.08469057 -0.14204891 0.16054769 -0.16831903
-0.034098104 0.030988213 0.0059156697 0.10615739 -0.13272083 -0.026324892 0.028161816 -0.07718877
-0.03978719 -0.08405277 -0.054062694 0.054777715 0.101923466 -0.041116692 -0.16112411 -0.15022594
0.09044384 -0.09679027 0.022979956 0.08925246 -0.10284622 -0.1803938 0.06877784 -0.076087624
0.04288946 -0.010591492 -0.0064845625 -0.12082274 0.079304695 -0.0038978085 -0.08818573 0.13398051
0.13571566 -0.06360105 -0.0786088 0.023941778 -0.14757685 -0.13517138 0.020293674 -0.13283052
0.16845757 0.0022196854 -0.130386 -0.1118841 -0.048372515 -0.026007183 0.15800819 -0.11715007
-0.00991172 0.09758913 -0.13270324 0.06339803 0.14553265 -0.044909313 0.15954907 0.03126592
-0.008845723 -0.013676932 -0.119435236 -0.13829912 -0.078605264 0.020185236 0.13526411 -0.15449172
-0.025746934 0.11264409 -0.048854686 -0.123797536 0.17225108 0.052471206 -0.17471597 -0.025059521
-0.13630117 -0.10469107 0.094933614 0.071599804 -0.017310191 0.16954787 0.14081691 0.118175544
0.06700601 0.11735408 -0.00713607 -0.13926443 -0.07336424 0.043100305 0.1391845 0.18019441
00000000: e4e9 cb3d 907f 193e 281f c0bd a84d 2b3d
00000010: 4e94 0cbe 1697 b9bc b21b e03d 5018 0ebe
00000020: fe35 303e c8d0 073d 7835 333e cca2 3dbd
00000030: 077c 16bd c2d3 20be e60c 373e b6dd 00be
00000040: 3898 973b b709 b9bd 247f 373e c460 903d
00000050: 46a7 1a3e aa5c f5bd 8635 373c a86e 223e
00000060: 38b6 0b3e e6a2 d7bc a49b 31be 44e0 f1bd
00000070: 16d3 173d 9b28 b7bc 62e4 203e 2ec9 a9bd
00000080: b295 e33d 0dde 25bd 0ec1 0bbb df0a 20be
00000090: 4072 ad3d 4575 11be 9d66 243e d35b 2cbe
000000a0: 74aa 0bbd feda fd3c 3cd8 c13b 0c69 d93d
000000b0: f8e7 07be 4da7 d7bc 9cb3 e63c 2515 9ebd
000000c0: e4f7 22bd dc23 acbd d870 5dbd 995e 603d
000000d0: 40bd d03d fa69 28bd b8fd 24be d4d4 19be
000000e0: 9f3a b93d fa39 c6bd 7640 bc3c fec9 b63d
000000f0: 0aa1 d2bd 27b9 38be 65db 8c3d d4d3 9bbd
00000100: dcac 2f3d f087 2dbc 747c d4bb ea71 f7bd
00000110: 806a a23d 6072 7fbb b89a b4bd 3032 093e
00000120: 0cf9 0a3e 4441 82bd a7fd a0bd 8c21 c43c
00000130: 631e 17be 5e6a 0abe eb3e a63c b904 08be
00000140: 2480 2c3e 2478 113b e883 05be 7e23 e5bd
00000150: 4222 46bd 040d d5bc e6cc 213e 60ec efbd
00000160: c464 22bc cfdc c73d 5ce3 07be d4d6 813d
00000170: 8306 153e d4f2 37bd d560 233e b110 003d
00000180: a7ed 10bc 3615 60bc 769a f4bd 499e 0dbe
00000190: ccfb a0bd 825b a53c ad82 0a3e 1433 1ebe
000001a0: 3ceb d2bc f2b1 e63d da1b 48bd 9089 fdbd
000001b0: 9662 303e 0cec 563d bee8 32be a049 cdbc
000001c0: 8992 0bbe 4668 d6bd 8e6c c23d eba2 923d
000001d0: 1ace 8dbc f59d 2d3e 4f32 103e 0506 f23d
000001e0: 723a 893d 5657 f03d b2d5 e9bb 569b 0ebe
000001f0: fe3f 96bd f289 303d 6286 0e3e e284 383e

bn1.weight f4 [128]
0.93838555 0.9631769 0.9659836 0.9835268 0.9539647 0.92173445 0.91718 0.930159
0.9996821 0.9237157 0.9694843 0.97433674 0.88755465 0.9941595 0.94629884 0.9895588
0.9397222 0.9511793 0.9534059 0.9482659 0.98948836 0.98283964 0.9739908 0.9729803
0.9296432 0.9446976 0.9779312 0.99438393 0.9916719 0.9469341 0.98312265 0.8917663
0.98672014 0.9206362 0.9408136 0.9835176 0.9462563 0.9119525 0.9782498 1.0017354
0.97050846 0.9783672 1.0292332 0.9619764 0.99570227 0.94878983 0.9956253 0.9387604
0.9324301 0.9410131 0.965429 0.94383806 0.99592555 0.9306473 0.940821 0.93774617
0.96131074 0.95046496 0.9034318 0.9983337 0.9418154 0.9496832 0.93538976 0.9595808
0.97861063 0.98226583 0.93358064 0.9842494 0.9741857 1.0310168 0.9205077 0.91905785
0.98969173 1.0153325 0.9176028 0.9599445 0.95548224 1.002862 0.91767824 0.95669293
0.9331379 0.9320383 0.93174046 0.9148265 1.0002967 0.93290734 0.97678673 0.9841585
0.8940569 0.9545083 0.9335893 0.9149249 0.9469135 0.95647395 0.9298134 0.9411007
0.9933493 0.9349638 0.95004666 0.91990876 0.99229443 0.9300052 1.0018324 0.9192426
0.97477794 0.8904634 1.0869772 0.96278006 0.9878411 0.994969 0.96322525 0.9299316
0.89217174 0.91321826 1.0197134 0.9835557 0.93969744 0.97048324 0.95572627 0.9028672
0.94839656 0.98290265 0.91110575 0.93384755 0.9694043 0.97122455 0.92062056 0.95669544
00000000: 093a 703f c392 763f b44a 773f 6ac8 7b3f
00000010: 0837 743f caf6 6b3f 4fcc 6a3f e61e 6e3f
00000020: 2beb 7f3f a278 6c3f 2030 783f 226e 793f
00000030: c836 633f 3d81 7e3f a440 723f ba53 7d3f
00000040: a291 703f 7d80 733f 6912 743f 8ec1 723f
00000050: 1c4f 7d3f 619b 7b3f 7657 793f 3d15 793f
00000060: 19fd 6d3f b4d7 713f b359 7a3f f28f 7e3f
00000070: 36de 7d3f 466a 723f edad 7b3f cc4a 643f
00000080: b199 7c3f d0ae 6b3f 29d9 703f cfc7 7b3f
00000090: da3d 723f b875 693f 946e 7a3f de38 803f
000000a0: 3e73 783f 4676 7a3f eabd 833f 1644 763f
000000b0: 58e6 7e3f e4e3 723f 4de1 7e3f 9a52 703f
000000c0: bdb3 6e3f 3ce6 703f 5b26 773f 5f9f 713f
000000d0: faf4 7e3f e73e 6e3f a5d9 703f 2210 703f
000000e0: 7618 763f ac51 733f 4e47 673f cc92 7f3f
000000f0: d01a 713f 701e 733f b475 6f3f 16a7 753f
00000100: 3a86 7a3f c675 7b3f 24ff 6e3f c5f7 7b3f
00000110: 3c64 793f 5cf8 833f 65a6 6b3f 6047 6b3f
00000120: 705c 7d3f 6af6 813f 04e8 6a3f ecbe 753f
00000130: 7c9a 743f c85d 803f f6ec 6a3f d4e9 743f
00000140: 20e2 6e3f 109a 6e3f 8b86 6e3f 1232 6a3f
00000150: b909 803f 04d3 6e3f b20e 7a3f d0f1 7b3f
00000160: eae0 643f a85a 743f b5ff 6e3f 8538 6a3f
00000170: ec68 723f 7adb 743f 4008 6e3f faeb 703f
00000180: 244c 7e3f ca59 6f3f 4236 733f 247f 6b3f
00000190: 0207 7e3f d214 6e3f 0b3c 803f 7c53 6b3f
000001a0: 0c8b 793f 69f5 633f 1222 8b3f c178 763f
000001b0: 28e3 7c3f 4ab6 7e3f ee95 763f ff0f 6e3f
000001c0: 5e65 643f acc8 693f f885 823f 4eca 7b3f
000001d0: 0390 703f 9771 783f 7aaa 743f 4e22 673f
000001e0: 1eca 723f 829f 7b3f 3a3e 693f a210 6f3f
000001f0: e12a 783f 2ca2 783f caad 6b3f fee9 743f

bn1.bias f4 [128]
-0.07627623 -0.105683975 -0.061109815 -0.040041026 -0.13724773 -0.08118436 -0.08066973 -0.09050331
-0.07698129 -0.059997715 0.019763745 -0.033746958 -0.10247216 -0.09656197 -0.08275931 -0.10539666
-0.076413944 -0.06377961 -0.06393845 -0.035925444 0.17368041 -0.049616225 -0.04959616 -0.02427029
-0.07593256 -0.0746814 -0.013646606 -0.06537764 -0.05497022 -0.076376334 -0.030775428 -0.04457989
0.012514843 -0.10265677 -0.077325754 -0.04184638 -0.043093383 -0.08688612 -0.053200163 -0.0118324505
-0.13961184 -0.053603373 -0.059017822 -0.07048435 -0.007346723 -0.07723693 -6.444566e-05 -0.09282169
-0.05369667 -0.073306784 -0.06698434 -0.06790687 -0.018876966 -0.06578943 -0.10957782 -0.07820868
-0.07385299 -0.057985082 -0.06226736 -0.045089204 -0.047965094 -0.08495843 -0.03558422 -0.047327913
-0.056993555 -0.06773283 -0.10348244 -0.0042310525 -0.017813778 -0.057523124 -0.045036145 -0.113205306
-0.025067644 -0.09268625 -0.06256837 -0.058273263 -0.059433997 0.0026409896 -0.07593646 -0.06794381
-0.07383228 -0.066900544 -0.093465224 -0.07451799 -0.089093916 -0.08256786 -0.043491416 -0.042441957
-0.13538933 -0.051613294 -0.11143014 -0.086637944 -0.04988838 -0.05620384 -0.07934602 -0.055396084
-0.00039998116 -0.09850708 -0.07037734 -0.139446 -0.124696836 -0.06871986 -0.036166094 -0.060469083
-0.012021419 -0.08846997 0.33384115 -0.08895512 -0.035981584 -0.040350355 -0.048987567 -0.060609646
-0.13408057 -0.10528509 0.2092502 -0.10362193 -0.10363166 -0.09563573 -0.04342916 -0.102841124
-0.08227859 -0.04376896 -0.09263648 -0.09568097 -0.04538463 -0.06466623 -0.13500331 -0.0505376
00000000: b636 9cbd d770 d8bd 494e 7abd 0f02 24bd
00000010: ab8a 0cbe fc43 a6bd 2c36 a5bd cd59 b9bd
00000020: 5ea8 9dbd 2ac0 75bd 94e7 a13c 403a 0abd
00000030: ecdc d1bd 48c2 c5bd b77d a9bd 34da d7bd
00000040: ea7e 9cbd e29e 82bd 29f2 82bd 8f26 13bd
00000050: 47d9 313e 623a 4bbd 5825 4bbd 7dd2 c6bc
00000060: 8882 9bbd 90f2 98bd 0496 5fbc b6e4 85bd
00000070: 7428 61bd 326b 9cbd c01c fcbc 6799 36bd
00000080: 0e0b 4d3c b63d d2bd f75c 9ebd 1c67 2bbd
00000090: b082 30bd 5af1 b1bd 6ae8 59bd e5dc 41bc
000000a0: 68f6 0ebe 368f 5bbd acbc 71bd 195a 90bd
000000b0: c8bc f0bb 652e 9ebd 0027 87b8 4c19 bebd
000000c0: 0af1 5bbd de21 96bd 162f 89bd c212 8bbd
000000d0: dea3 9abc 9cbc 86bd 566a e0bd df2b a0bd
000000e0: 3d40 97bd c481 6dbd 0f0c 7fbd 75af 38bd
000000f0: 0c77 44bd affe adbd c2c0 11bd eada 41bd
00000100: 1372 69bd 83b7 8abd 9aee d3bd a4a4 8abb
00000110: 33ee 91bc 5e9d 6bbd d277 38bd 2fd8 e7bd
00000120: a95a cdbc 4ad2 bdbd d823 80bd f2af 6ebd
00000130: 1071 73bd 7414 2d3b 9384 9bbd 2026 8bbd
00000140: 6135 97bd 2703 89bd b26a bfbd e39c 98bd
00000150: df76 b6bd 5719 a9bd 0e24 32bd 9ed7 2dbd
00000160: 80a3 0abe 7668 53bd 7c35 e4bd 3c6f b1bd
00000170: c257 4cbd ff35 66bd 2b80 a2bd 01e7 62bd
00000180: 90b4 d1b9 14be c9bd ff21 90bd efca 0ebe
00000190: 0e61 ffbd ffbc 8cbd e622 14bd 6eae 77bd
000001a0: 7cf5 44bc be2f b5bd 3aed aa3e 1a2e b6bd
000001b0: 6d61 13bd 6a46 25bd 30a7 48bd d241 78bd
000001c0: 6b4c 09be b69f d7bd af45 563e bc37 d4bd
000001d0: d63c d4bd aadc c3bd c6e2 31bd 5e9e d2bd
000001e0: ad81 a8bd 1547 33bd 32b8 bdbd 62f4 c3bd
000001f0: 3ce5 39bd ba6f 84bd 4f3e 0abe 8400 4fbd

bn1.running_mean f4 [128]
4927.2544 -246.1804 7813.8135 7674.196 20.377502 1161.9524 320.55756 -19147.547
674.38513 -396.68674 6965.9897 14846.767 -1315.1055 -353.2333 4715.2163 191.94522
597.6368 7858.491 2825.651 4177.9478 -397.159 214.30182 -14381.59 -611.44836
620.79364 219.52528 2756.976 435.09103 -2540.5586 415.1733 1053.3833 -850.1908
1313.1086 -244.89848 268.9795 341.43622 4418.7705 1182.3843 7144.276 -7007.036
70.15145 134.38261 264.53207 199.51143 -3920.2917 -357.38242 -678.0111 388.89865
-405.50186 5420.875 5597.871 783.5913 8271.76 -3720.984 501.97205 -8874.642
3071.5125 -3075.432 496.40588 2145.088 748.6273 -92.67063 -187.98395 1572.3187
209.76935 -135.61153 -10.830463 3603.8618 -4210.095 -171.66518 -531.24475 568.6968
1992.2312 280.8244 1066.7218 2857.2588 -18438.137 7333.7007 960.6309 -138.28383
551.68445 566.7136 6274.462 -856.89685 -2996.1914 4659.6924 16.067898 861.55774
-345.2256 -690.9434 215.10258 -508.31488 224.02884 5375.7666 -289.44168 701.80414
-3038.4897 2543.7095 8875.49 -575.86816 -68.52396 -311.74005 -381.84573 311.5855
6510.062 -1872.1162 11.767546 62.80634 928.26324 115.35518 -14252.996 -5096.7183
586.95105 387.412 365.23526 -3833.8916 -199.63828 302.7293 3276.4084 -434.00204
377.3286 957.91345 -698.6753 -3854.62 -5026.599 4310.7334 47.90718 619.1068
00000000: 09fa 9945 2f2e 76c3 822e f445 91d1 ef45
00000010: 2005 a341 7a3e 9144 5e47 a043 1897 95c6
00000020: a698 2844 e757 c6c3 ebaf d945 11fb 6746
00000030: 6063 a4c4 dd9d b0c3 bb59 9345 faf1 3f43
00000040: c168 1544 ee93 f545 6a9a 3045 958f 8245
00000050: 5a94 c6c3 444d 5643 5cb6 60c6 b2dc 18c4
00000060: cb32 1b44 7986 5b43 9e4f 2c45 a78b d943
00000070: f0c8 1ec5 2f96 cf43 44ac 8344 368c 54c4
00000080: 7a23 a444 03e6 74c3 607d 8643 d6b7 aa43
00000090: 2a16 8a45 4ccc 9344 3542 df45 4af8 dac5
000000a0: 8b4d 8c42 f361 0643 1b44 8443 ed82 4743
000000b0: ab04 75c5 f3b0 b2c3 b680 29c4 0773 c243
000000c0: 3dc0 cac3 0067 a945 f8ee ae45 d8e5 4344
000000d0: 0a3f 0146 be8f 68c5 6cfc fa43 91aa 0ac6
000000e0: 33f8 3f45 e936 40c5 f433 f843 6811 0645
000000f0: 2628 3b44 5d57 b9c2 e4fb 3bc3 338a c444
00000100: f4c4 5143 8d9c 07c3 9449 2dc1 ca3d 6145
00000110: c390 83c5 49aa 2bc3 aacf 04c4 982c 0e44
00000120: 6607 f944 8669 8c43 1957 8544 2494 3245
00000130: 460c 90c6 9b2d e545 6128 7044 a948 0ac3
00000140: ceeb 0944 acad 0d44 b213 c445 6639 56c4
00000150: 1043 3bc5 8a9d 9145 0e8b 8041 b263 5744
00000160: e09c acc3 61bc 2cc4 431a 5743 4e28 fec3
00000170: 6207 6043 22fe a745 89b8 90c3 7773 2f44
00000180: d6e7 3dc5 5afb 1e45 f6ad 0a46 90f7 0fc4
00000190: 440c 89c2 bade 9bc3 41ec bec3 f2ca 9b43
000001a0: 7f70 cb45 b803 eac4 de47 3c41 b139 7b42
000001b0: d910 6844 dab5 e642 fcb3 5ec6 bf45 9fc5
000001c0: debc 1244 bcb4 c143 1d9e b643 449e 6fc5
000001d0: 66a3 47c3 5a5d 9743 89c6 4c45 4300 d9c3
000001e0: 10aa bc43 767a 6f44 38ab 2ec4 ece9 70c5
000001f0: cb14 9dc5 deb5 8645 f4a0 3f42 d6c6 1a44

bn1.running_var f4 [128]
8.0320185e+06 27224.402 2.0577912e+07 1.6772332e+07 21647.932 366736.44 542028.25 1.0016736e+08
235176.55 40696.84 1.3826995e+07 6.021698e+07 1.9047918e+06 71251.94 8.436665e+06 21723.299
99835.484 2.5698678e+07 6.2123185e+06 7.9306125e+06 86396.88 15714.543 5.831033e+07 116427.22
220481.25 76980.92 6.2888235e+06 122388.72 3.4860645e+06 128618.48 1.3918365e+06 248652.5
504889.88 28110.088 259052.52 71220.92 1.2110641e+07 436644.94 1.3946318e+07 2.527681e+07
4667.8975 17703.059 41834.05 23333.246 7.297766e+06 37233.375 130010.28 46061.152
260480.88 1.4113184e+07 1.6895072e+07 192994.44 1.9172542e+07 1.0382351e+07 105941.94 2.5421636e+07
4.1659052e+06 5.3474535e+06 77672.82 2.600005e+06 163400.92 5352.8833 195177.64 2.521749e+06
85601.46 7016.7827 4549.323 6.4689285e+06 8.443358e+06 16257.083 81409.375 94490.9
3.7001948e+06 47989.344 378591.44 3.3018338e+06 9.288109e+07 2.6581944e+07 266729.5 77909.15
88429.17 134034.77 1.7031434e+07 203820.17 4.836458e+06 1.3602573e+07 6193.834 209449.05
68061.5 150400.06 36789.195 75310.17 377978.94 1.4682973e+07 55813.99 135659.6
4.124815e+06 4.2543365e+06 2.1511984e+07 100674.52 2796.4595 112799.77 134241.75 31929.662
1.5792853e+07 943069.0 388.4544 5861.5054 303783.3 20446.6 5.615305e+07 1.6713378e+07
116605.97 49661.062 72079.9 7.9744885e+06 36870.71 49531.176 8.1588695e+06 98240.91
82938.21 247880.92 137656.81 6.716e+06 1.392858e+07 7.855058e+06 76964.875 101309.24
00000000: 251e f54a ceb0 d446 3cff 9c4b ecec 7f4b
00000010: dd1f a946 0e12 b348 c454 0449 d80d bf4c
00000020: 23aa 6548 d7f8 1e47 b3fb 524b a5b5 654c
00000030: be84 e849 f829 8b47 b9bb 004b 99b6 a946
00000040: befd c247 bb10 c44b bd95 bd4a e905 f24a
00000050: 71be a847 2c8a 7546 ae6f 5e4c 9c65 e347
00000060: 5050 5748 765a 9647 6feb bf4a 5c0a ef47
00000070: c2c5 544a 3d35 fb47 e4e6 a949 20d3 7248
00000080: 3c87 f648 2d9c db46 21fb 7c48 761a 8b47
00000090: 31cb 384b 9e34 d548 cecd 544b c5d8 c04b
000000a0: 2edf 9145 1e4e 8a46 0d6a 2347 7e4a b646
000000b0: ccb5 de4a 6071 1147 24ed fd47 27ed 3347
000000c0: 3860 7e48 a059 574b 30e6 804b 9c78 3c48
000000d0: 5f46 924b 0f6c 1e4b f8ea ce47 a2f3 c14b
000000e0: 4544 7e4a fb30 a34a 69b4 9747 14b1 1e4a
000000f0: 3b92 1f48 1147 a745 699a 3e48 54ea 194a
00000100: bb30 a747 4346 db45 962a 8e45 816a c54a
00000110: ded5 004b 5504 7e46 b000 9f47 738d b847
00000120: 8bd7 614a 5875 3b47 eedb b848 2787 494a
00000130: 1828 b14c dccd ca4b 303d 8248 932a 9847
00000140: 96b6 ac47 b1e4 0248 85f0 814b 0b0b 4748
00000150: d498 934a 0d8f 4f4b ac8e c145 438a 4c48
00000160: c0ee 8447 04e0 1248 32b5 0f47 1617 9347
00000170: 5e8f b848 5d0b 604b fd05 5a47 e67a 0448
00000180: 3cc2 7b4a 01d5 814a 981f a44b 43a1 c447
00000190: 5ac7 2e45 e34f dc47 7018 0348 5373 f946
000001a0: d5fa 704b d03d 6649 2a3a c243 0b2c b745
000001b0: ea54 9448 33bd 9f46 f634 564c a206 7f4b
000001c0: fcbe e347 10fd 4147 f3c7 8c47 b15c f34a
000001d0: b606 1047 2d7b 4147 2bfd f84a 74e0 bf47
000001e0: 1bfd a147 3b12 7248 346e 0648 c0f4 cc4a
000001f0: 8488 544b a4b7 ef4a 7052 9647 9fde c547

bn1.num_batches_tracked f8 []
8574.0
00000000: 0000 0000 00bf c040

fc2.weight f4 [64, 128]
-0.021560337 0.038308587 0.00613498 -0.072540835 0.005639592 0.0031413971 0.08459279 0.07088177
-0.02226427 -0.070774876 -0.010562495 -0.035089724 -0.025952205 0.026529722 -0.10585079 -0.1033414
-0.026111966 0.01975515 -0.047213983 -0.10882935 0.029860862 -0.039609484 0.05159945 -0.006745439
0.09317286 0.05926247 -0.1464391 0.030903304 -0.034912597 0.015232338 -0.04362788 -0.04227961
-0.1198649 -0.0016907474 -0.011242563 0.07951544 0.043062154 0.017989453 -0.10115858 -0.058169603
0.032901797 0.030204844 -0.008787529 -0.08117397 0.0054488094 -0.012085943 0.10137534 -0.0061739325
-0.025572341 0.04363489 -0.0057377024 -0.040757228 -0.06694205 -0.045566063 0.032925352 -0.04361242
-0.043154813 -0.013394167 -0.062260658 -0.11464375 0.077549845 0.007383906 -0.04879763 -0.06405462
-0.032248262 0.09718397 -0.039381985 -0.057903826 0.0045793117 -0.076268755 -0.0391241 -0.028030902
-0.08090648 0.027483257 -0.00013188343 -0.13672549 -0.019471787 0.03176378 0.029711457 0.018177591
0.042649865 -0.020301457 -0.08345497 0.04223445 -0.04170894 0.034426194 -0.06183789 -0.04386232
-0.046865728 -0.001659356 0.013210692 -0.005282575 -0.032406908 -0.049521 0.04144141 0.022355404
0.008404088 -0.007316158 0.00734966 -0.04898361 -0.06832752 0.10398341 0.11179042 -0.013087663
-0.034183048 -0.093796834 0.061897844 -0.058388032 0.09667508 0.09190598 0.04116015 0.080768496
-0.06133075 0.035226986 0.093945585 -0.011842625 -0.037835024 -0.015560085 -0.0978083 0.016180871
-0.013196968 -0.054711156 -0.043290682 0.0505637 0.045654364 -0.04340893 0.046484243 0.031650513
-0.003764479 0.07711862 0.0013091556 0.05653403 -0.019159354 0.08166655 0.05143161 -0.10824147
0.00030228775 -0.022944707 0.08611676 0.039944276 -0.046721622 -0.011655562 -0.008116491 0.0060629398
-0.08406065 0.045998268 -0.029182885 0.0049712355 -0.015196852 0.011489624 0.050547 0.017278135
-0.09394233 -0.06313352 0.05043039 0.020842103 -0.037894864 0.033922244 -0.0085718045 -0.06461808
-0.016104903 -0.02203034 0.073822305 0.011673117 0.0563327 0.022309188 -0.02158761 -0.019428171
0.04626529 0.0685022 -0.07174624 -0.06884991 0.03794814 -0.08872999 -0.023027332 0.07483685
0.03813646 0.08733472 0.05378224 0.08602258 0.10776523 -0.060202807 -0.008623963 -0.0023278538
0.0689279 -0.046659052 0.041531 0.03934651 -0.061964534 0.027152825 -0.09193747 -0.00072232075
-0.04154636 -0.017243953 -0.030899514 -0.013163804 -0.02503563 0.006592286 0.054641597 0.045087315
0.022494411 -0.024978489 -0.046985142 0.076836765 -0.034198567 0.056784466 0.022138555 -0.002496953
0.012026545 0.03357348 -0.052049965 -0.0066605713 0.004122035 0.091226175 -0.041242696 -0.013222756
-0.050715357 -0.00771386 0.0048433654 0.063400924 0.08327565 0.10600637 -0.023770474 0.06906088
-0.047338724 0.028565763 0.07764146 -0.001129101 0.013993351 -0.05117538 -0.097524814 0.050090503
0.097436026 -0.04490465 0.08144156 0.019841677 -0.07332089 -0.004711276 -0.016584996 -0.06032701
0.019386731 -0.061035022 0.009795058 -0.027433846 -0.0017022211 -0.063023925 -0.018184597 -0.047409616
0.0030180793 0.021329414 0.01112693 0.035970602 -0.08599037 -0.04860146 -0.020414181 -0.025092173
00000000: 4e9f b0bc 77e9 1c3d f107 c93b 4a90 94bd
00000010: 54cc b83b e6df 4d3b fc3e ad3d 762a 913d
00000020: 8f63 b6bc 6bf2 90bd 510e 2dbc 3eba 0fbd
00000030: b899 d4bc dc54 d93c 4dc8 d8bd a8a4 d3bd
00000040: c3e8 d5bc 8dd5 a13c 7363 41bd ece1 debd
00000050: c49e f43c 8e3d 22bd f259 533d d808 ddbb
00000060: 6ad1 be3d 34bd 723d 22f4 15be ed28 fd3c
00000070: 8300 0fbd 0e91 793c 26b3 32bd 622d 2dbd
00000080: bb7b f5bd 129c ddba ba32 38bc fed8 a23d
00000090: f161 303d 9e5e 933c 3b2c cfbd 4043 6ebd
000000a0: 09c4 063d 2670 f73c 91f9 0fbc 8a3e a6bd
000000b0: ed8b b23b 1e04 46bc e09d cf3d b34e cabb
000000c0: 167d d1bc 80ba 323d 5603 bcbb 0df1 26bd
000000d0: ea18 89bd 7ba3 3abd bcdc 063d f0a2 32bd
000000e0: 1ac3 30bd 3573 5bbc 0805 7fbd 58ca eabd
000000f0: 74d2 9e3d b1f4 f13b 06e0 47bd 122f 83bd
00000100: c116 04bd 6408 c73d 014f 21bd 902c 6dbd
00000110: 0d0e 963b cb32 9cbd 9840 20bd 10a1 e5bc
00000120: 4cb2 a5bd 9124 e13c 304a 0ab9 c401 0cbe
00000130: 4c83 9fbc bd1a 023d 7165 f33c 2ce9 943c
00000140: a0b1 2e3d 3e4f a6bc 70ea aabd 08fe 2c3d
00000150: fed6 2abd 7b02 0d3d ba49 7dbd faa8 33bd
00000160: 47f6 3fbd c07e d9ba a971 583c 7319 adbb
00000170: 1bbd 04bd 88d6 4abd 78be 293d ae22 b73c
00000180: 4db1 093c 62bc efbb 6bd5 f03b 0aa3 48bd
00000190: 4cef 8bbd 41f5 d43d 60f2 e43d a36d 56bc
000001a0: 8603 0cbd 8e18 c0bd 9888 7d3d 4a28 6fbd
000001b0: 96fd c53d 3439 bc3d 8c97 283d f469 a53d
000001c0: f435 7bbd 2c4a 103d 8b66 c03d 9207 42bc
000001d0: e6f8 1abd baef 7ebc b84f c8bd bf8d 843c
000001e0: 1838 58bc ce18 60bd 9251 31bd e21b 4f3d
000001f0: 1200 3b3d 90cd 31bd 4366 3e3d f8a3 013d
00000200: 7ab5 76bb 5ef0 9d3d f997 ab3a 3a90 673d
00000210: 14f4 9cbc cb40 a73d f4a9 523d b4ad ddbd
00000220: 607c 9e39 8af6 bbbc fc5d b03d 9c9c 233d
00000230: 2c5f 3fbd f8f6 3ebc 08fb 04bc a0ab c63b
00000240: fd27 acbd ae68 3c3d f210 efbc bfe5 a23b
00000250: 38fc 78bc fa3e 3c3c 5f0a 4f3d e08a 8d3c
00000260: d664 c0bd 264c 81bd 1990 4e3d 0fbd aa3c
00000270: a537 1bbd 0df2 0a3d c170 0cbc 7c56 84bd
00000280: 6eee 83bc f978 b4bc 2630 973d 9a40 3f3c
00000290: 1ebd 663d c2c1 b63c 80d8 b0bc d427 9fbc
000002a0: ac80 3d3d e24a 8c3d b1ef 92bd 2e01 8dbd
000002b0: 826f 1b3d 12b8 b5bd d1a3 bcbc 1044 993d
000002c0: fa34 1c3d 8cdc b23d c44a 5c3d 9b2c b03d
000002d0: 04b4 dc3d 3897 76bd 864b 0dbc e88e 18bb
000002e0: 122a 8d3d 901d 3fbd 691c 2a3d ce29 213d
000002f0: 86ce 7dbd 9a6f de3c b649 bcbd 205a 3dba
00000300: 842c 2abd 3143 8dbc fa20 fdbc ffac 57bc
00000310: 8617 cdbc 1a04 d83b decf 5f3d 7aad 383d
00000320: 3346 b83c b09f ccbc 7e73 40bd 985c 9d3d
00000330: cc13 0cbd d496 683d ea5b b53c eba3 23bb
00000340: fc0a 453c 5884 093d 5832 55bd ec40 dabb
00000350: 2312 873b cad4 ba3d 1aee 28bd 42a4 58bc
00000360: e8ba 4fbd 8cc4 fcbb 18b5 9e3b 58d8 813d
00000370: 6d8c aa3d de19 d93d 4cba c2bc ca6f 8d3d
00000380: 40e6 41bd bf02 ea3c 7c02 9f3d 58fe 93ba
00000390: 5e44 653c 469d 51bd 17bb c7bd b32b 4d3d
000003a0: 8a8c c73d f0ed 37bd d5ca a63d 038b a23c
000003b0: 4329 96bd 0c61 9abb 42dd 87bc 7419 77bd
000003c0: ecd0 9e3c dcff 79bd 737b 203c f2bc e0bc
000003d0: 101d dfba b012 81bd ddf7 94bc 9630 42bd
000003e0: f8ca 453b 06bb ae3c ba4d 363c e955 133d
000003f0: b81b b0bd 5312 47bd a43b a7bc 1a8e cdbc

fc2.bias f4 [64]
-0.010884181 0.013405293 0.06450514 -0.032841593 -0.044434704 0.021757435 0.056998484 0.050501168
0.029310457 0.057669 0.00806571 -0.035089098 -0.05756233 -0.0656349 0.013665532 -0.009914282
0.019929593 -0.042057034 -0.017826874 -0.073684275 0.06663114 0.006102137 -0.032214444 0.0079360325
0.021858413 -0.041573856 0.07937071 -0.012531042 0.06638911 -0.086415365 0.06514325 -0.087127954
0.07212956 -0.012380929 -0.002188524 -0.0050917277 0.073640764 -0.0658848 -0.052958265 -0.047268435
-0.073877744 -0.032717902 0.049782313 -0.08267389 -0.06891978 -0.07885314 0.057874996 -0.026833508
0.006879053 0.05904433 -0.07705447 0.035420038 -0.007928985 0.024221431 0.05439075 -0.069201306
-0.07742482 0.07538179 0.037760906 -0.0008113673 -0.054821264 -0.08199677 0.024509355 0.06861958
00000000: 9053 32bc e0a1 5b3c 451b 843d e884 06bd
00000010: 2a01 36bd a63c b23c 3e77 693d 50da 4e3d
00000020: 7c1c f03c 5436 6c3d 0a26 043c 96b9 0fbd
00000030: 7ac6 6bbd 976b 86bd 65e5 5f3c 836f 22bc
00000040: 6343 a33c ff43 2cbd aa09 92bc c8e7 96bd
00000050: e875 883d 6ff4 c73b 4bf3 03bd 2206 023c
00000060: 6a10 b33c 5949 2abd 1c8d a23d 004f 4dbc
00000070: 04f7 873d 8afa b0bd d369 853d 2470 b2bd
00000080: aab8 933d 61d9 4abc 576d 0fbb 82d8 a6bb
00000090: f8d0 963d 9cee 86bd c4ea 58bd 8c9c 41bd
000000a0: 374d 97bd 3503 06bd 8ae8 4b3d ee50 a9bd
000000b0: d025 8dbd c17d a1bd 550e 6d3d f2d1 dbbc
000000c0: ae69 e13b 78d8 713d bcce 9dbd 9a14 113d
000000d0: 93e8 01bc 066c c63c d6c8 5e3d 6ab9 8dbd
000000e0: e790 9ebd c561 9a3d 2eab 1a3d f0b1 54ba
000000f0: 438c 60bd eced a7bd d8c7 c83c 6c88 8c3d

bn2.weight f4 [64]
0.9925893 0.9620075 1.0536933 1.0225754 1.0027498 0.95046484 0.9639281 0.9778199
0.9201103 1.0776174 1.0140018 0.9575406 1.0279381 0.9727242 1.0093997 0.99682415
0.9210194 0.99203014 0.98291636 0.97252464 1.0111876 0.9932518 0.9618102 1.0323391
0.9716302 0.98529017 0.96843624 1.0122981 1.0112466 1.0020397 1.0344505 0.96400076
1.0325468 0.96979064 0.9574404 1.0538272 1.0403272 0.97883534 0.98658574 1.015982
1.0494268 0.9934752 1.008953 1.0125754 0.9426259 0.9382452 1.0152031 0.97573376
0.98965514 0.9795108 0.97265977 0.95738477 0.992167 0.983201 1.0013244 1.0271301
1.004564 1.0034257 0.9481392 1.0218544 0.98146343 0.9659725 0.98151207 0.9020972
00000000: 551a 7e3f 2046 763f 6cdf 863f c0e3 823f
00000010: 1b5a 803f aa51 733f fec3 763f 6852 7a3f
00000020: 598c 6b3f 5eef 893f d0ca 813f 6121 753f
00000030: 7a93 833f 7404 793f 0234 813f de2f 7f3f
00000040: edc7 6b3f b0f5 7d3f 68a0 7b3f 60f7 783f
00000050: 986e 813f c045 7e3f 3139 763f b023 843f
00000060: c2bc 783f fa3b 7c3f 70eb 773f fc92 813f
00000070: 8770 813f d642 803f e068 843f c1c8 763f
00000080: 7e2a 843f 3344 783f d01a 753f cfe3 863f
00000090: 7129 853f f494 7a3f e290 7c3f b30b 823f
000000a0: 9e53 863f 6454 7e3f 5f25 813f 129c 813f
000000b0: ee4f 713f d630 703f 2df2 813f b0c9 793f
000000c0: 0a5a 7d3f 38c1 7a3f 3b00 793f 2b17 753f
000000d0: a8fe 7d3f 10b3 7b3f 662b 803f 0079 833f
000000e0: 8e95 803f 4170 803f 40b9 723f 20cc 823f
000000f0: 3041 7b3f f949 773f 6044 7b3f d8ef 663f

bn2.bias f4 [64]
0.022339795 -0.020437777 -0.024256317 0.014759869 -0.04813528 -0.07180639 -0.030224483 -0.057803664
-0.0014639567 -0.054862443 -0.03606103 -0.036793277 -0.026818506 -0.034029726 0.021802893 -0.037669852
-0.02546414 -0.047609247 -0.04881931 -0.09674176 -0.047833905 0.017644553 -0.02726386 0.021360775
-0.00656799 -0.04875981 -0.012527822 -0.020434018 -0.00035518716 -0.022139937 -0.05895474 -0.039032906
0.029650703 -0.04181014 0.011092114 -0.04894486 0.016223378 0.07368502 0.021191686 -0.045168296
-0.042197667 -0.021000568 -0.0017490089 -0.06817112 -0.071917415 -0.03944266 -0.01626176 0.005705988
0.008900391 -0.06273872 -0.019623032 -0.0067519657 -0.016500479 -0.02161003 -0.09928757 -0.046070408
-0.016333675 -0.0101702195 -0.021173505 -0.01428363 0.014769794 -0.07396996 -0.006946598 -0.06160134
00000000: f201 b73c 206d a7bc 2fb5 c6bc 61d3 713c
00000010: 8029 45bd 3b0f 93bd 5699 f7bc 89c3 6cbd
00000020: 3ce2 bfba 71b7 60bd bbb4 13bd 8cb4 16bd
00000030: 7cb2 dbbc c162 0bbd fb9b b23c b44b 1abd
00000040: 2c9a d0bc ea01 43bd c2f6 47bd 8b20 c6bd
00000050: 7ced 43bd 4f8b 903c 7558 dfbc cbfc ae3c
00000060: 4b38 d7bb 5eb8 47bd 7e41 4dbc 3e65 a7bc
00000070: 6a38 bab9 d05e b5bc 877a 71bd f8e0 1fbd
00000080: 08e6 f23c 1c41 2bbd b3bb 353c 687a 48bd
00000090: e4e6 843c 2ce8 963d 309a ad3c 6402 39bd
000000a0: 76d7 2cbd 6209 acbc 003f e5ba 4d9d 8bbd
000000b0: 7049 93bd a08e 21bd 6237 85bc 4cf9 ba3b
000000c0: f2d2 113c 287d 80bd 7bc0 a0bc 983f ddbb
000000d0: 032c 87bc 8507 b1bc 4857 cbbd 53b4 3cbd
000000e0: 33ce 85bc fea0 26bc 0f74 adbc e305 6abc
000000f0: 02fd 713c 907d 97bd 4aa0 e3bb b051 7cbd

bn2.running_mean f4 [64]
-0.44008315 0.20315138 -0.36657673 -0.28733814 0.15594336 0.047276527 -0.77730894 0.84639704
-1.2378612 -0.21918541 -0.20368913 0.06397225 0.25540745 0.36971453 1.2824316 0.09951743
-1.038574 0.19459239 0.31791347 -0.032175303 0.39824542 -0.011254206 -0.93444765 0.35304865
0.066571385 -0.25223637 0.14038844 -0.14806381 -0.40190804 -0.2572455 -0.2970348 0.49539238
-0.35313767 -0.17608643 -1.1322451 -0.58311087 -0.26344138 -0.29749113 -0.7385446 0.4600173
-0.39644262 0.06816187 -0.7741125 0.41283077 0.44967872 0.322827 0.25753987 -0.79474026
-0.4498604 0.36348176 -0.16735387 -1.1137778 0.2857946 0.41929573 -0.033383783 -0.5054092
-0.34087485 0.079529926 -0.36577368 -0.27090418 -0.92484236 0.40161526 -0.32872736 -0.59387517
00000000: 9452 e1be ea06 503e f2af bbbe fc1d 93be
00000010: 9eaf 1f3e 08a5 413d b8fd 46bf 7aad 583f
00000020: 3c72 9ebf 2472 60be e293 50be e203 833d
00000030: c4c4 823e 394b bd3e b826 a43f cbcf cb3d
00000040: feef 84bf 3a43 473e 8ec5 a23e 40ca 03bd
00000050: d3e6 cb3e 9063 38bc f637 6fbf cbc2 b43e
00000060: 9456 883d 2025 81be fdc1 0f3e 0a9e 17be
00000070: e4c6 cdbe afb5 83be f214 98be 12a4 fd3e
00000080: 76ce b4be 0050 34be 68ed 90bf c146 15bf
00000090: cae1 86be c250 98be 4211 3dbf 6387 eb3e
000000a0: 87fa cabe 7398 8b3d 3d2c 46bf 8e5e d33e
000000b0: 4a3c e63e 9549 a53e 44dc 833e 1974 4bbf
000000c0: 1a54 e6be 481a ba3e d05e 2bbe 4590 8ebf
000000d0: ab53 923e eead d63e 6fbd 08bd 7f62 01bf
000000e0: 2687 aebe 96e0 a23d b046 bbbe f4b3 8abe
000000f0: 78c2 6cbf 84a0 cd3e f44e a8be 3408 18bf

bn2.running_var f4 [64]
0.59933996 0.4840638 0.58445656 1.029607 0.7966382 0.43316925 1.1929126 0.8718655
0.6191213 0.6616909 0.5528404 0.26329744 0.9737581 0.35841388 1.1466403 0.5486907
0.4752915 0.3229561 0.87715024 0.43522432 0.75473845 0.8557695 0.7808435 0.7807164
0.42092562 0.28360444 0.3800215 0.6147745 0.46498594 1.1702543 0.48540735 0.6527169
0.66438633 0.50410783 0.9769304 0.79489714 0.6329293 0.5079158 1.4616556 0.85193133
0.63171923 0.7386098 1.7040106 0.6609311 0.899183 0.38952982 0.5441457 0.86636126
0.8227966 0.31448412 0.27707255 1.3203442 0.27681237 0.6627399 0.38845813 0.62220377
0.65687084 0.7940043 0.69735634 0.3920347 1.0334542 0.39110118 0.84122825 0.38197207
00000000: 586e 193f 36d7 f73e f29e 153f 2aca 833f
00000010: 7bf0 4b3f 5cc8 dd3e 5cb1 983f 9432 5f3f
00000020: bc7e 1e3f 9364 293f f386 0d3f ecce 863e
00000030: 3648 793f 0682 b73e 1cc5 923f fe76 0c3f
00000040: 6859 f33e 805a a53e eb8c 603f b9d5 de3e
00000050: 8a36 413f b613 5b3f 5ce5 473f 08dd 473f
00000060: 9083 d73e 9a34 913e 2e92 c23e dd61 1d3f
00000070: a312 ee3e e5ca 953f 5087 f83e 7418 273f
00000080: 3915 2a3f 360d 013f 1c18 7a3f 617e 4b3f
00000090: a807 223f c506 023f 8817 bb3f 2c18 5a3f
000000a0: 5ab8 213f 8815 3d3f 051d da3f c832 293f
000000b0: db30 663f 7470 c73e 224d 0b3f dac9 5d3f
000000c0: cca2 523f 1004 a13e 74dc 8d3e 0a01 a93f
000000d0: 5aba 8d3e 52a9 293f fce3 c63e bf48 1f3f
000000e0: b028 283f de43 4b3f f285 323f c6b8 c83e
000000f0: 3a48 843f 6a3e c83e bc5a 573f d891 c33e

bn2.num_batches_tracked f8 []
8574.0
00000000: 0000 0000 00bf c040

fc3.weight f4 [32, 64]
-0.07922569 -0.0879519 0.16122198 0.13871498 -0.004892078 -0.0014784988 -0.06925824 -0.09687537
0.0148161 -0.075355716 -0.010574224 -0.0391626 0.12832975 -0.021206975 -0.085051194 0.03703323
0.050260305 -0.09528193 0.10017702 0.056143627 0.12506455 0.05333265 0.09195395 0.036471613
0.012405508 -0.046597168 -0.068858705 0.102640405 -0.13898595 -0.07734804 0.01201087 -0.055525064
0.044528127 -0.043356564 -0.11408015 -0.024244998 0.05760515 0.03126001 0.0054789535 -0.0023239683
0.07959019 -0.049940728 0.008949325 0.008824113 -0.026992608 0.091601625 0.13125552 0.0027735464
0.076856464 0.025923487 0.00040660845 0.061885152 0.09261506 0.1157027 -0.10603113 0.0042429846
0.1337844 0.0006853733 -0.13851187 -0.0007099649 0.0072366036 -0.061668977 -0.04288204 0.058544695
-0.031572603 0.041404713 0.060081348 -0.013103071 0.045676723 -0.006451157 -0.036857173 -0.037664037
-0.093204856 0.1512766 -0.0034071542 -0.00645201 -0.02938101 -0.06280565 -0.08384511 0.07322546
0.024844639 0.022365663 -0.0049682 0.115203306 -0.08289005 0.021708217 -0.10515146 0.1158763
0.013474496 0.094127186 0.10065268 -0.07655676 -0.061551467 -0.08354354 0.10689829 0.06108199
-0.04534564 0.08139685 -0.068799555 0.023932941 -0.10028306 -0.08061001 0.009832181 0.0041788938
0.09462801 -0.05291236 0.09032431 0.008139137 -0.12729111 0.008530704 0.08113821 -0.055200797
0.024770787 0.100098014 0.0062549356 0.10421036 0.10814996 -0.08974454 0.078959845 0.116616994
0.08522121 -0.0034866496 0.061713986 0.15336584 0.020783834 -0.11438634 0.05779972 -0.02289764
-0.017944992 -0.078776374 -0.06587864 -0.09929435 0.023178414 0.06574063 -0.06062539 0.014219661
0.04007691 0.119523 -0.035020147 0.07729541 0.0411323 0.046337835 -0.103713594 0.02697326
-0.11369269 0.07746631 0.034110643 0.12380675 0.09796539 -0.1123635 -0.063684136 0.083811164
-0.0026842668 0.124681756 0.08377166 -0.084895335 0.053859003 -0.08842035 0.048157282 -0.027219422
0.060890593 0.09793392 -0.07720484 0.10784638 -0.104308754 0.024880378 0.09067131 -0.0063903593
0.12643936 -0.08542664 0.031015785 -0.02049289 -0.01213509 -0.032726213 0.10991615 -0.077639595
-0.054672413 0.026030386 -0.04454332 0.025170641 0.022998616 0.052923292 0.11700736 0.086653456
-0.06422984 -0.013502657 -0.11052769 -0.015525313 0.02614564 -0.02932217 -0.049306385 -0.037343983
-0.08416845 -0.063836575 -0.07456984 -0.059743144 0.022440612 0.10649784 0.10736692 0.057343103
0.07224493 0.064402275 0.118820205 0.0008923118 0.04088358 0.05394747 0.08275924 0.04446975
0.019509034 0.014287355 -0.013615913 0.025112385 -0.113914214 -0.09170713 0.0126399575 0.018353447
0.01914308 0.12438088 -0.1125035 -0.08002225 0.054704666 -0.02965332 0.119160585 0.07357722
-0.056735605 0.12718636 -0.036348168 0.053841285 -0.036561154 -0.069694236 0.0020301472 -0.09912655
0.1444507 -0.02609754 0.04056267 0.07414687 -0.107743114 0.042216875 -0.023687344 0.0029243296
0.018807627 0.06314061 -0.02982819 0.100863636 -0.06547542 0.08076058 0.14094043 0.009901804
0.12624875 -0.07170053 -0.11788818 0.10309286 -0.07763232 -0.052744992 0.07289901 -0.05580635
00000000: 1441 a2bd 2020 b4bd 6017 253e 4d0b 0e3e
00000010: ba4d a0bb 30ca c1ba 44d7 8dbd 9866 c6bd
00000020: 3abf 723c 1954 9abd 833f 2dbc f668 20bd
00000030: e068 033e 40ba adbc 522f aebd 28b0 173d
00000040: c0dd 4d3d 2c23 c3bd 9c29 cd3d dcf6 653d
00000050: ec10 003e 5673 5a3d 5a52 bc3d 4263 153d
00000060: 7940 4b3c acdc 3ebd cb05 8dbd 2235 d23d
00000070: 5552 0ebe a668 9ebd 3dc9 443c 406e 63bd
00000080: 2063 363d a796 31bd dba2 e9bd 729d c6bc
00000090: 61f3 6b3d 7f0a 003d cb88 b33b b84d 18bb
000000a0: 2e00 a33d a68e 4cbd 31a0 123c 0393 103c
000000b0: 9a1f ddbc a299 bb3d d967 063e 63c4 353b
000000c0: ec66 9d3d 7e5d d43c 102e d539 497b 7d3d
000000d0: f7ac bd3d 8af5 ec3d d926 d9bd bc08 8b3b
000000e0: c7fe 083e a0aa 333a 0ed6 0dbe f01c 3aba
000000f0: 0821 ed3b 9c98 7cbd 14a5 2fbd 90cc 6f3d
00000100: 4652 01bd fd97 293d dc17 763d 43ae 56bc
00000110: 8417 3b3d 3a64 d3bb 8cf7 16bd 9b45 1abd
00000120: 30e2 bebd 41e8 1a3e 904a 5fbb 626b d3bb
00000130: 72b0 f0bc 40a0 80bd fcb6 abbd 3bf7 953d
00000140: fc86 cb3c 3238 b73c 48cc a2bb b6ef eb3d
00000150: 42c2 a9bd 6ed5 b13c a659 d7bd 8e50 ed3d
00000160: 22c4 5c3c c1c5 c03d fe22 ce3d cac9 9cbd
00000170: 641d 7cbd e018 abbd 7eed da3d 1c31 7a3d
00000180: 5abc 39bd 64b3 a63d c8e6 8cbd 040f c43c
00000190: 3461 cdbd dc16 a5bd 2817 213c 1aef 883b
000001a0: 55cc c13d a1ba 58bd f4fb b83d 045a 053c
000001b0: 9a58 02be 5ec4 0b3c ca2b a63d 3b1a 62bd
000001c0: 1bec ca3c 3000 cd3d 34f6 cc3b 3e6c d53d
000001d0: ba7d dd3d fccb b7bd b3b5 a13d e4d4 ee3d
000001e0: 7588 ae3d 4680 64bb cec7 7c3d ef0b 1d3e
000001f0: dc42 aa3c 6343 eabd 66bf 6c3d d593 bbbc
00000200: 6001 93bc 8255 a1bd 61eb 86bd d65a cbbd
00000210: a8e0 bd3c 06a3 863d 5452 78bd 95f9 683c
00000220: b027 243d 7ac8 f43d 4971 0fbd 0e4d 9e3d
00000230: 587a 283d becc 3d3d cb67 d4bd 07f7 dc3c
00000240: b7d7 e8bd a8a6 9e3d 9ab7 0b3d 658e fd3d
00000250: 14a2 c83d d61e e6bd d46c 82bd 30a5 ab3d
00000260: 86ea 2fbb 2659 ff3d 7a90 ab3d 9bdd adbd
00000270: 429b 5c3d ba15 b5bd 9240 453d 44fb debc
00000280: 6a68 793d 9491 c83d 921d 9ebd 90de dc3d
00000290: d49f d5bd efd1 cb3c e1b1 b93d 3866 d1bb
000002a0: 5279 013e 2af4 aebd d114 fe3c b5e0 a7bc
000002b0: 42d2 46bc ec0b 06bd b81b e13d 8201 9fbd
000002c0: 2ef0 5fbd ad3d d53c 0e73 36bd a932 ce3c
000002d0: 9867 bc3c 18c6 583d 8ea1 ef3d 5e77 b13d
000002e0: ef8a 83bd 403a 5dbc 575c e2bd e25d 7ebc
000002f0: 622f d63c 0c35 f0bc 7ef5 49bd 01f6 18bd
00000300: 8260 acbd c0bc 82bd 13b8 98bd 3ab5 74bd
00000310: 60d5 b73c 8a1b da3d 30e3 db3d 9ae0 6a3d
00000320: 26f5 933d 57e5 833d 0258 f33d 08ea 693a
00000330: 8a75 273d 06f8 5c3d ad7d a93d ea25 363d
00000340: 69d1 9f3c 8315 6a3c 4715 5fbc 7db8 cd3c
00000350: db4b e9bd f3d0 bbbd d317 4f3c f859 963c
00000360: f3d1 9c3c 67bb fe3d 3c68 e6bd b5e2 a3bd
00000370: 0012 603d 85eb f2bc 770a f43d a7af 963d
00000380: 9863 68bd 243d 023e d1e1 14bd ae88 5c3d
00000390: 26c1 15bd dabb 8ebd 380c 053b dc02 cbbd
000003a0: e2ea 133e 82ca d5bc 0b25 263d 50da 973d
000003b0: 6ca8 dcbd 9aeb 2c3d f60b c2bc 1ca6 3f3b
000003c0: 7412 9a3c dd4f 813d 405a f4bc 9891 ce3d
000003d0: fa17 86bd ce65 a53d b052 103e 2d3b 223c
000003e0: 5a47 013e bad7 92bd 5c6f f1bd 5922 d33d
000003f0: b2fd 9ebd 220b 58bd 134c 953d 3395 64bd

fc3.bias f4 [32]
-0.024012987 -0.017055519 -0.088890135 -0.041653708 0.10111922 -0.09586844 0.062027343 -0.0427232
-0.0044441978 -0.10475013 -0.05072169 -0.088989735 -0.06423727 0.119397774 -0.07266711 -0.02114667
0.022167658 0.03979032 0.027663067 -0.08864388 -0.11878277 -0.08240639 0.068677664 0.0042429883
0.05651585 -0.05198516 0.12268968 -0.08222675 0.011720138 -0.02297723 -0.13460083 -0.05857551
00000000: e2b6 c4bc 04b8 8bbc 080c b6bd 149d 2abd
00000010: 9817 cf3d ac56 c4bd 6210 7e3d 86fe 2ebd
00000020: a2a0 91bb 3c87 d6bd 8cc1 4fbd 4040 b6bd
00000030: d48e 83bd d286 f43d 7ed2 94bd c83b adbc
00000040: f398 b53c 2dfb 223d a89d e23c ec8a b5bd
00000050: 6244 f3bd aec4 a8bd e0a6 8c3d c408 8b3b
00000060: 2a7d 673d 64ee 54bd ba44 fb3d 8066 a8bd
00000070: d205 403c be3a bcbc cdd4 09be e0ec 6fbd

bn3.weight f4 [32]
1.2935295 1.3269994 1.2266955 1.2516842 1.3465662 1.1401355 1.3047848 1.2455254
1.201803 1.3809675 1.3220657 1.2328701 1.253955 1.273984 1.408012 1.4495724
1.2502289 1.2060462 1.435786 1.3200734 1.2882187 1.3157276 1.2769723 1.3055798
1.2930245 1.3777921 1.2519207 1.4097717 1.2583438 1.306627 1.3074077 1.3179169
00000000: 6092 a53f 1edb a93f 5c04 9d3f 3037 a03f
00000010: 485c ac3f f6ef 913f 3003 a73f 606d 9f3f
00000020: aed4 993f 8bc3 b03f 7339 a93f b0ce 9d3f
00000030: 9981 a03f e811 a33f bd39 b43f 978b b93f
00000040: 8007 a03f b95f 9a3f d6c7 b73f 2af8 a83f
00000050: 5ae4 a43f c369 a83f d473 a33f 3d1d a73f
00000060: d481 a53f 7e5b b03f f03e a03f 6673 b43f
00000070: 6911 a13f 8e3f a73f 2359 a73f 80b1 a83f

bn3.bias f4 [32]
0.2075952 0.20014615 0.11325867 0.12962873 0.26795074 0.062056407 0.13846706 0.19469666
0.12508409 0.23177612 0.15241745 0.11948331 0.18188414 0.14304587 0.18492538 0.22625586
0.16775972 0.14006309 0.2017645 0.21571204 0.19826531 0.22135317 0.23218948 0.13322306
0.2453875 0.26252913 0.17222345 0.20933828 0.1937762 0.22430888 0.2061095 0.16433817
00000000: d693 543e 1df3 4c3e 29f4 e73d 65bd 043e
00000010: d730 893e dc2e 7e3d 4fca 0d3e 905e 473e
00000020: 0b16 003e b856 6d3e 5213 1c3e aab3 f43d
00000030: d63f 3a3e 9e7a 123e 145d 3d3e 9eaf 673e
00000040: 34c9 2b3e b36c 0f3e 5a9b 4e3e 9ee3 5c3e
00000050: 1006 4b3e 68aa 623e 14c3 6d3e a06b 083e
00000060: dc46 7b3e 386a 863e 585b 303e c65c 563e
00000070: 456d 463e 3ab1 653e 5e0e 533e 4448 283e

bn3.running_mean f4 [32]
0.13766795 0.26742232 0.04433715 0.23604225 -0.17799655 -0.14026673 -0.24353844 -0.24841663
0.25711507 -0.24595428 -0.34951866 0.1747172 0.073067494 0.47513407 -0.54937875 -0.4295748
0.019258944 0.18925859 -0.59418464 0.043209597 -0.24362248 -0.26281384 0.29650652 -0.17800732
-0.07374992 -0.20439647 0.31402677 -0.41385758 0.2285147 0.026187364 -0.38434595 0.41246748
00000000: d4f8 0c3e 94eb 883e df9a 353d 0fb5 713e
00000010: ba44 36be 15a2 0fbe 2462 79be ee60 7ebe
00000020: 96a4 833e 70db 7bbe 1cf4 b2be 11e9 323e
00000030: 69a4 953d c644 f33e 16a4 0cbf 3af1 dbbe
00000040: efc4 9d3c 01cd 413e 7c1c 18bf 8cfc 303d
00000050: 2c78 79be 898f 86be b4cf 973e 8d47 36be
00000060: 330a 97bd 4f4d 51be 1ec8 a03e 24e5 d3be
00000070: c2ff 693e e286 d63c fec8 c4be f02e d33e

bn3.running_var f4 [32]
0.24163592 0.21750626 0.14050934 0.27297956 0.26922345 0.25344217 0.16977713 0.15978485
0.11564243 0.22139168 0.3148561 0.20457834 0.35533154 0.26497573 0.20887342 0.20041308
0.28330982 0.23593241 0.22827461 0.3168502 0.2891554 0.3851273 0.28696546 0.36779588
0.20455115 0.28228468 0.2162324 0.2636894 0.2170611 0.13953614 0.17859337 0.39045724
00000000: 686f 773e f6b9 5e3e aee1 0f3e fac3 8b3e
00000010: a8d7 893e 2cc3 813e 0eda 2d3e a49e 233e
00000020: f0d5 ec3d 80b4 623e d234 a13e fc7c 513e
00000030: 04ee b53e e6aa 873e eae2 553e 1639 4d3e
00000040: fc0d 913e 4498 713e d2c0 693e 303a a23e
00000050: 2d0c 943e 682f c53e 23ed 923e be4f bc3e
00000060: db75 513e 9e87 903e 076c 5d3e 4c02 873e
00000070: 4445 5e3e 90e2 0e3e 2ee1 363e 03ea c73e

bn3.num_batches_tracked f8 []
8574.0
00000000: 0000 0000 00bf c040

fc4.weight f4 [1, 32]
-0.26201922 -0.22510767 -0.25102428 -0.36950016 -0.29394275 -0.22242746 0.3663389 -0.3962077
-0.14996417 -0.3375021 0.4319424 -0.2894914 -0.39855894 -0.38676834 0.45242387 0.4138819
-0.35749936 -0.21863675 0.52630997 -0.25748938 -0.39306223 -0.28364098 -0.18457338 0.09041738
-0.2743772 -0.24569939 -0.2078252 0.49345204 -0.39539164 -0.24502307 -0.2988946 -0.19841388
00000000: 6227 86be a082 66be 4186 80be 202f bdbe
00000010: aa7f 96be 06c4 63be c690 bb3e bcdb cabe
00000020: 3590 19be 13cd acbe 8e27 dd3e 3738 94be
00000030: eb0f ccbe 8006 c6be 1aa4 e73e 54e8 d33e
00000040: 280a b7be 50e2 5fbe 40bc 063f a6d5 83be
00000050: 743f c9be 6439 91be ce00 3dbe bf2c b93d
00000060: 2b7b 8cbe 9f98 7bbe 21d0 54be bfa5 fc3e
00000070: c670 cabe 54e7 7abe b708 99be 022d 4bbe
