examples/hello-world/ml-to-fl/pt/fraudnet_stochastic/jobs/workdir/server/simulate_job/app_server/FL_global_model.pt (torch, 68201 bytes, 22 tensors)

fc1.weight f4 [128, 30]
00000000: 3e2a 9b3c 3ebf d53d 5815 4bbe 6e60 dd3d
00000010: 64e6 9dbe 80f1 793e 2ffd d8bd b20c bc3e
00000020: 0a0c ab3d 1997 483e 31e0 893e 9554 11be
00000030: 4cab c73e 7d01 dd3d e30e 363e d406 bf3e
00000040: 280b 013f 9973 e73e d66a e33e dcad 913d
00000050: c61c ca3d 375d 293e 45e9 843d e793 ebbd
00000060: 869b 953d fe42 09be ee32 3a3e 10b2 43bc
00000070: c414 dabd cc7b 09bc 7234 03bb 2a5c d83e
00000080: d4f1 7cbe 7826 0d3f 55c7 64bf fe55 b6bd
00000090: fd7f 9a3e da19 293f 3251 f93e cc21 223f
000000a0: de5b 443f c6f4 4ebf a3e8 8d3f ca2e f03e
000000b0: f65a 7b3f 6a50 7c3d 8035 173f 0297 103f
000000c0: f27b 9f3e 58aa 763d f17c fa3d e92d 52be
000000d0: 8650 89be 06b7 3e3e e448 12bd b4c9 17be
000000e0: c0f3 9cbc 54e1 b6be 3d8a 22bf fb9c 87bd
000000f0: c610 0b3d 4027 053f 5843 0bbe f42b 383e
00000100: f8f6 ccbe 3510 da3c 0499 783e 98a1 0f3f
00000110: 91be 3e3e 1ed9 af3e e8be 393e b768 17bf
00000120: 4434 d03e 0f11 283e c27d 843e eefa ffbd
00000130: 7b05 313e 2005 043f 0ee6 b53e 9cbd a2be
00000140: 40f7 03be 90ce 4a3e 168a 95be dac8 84be
00000150: a0ae 32be 2eb6 31be 0662 863e eea9 1fbc
00000160: 83e7 93be a059 733d b651 3b3d fe8a ab3e
00000170: ea5a 55be a99a 9c3e 3800 dabe ecea f43e
00000180: 7aaa 2c3e bacb fd3e 6b35 20be cc67 223e
00000190: f643 0d3f 2ada bfbe 9294 f23e af20 4d3e
000001a0: a52e ba3e 20ab 253e 75a8 053f 6ce9 223f
000001b0: 8c4f f33e 4c5d 7bbe 1e9c 86be 0228 06be
000001c0: e206 03bd 2941 94bd 28ca 523e e747 e63d
000001d0: 682e 8a3e 9cf0 a03e 3147 25bd 0a21 40be
000001e0: 4da0 8839 859b 473e 53cb 68bf 5c30 443f
000001f0: e648 abbf e6ff 46bb aec2 073f 15c9 e73e
00000200: 5ed6 fc3d 5fd3 5b3f 381d b23f f21f aebf
00000210: 042a e53f a90d 173f e892 ef3f b630 953d
00000220: def3 643f fe94 7b3f ef80 be3e 644e 22be
00000230: b080 8b3c 9725 75be d495 00bf 7c0f 7c3e
00000240: de9c e9be 0003 8ab9 6077 c6bb 3b10 c5be
00000250: 9048 70bc bb49 adba f0f9 a039 9abd 643e
00000260: 6f10 10bf 664c fe3e 3160 1cbf 0058 be3e
00000270: fcfe 1bbd c0d3 963e a244 bf3e 40b0 9c3e
00000280: 764b a83e 6f1e 19bf 9cc0 0a3f 68e4 763e
00000290: 14d1 0d3f 982c 6c3e a468 d03e c3b6 c33e
000002a0: be36 9c3e 72c6 dc3d aaf5 bb3e a6d8 553e
000002b0: 6450 39bd 75ae 43be 3cdc 8e3e 76a9 ffbe
000002c0: a73b 173e 4602 f3be ecb5 8ebc 7834 2a3e
000002d0: 6637 903b c577 ddbd 0082 6c3e 5091 80be
000002e0: 6656 ca3e 3c32 30be 2cd2 2b3d aa2a 4cbe
000002f0: d228 993e 8f06 063e 8bb3 33bf a2b5 d03e
00000300: b013 bdbe 4472 1abe ecba 40bf 9b91 51be
00000310: 885f cbbe fc74 5ebe 76b7 5dbe 3fb8 91be
00000320: 5680 d7be d896 d83e 46cd 7ebe 526f 57be
00000330: 333e 08bf 18f4 363e a7eb 13be ebbd dd3e
00000340: 8b8f 753d 3717 97be 1c0d 9dbd eb9c 5f3d
00000350: 0e66 bcbd 8468 663d 574a 193e e2ba b03d
00000360: 406b 8fbb 83f1 ea3d 280e 2abe 3393 a63e
00000370: 680a 703d 9041 40be 2fea f7bd 4cf4 563d
00000380: 3a9e 2bbe eed9 68be fc33 4d3e 4441 36bd
00000390: f236 173d 1e54 fc3d 14c3 3b3c 16c3 173e
000003a0: 0cc2 8e3e 42d1 82bd 961b 80be 007f 05ba
000003b0: 39f4 abbe 7222 fabd 5e31 05be 5af7 63bd
000003c0: a6c4 d1ba 7a84 7ebe 440d ac3e 2432 07bf
000003d0: c8f0 843f e06a 263e c07f fcbe 581a b7be
000003e0: 0829 ae3c 5ff9 fcbe 7349 18bf ba33 4a3f
000003f0: 682b 84bf 4ee1 81be b8dd 95bf a4c6 3cbe
0.018941041 0.10436867 -0.1983236 0.10809408 -0.30839837 0.24408531 -0.10595166 0.36728436
0.08351906 0.19588889 0.26928857 -0.14192422 0.38997877 0.107912995 0.17779116 0.37309897
0.5040765 0.45205382 0.44417447 0.07113239 0.09868769 0.16539465 0.06489805 -0.115028195
0.07305054 -0.13404462 0.1818349 -0.011944309 -0.10648492 -0.008391332 -0.0020020274 0.42257816
-0.24701625 0.55136824 -0.89366657 -0.089031205 0.30175772 0.6605507 0.4869476 0.6333282
0.7670268 -0.80842245 1.108662 0.46910697 0.9818567 0.061600126 0.5906601 0.5648042
0.3114925 0.060221046 0.12230862 -0.20525326 -0.26819247 0.18624505 -0.035714045 -0.14823037
-0.019159198 -0.35718787 -0.63492185 -0.066217385 0.033951543 0.52013016 -0.13599908 0.17985517
-0.40032172 0.026619056 0.24277121 0.5610595 0.18627383 0.34345335 0.18139231 -0.5914416
0.40664876 0.16412757 0.25877196 -0.12499033 0.17287247 0.5157032 0.3552708 -0.31785285
-0.12887287 0.1980536 -0.29206914 -0.25934488 -0.17449427 -0.17354652 0.2624666 -0.009745104
-0.28887567 0.059411645 0.045732222 0.3350448 -0.20835462 0.30586746 -0.42578292 0.4783548
0.16861907 0.49569494 -0.15645377 0.15859908 0.55181825 -0.37471133 0.47378975 0.20031999
0.36363712 0.1617856 0.5221017 0.63637424 0.47521627 -0.24547309 -0.26290983 -0.131012
-0.031988986 -0.07238991 0.20584929 0.11244183 0.2698853 0.3143357 -0.040351097 -0.18762603
0.00026059375 0.1949292 -0.9093525 0.7663629 -1.3381622 -0.003036493 0.5303143 0.452706
0.12345575 0.858694 1.3915167 -1.3603499 1.7903447 0.5900522 1.8716707 0.072846815
0.8943461 0.9827422 0.37207744 -0.15850216 0.017029136 -0.2394012 -0.5022862 0.24615282
-0.45627493 -0.00026323646 -0.006056711 -0.38488945 -0.014665738 -0.0013220826 0.00030703796 0.22337952
-0.56275076 0.49667662 -0.61084276 0.37176514 -0.03808497 0.29458427 0.3735705 0.30603218
0.32870072 -0.5981206 0.5420015 0.24110568 0.5539715 0.23063886 0.40704834 0.38225374
0.30510515 0.10780038 0.36710864 0.20883426 -0.045242682 -0.19109519 0.279024 -0.49933976
0.1476885 -0.47462672 -0.017420731 0.16621578 0.0044011353 -0.1081386 0.23096466 -0.25110865
0.39519042 -0.17206663 0.041948482 -0.1993815 0.29913956 0.1308844 -0.70195836 0.40763575
-0.36929083 -0.15082651 -0.7528522 -0.204657 -0.39721322 -0.21724313 -0.21652016 -0.2846088
-0.420901 0.42302585 -0.24882993 -0.21038559 -0.5321991 0.17866552 -0.14445363 0.43308958
0.059951346 -0.295099 -0.07668516 0.054593008 -0.09199153 0.056252018 0.14969765 0.08629395
-0.004376799 0.11471846 -0.16606963 0.3253418 0.058603674 -0.1877501 -0.12105214 0.052479073
-0.16759577 -0.22739384 0.20039362 -0.044495836 0.036917634 0.123207316 0.0114600845 0.14820513
0.2788242 -0.06387569 -0.25021046 -0.0005092472 -0.33584765 -0.12213601 -0.13007113 -0.055655815
-0.001600404 -0.24855223 0.3360387 -0.52810884 1.0385981 0.16251707 -0.49316216 -0.35762286
0.0212598 -0.49409005 -0.59487075 0.7898518 -1.0325747 -0.25367206 -1.1708288 -0.1843515

fc1.bias f4 [128]
00000000: dfe9 cb3d 3e7b 193e 801e c0bd b34d 2b3d
00000010: f3be 0cbe ae95 b9bc 2c1a e03d 5018 0ebe
00000020: 2035 303e 49d0 073d 7835 333e cca2 3dbd
00000030: 3a7c 16bd 8bd0 20be ec0c 373e d2d1 00be
00000040: 1899 973b b809 b9bd 5a7f 373e ca60 903d
00000050: 08a4 1a3e a254 f5bd c12f 373c 8e6e 223e
00000060: 45b3 0b3e 24a9 d7bc 689b 31be 5dd5 f1bd
00000070: b4ca 173d 8225 b7bc 79e4 203e d8c6 a9bd
00000080: e095 e33d b4e9 25bd 97a7 0bbb 3a0b 20be
00000090: 7072 ad3d 0c75 11be 9d66 243e d35b 2cbe
000000a0: c6ce 0bbd 0d8c fe3c 2db2 c13b 663a d93d
000000b0: 28e8 07be 78c0 d7bc 20b3 e63c c114 9ebd
000000c0: 80f9 22bd 5223 acbd 1b70 5dbd 7a5e 603d
000000d0: 66bd d03d 5d68 28bd 2608 25be d4d4 19be
000000e0: fa3a b93d 7c36 c6bd 9743 bc3c 6ac9 b63d
000000f0: 54a1 d2bd 1cbb 38be c1db 8c3d a6d3 9bbd
00000100: 1c95 2f3d 4798 2dbc 22d0 d3bb 8871 f7bd
00000110: a26a a23d b35e 7fbb 1e9a b4bd 7732 093e
00000120: 5af9 0a3e 9633 82bd ecfe a0bd 7a22 c43c
00000130: 611e 17be 7e6a 0abe be3e a63c 9e04 08be
00000140: 587f 2c3e de4c 113b e783 05be 6b23 e5bd
00000150: 8634 46bd 2c0d d5bc 74cb 213e 1aec efbd
00000160: 3381 22bc 8de0 c73d 90e3 07be bcd6 813d
00000170: c806 153e daf1 37bd e85f 233e 380b 003d
00000180: 08f1 10bc 3617 60bc c29a f4bd f8a1 0dbe
00000190: ad1b a1bd 1e58 a53c 7281 0a3e a432 1ebe
000001a0: 7aee d2bc 8eb1 e63d f099 48bd 4898 fdbd
000001b0: 7c62 303e 88eb 563d 0de9 32be a04f cdbc
000001c0: 5091 0bbe 936c d6bd a8ac c23d 7a9b 923d
000001d0: 1c57 8dbc e59d 2d3e 4832 103e cc0c f23d
000001e0: b02d 893d 7257 f03d a623 eabb 6a9b 0ebe
000001f0: 1240 96bd e689 303d 1287 0e3e 7084 383e
0.09956717 0.1498842 -0.093808174 0.041822147 -0.13744716 -0.02265438 0.10942492 -0.13876462
0.17207766 0.03315762 0.17500865 -0.046297833 -0.036739565 -0.15704553 0.17876023 -0.1258004
0.0046264045 -0.09035057 0.17919675 0.07049711 0.15101635 -0.11979033 0.011180819 0.15862486
0.13642605 -0.02632577 -0.17344439 -0.11808274 0.037058547 -0.022356752 0.15712155 -0.082898796
0.11112571 -0.04050608 -0.0021309608 -0.15629283 0.08469093 -0.14204806 0.16054769 -0.16831903
-0.03413274 0.03107264 0.005911133 0.10606842 -0.13272154 -0.026336893 0.028161585 -0.07718802
-0.039788723 -0.08405174 -0.05406199 0.0547776 0.10192375 -0.041115154 -0.1611639 -0.15022594
0.09044452 -0.09678361 0.022981448 0.089251354 -0.10284677 -0.18040127 0.06877852 -0.07608728
0.04286681 -0.010595388 -0.0064640203 -0.12082201 0.07930495 -0.0038966357 -0.08818458 0.13398157
0.13571683 -0.063574955 -0.078611225 0.023942221 -0.14757682 -0.13517186 0.02029359 -0.13283011
0.16845453 0.002217106 -0.13038598 -0.11188396 -0.048389934 -0.026007257 0.15800267 -0.11714955
-0.009918499 0.097596265 -0.13270402 0.063397855 0.14553368 -0.044908382 0.15954554 0.0312607
-0.008846529 -0.013677409 -0.1194358 -0.13831317 -0.07866607 0.02018362 0.13525942 -0.15449005
-0.02574848 0.112643346 -0.04897493 -0.12382561 0.17225069 0.052470714 -0.17471714 -0.025062382
-0.13629651 -0.10469928 0.09505588 0.07158561 -0.017253451 0.16954763 0.14081681 0.11818847
0.06698167 0.11735429 -0.007145363 -0.13926473 -0.07336439 0.04310026 0.13918713 0.18019271

bn1.weight f4 [128]
00000000: 5c1d 703f ca13 723f e3df 783f 3009 833f
00000010: fdfe 873f ccf0 683f 1e14 623f ac7e 783f
00000020: 1a90 763f dc94 5a3f 66ea 793f 57b3 7f3f
00000030: c197 5f3f 368f 793f 8407 613f b711 7a3f
00000040: ac41 633f 08dd 733f d0cf 693f ea89 753f
00000050: 47f5 713f 0f43 793f 6f96 713f 611c 763f
00000060: 2045 6e3f c866 663f b24f 683f ce01 803f
00000070: d623 753f 0214 6e3f a49b 7a3f 6083 593f
00000080: 730a 803f fc78 723f da75 6a3f 929b 743f
00000090: e08a 6d3f 2593 603f fc62 823f 92ef 843f
000000a0: 62c9 773f 5a2a 843f aae8 7c3f fe44 833f
000000b0: 26f5 7c3f ba1f 713f fdc3 813f ae27 6b3f
000000c0: 7290 6b3f 92df 6d3f 93b6 713f 5375 5d3f
000000d0: 6cad 823f ad25 6a3f 50e1 763f 9caa 7b3f
000000e0: 844a 6e3f 9cd6 6b3f db54 5d3f b0ff 7c3f
000000f0: 820d 683f e27f 6f3f 6e5c 653f eb8f 703f
00000100: eaf8 823f 28c1 763f e651 643f 80f5 713f
00000110: 784a 703f f03a 7d3f 9c73 673f 307e 633f
00000120: e2e7 723f 0ead 853f 4cb8 623f d6f6 743f
00000130: 51dc 7c3f b0e0 833f d676 643f ee93 673f
00000140: fabb 673f e602 6a3f 7d5e 6f3f af4d 683f
00000150: 6347 793f 4a5c 683f c6f7 7f3f bb58 803f
00000160: 3648 5f3f c217 6c3f 825d 713f c8c9 613f
00000170: f1f1 6b3f e6fc 7d3f f27e 623f eb14 6c3f
00000180: 68dc 7a3f f343 663f 46ab 693f b9bb 673f
00000190: 90d0 7f3f 6956 753f 04b5 863f a0ed 5e3f
000001a0: 589f 7e3f 445f 5d3f fc14 843f ffa7 7d3f
000001b0: 2ecf 683f 06b0 713f faf9 7b3f be0f 603f
000001c0: e805 5e3f bcec 643f e658 7b3f 9ddd 733f
000001d0: 50b4 7d3f 4a2b 6d3f 1c5c 723f c7b4 633f
000001e0: d055 6c3f eea0 7d3f a724 603f 41f4 643f
000001f0: 32e9 713f 09be 7e3f 5025 673f 6204 6d3f
0.937948 0.94561446 0.97216624 1.0237179 1.0624691 0.90992427 0.88311946 0.97068286
0.9631363 0.8538339 0.9762329 0.99883026 0.87340933 0.9748415 0.8790209 0.9768328
0.8877208 0.9525914 0.9133272 0.95913565 0.9451489 0.9736795 0.9437017 0.9613705
0.93074226 0.9000058 0.90746605 1.0000551 0.95757806 0.9299928 0.9789374 0.8496609
1.0003189 0.9471586 0.9158608 0.9554988 0.9279003 0.87724525 1.0186458 1.0385611
0.9679166 1.0325425 0.9879252 1.025543 0.98811567 0.94189036 1.0137936 0.9185742
0.9201728 0.92919266 0.9441921 0.8650715 1.0209174 0.9146374 0.9643755 0.98307204
0.9308245 0.9212434 0.86457604 0.9882765 0.9064561 0.9355451 0.8959416 0.939696
1.0232213 0.96388483 0.8918747 0.9451523 0.9386363 0.98918056 0.9041078 0.8886442
0.94885075 1.0443437 0.88562465 0.9568914 0.98773676 1.0302944 0.8924383 0.904601
0.90521204 0.9141067 0.9350355 0.90743536 0.9737455 0.9076582 0.9998745 1.0027078
0.8721956 0.9222375 0.94283307 0.8819852 0.9216605 0.9921402 0.88474953 0.9221942
0.97992563 0.8994743 0.9127697 0.9052082 0.99927616 0.95834976 1.0523992 0.87081337
0.9946189 0.8647349 1.0318904 0.99084467 0.9094113 0.94409215 0.9842831 0.8752402
0.8672776 0.8942373 0.98182523 0.9526003 0.9910326 0.9264418 0.946718 0.8894772
0.9231844 0.99073684 0.8755593 0.894352 0.9449645 0.9950872 0.9029131 0.9258481

bn1.bias f4 [128]
00000000: 82af a9bd 69f3 62be 82c8 4cbd 2fc6 be3b
00000010: a630 f7bd 4d0b bdbd 5676 eebd f8b8 66bd
00000020: f642 17be e027 febd fa12 7a3d 3e39 14bc
00000030: 7ac5 fbbd 79d7 23be 0637 1fbe 83e1 32be
00000040: df5d 11be aebb 77bd 245f c7bd e38a adbc
00000050: 9452 693d 654e fabd f295 8bbd d7de 48bd
00000060: 3f6e 1abe 7590 1cbe 7d22 9fbd 8ece 06be
00000070: 04a8 19be 928f 12be bd60 7dbc 79e3 a4bd
00000080: 575f e23c 6087 47be 2efb e0bd 2f56 bfbd
00000090: 8d69 8fbd 481b 08be 8b2f 08bd 746a b43b
000000a0: dc96 7abe 3b50 a5bd 38ae 0fbe ce05 bcbd
000000b0: a0dc 76bb 3246 23be c641 8e3c a7b0 02be
000000c0: dae3 9cbd e370 c4bd 3211 dbbd 2399 12be
000000d0: bf3f a03c 8c09 73bd 0cd2 49be c4ff 4dbd
000000e0: 22cb c7bd 3ca2 febd 7242 e6bd 784d 6cbd
000000f0: 86df d3bd c556 5fbe ae10 cebd 6cc4 17bd
00000100: 9cdc 8fbd e384 a8bd f6fe 3bbe 2342 04bd
00000110: a257 7fbd 7bc0 18be 86a2 22bd 585e 1abe
00000120: 1646 80bd e43a 21be 6266 bbbd a090 6dbd
00000130: cf7d 1ebd dc63 123d bdf6 e5bd 7c8d d6bd
00000140: 3060 f4bd d402 dfbd e496 c7bd 63f3 c2bd
00000150: 52da 2dbe 51e5 09be 47ff cfbd f023 c7bc
00000160: 382b 6dbe e7e9 bdbd ad8c 4fbe 8c57 b8bd
00000170: 984c c4bd df25 0bbd 0a86 0abe cf0b dfbd
00000180: 2801 f2ba 5497 11be d648 c2bd d258 7dbe
00000190: 3fbd 52be 130d 2dbd 64ac bfba 2f37 00be
000001a0: 9990 473c 9c18 bcbd 11a8 f03e b6c9 24be
000001b0: 78aa d1bd 2939 f6bd 747f c3bc b38b c4bd
000001c0: 86fb 4dbe 82ac 17be d7fe f73d a528 57be
000001d0: 4012 12be 167e 2bbe 85f2 10bd 65e8 3ebe
000001e0: 6439 e8bd 5ea4 0cbd 58f3 21be b3d2 eabd
000001f0: 6f4d bfbd 66c8 2bbd 5ca9 27be 9306 eebd
-0.082854286 -0.22163166 -0.049995907 0.005821965 -0.12069826 -0.09230671 -0.116436645 -0.056328744
-0.14771637 -0.12409949 0.061053254 -0.009046851 -0.12293525 -0.16000165 -0.15548334 -0.17468838
-0.14195965 -0.06048172 -0.097349435 -0.02118439 0.05696352 -0.12221984 -0.06815709 -0.04904064
-0.15081118 -0.15289481 -0.0777025 -0.13164732 -0.15005499 -0.1431258 -0.015464959 -0.080511995
0.027633352 -0.19485235 -0.10985409 -0.0934261 -0.07002554 -0.13291657 -0.033248466 0.0055058543
-0.24471611 -0.08071943 -0.14031303 -0.09180795 -0.0037668124 -0.15944746 0.017365348 -0.127627
-0.07660647 -0.09591844 -0.10696639 -0.1431623 0.019561647 -0.059335276 -0.19709033 -0.050292745
-0.097555414 -0.124332875 -0.11243142 -0.057691067 -0.10345368 -0.21810444 -0.10061775 -0.037052557
-0.070245 -0.08228471 -0.18358979 -0.032289635 -0.062339433 -0.14917175 -0.039705776 -0.15075052
-0.06263368 -0.15745121 -0.09150387 -0.057999253 -0.0386942 0.035739765 -0.11228702 -0.10476205
-0.11932409 -0.10889211 -0.09745577 -0.095190786 -0.16977814 -0.13466384 -0.10156112 -0.024309129
-0.23161018 -0.09273129 -0.20268507 -0.09001073 -0.095849216 -0.033971664 -0.13527694 -0.10890924
-0.0018463479 -0.14217883 -0.094865486 -0.24740914 -0.20580004 -0.042248797 -0.001462352 -0.12521051
0.012180471 -0.09184381 0.47003224 -0.16092572 -0.102375925 -0.12022621 -0.023864485 -0.09596958
-0.2011548 -0.148119 0.12109154 -0.21011598 -0.14264774 -0.16747317 -0.035387535 -0.18643339
-0.113390714 -0.03433644 -0.15815485 -0.11465969 -0.09340941 -0.04193916 -0.16373199 -0.11622348

bn1.running_mean f4 [128]
00000000: f73b d944 1f4e 34c3 6599 4445 fd8b 8145
00000010: 029a 20c1 50c9 8642 72ba c343 c620 dcc5
00000020: a807 fcc2 3dcc 85c3 6471 1b46 2e60 2e46
00000030: a82f 6bc2 8965 b342 88d0 5ac4 9d34 a0c2
00000040: c8b2 11c4 876d 9445 90cd fbc1 3c90 ae45
00000050: 4916 4cc3 983a 3243 eea1 5b44 12ba 5f43
00000060: 5589 05c3 d8fd 52c2 ca64 8244 9918 6942
00000070: 6c0d 4f43 3abf ba42 a69b 15c4 b5a0 e542
00000080: 5920 0745 a060 9642 80ae 1d40 6a59 eb43
00000090: fef6 5545 749e 2dc2 23ea bc45 7cea c3c5
000000a0: 4aa8 b4c2 106a 92c1 1416 7bc2 73cd d8c1
000000b0: d8b6 b042 539d 4ec3 5c48 5ac4 6fbe 9743
000000c0: 2281 6ac4 beaf 5e45 0480 f9c2 93f9 34c4
000000d0: 4197 7e45 005f 4240 a646 32c3 417d 24c6
000000e0: a70a f544 ce2c 3542 ee7e edc3 0094 6144
000000f0: f2b1 2744 3074 b8c3 4e68 9842 f059 1a44
00000100: 8888 fc41 e5cf 4943 088e b5c2 ea8e e344
00000110: d655 4743 cdc6 1d43 24f0 8342 f71e c6c3
00000120: 2665 5c43 4063 a6c2 0c8e bb44 532c 0a45
00000130: ac1b a9c5 a8a6 7f45 e00b 8844 71cd 8843
00000140: 213e 14c4 807b 53c0 1178 6745 ea31 3dc4
00000150: 54f1 8842 0874 2242 6423 3041 d0a6 4c44
00000160: 9854 53c3 621f 1144 d831 9ec1 6e38 7ec3
00000170: 3a8d 45c4 b0a5 3844 72d9 9343 f002 8742
00000180: ea12 4844 40e5 1841 8043 58c4 6425 2fc3
00000190: 0b22 9cc2 bd72 03c4 2673 66c4 887f dec2
000001a0: 2a75 8444 44cb 39c5 405a 9f40 e291 5c41
000001b0: 399c de44 0b3d 09c4 9be1 7ac5 d0ef 3c44
000001c0: 922d 9442 18ad 4e43 d451 acc0 1b61 55c3
000001d0: 444e f0c0 ceab abc3 6ccc 2d45 c317 c242
000001e0: dace 8f43 999e 4f44 12c9 c843 dccf 8c44
000001f0: 9849 0744 b045 6c45 703d 5ac3 ba8e 8143
1737.8739 -180.30516 3145.5872 4145.4985 -10.0376 67.39319 391.4566 -7044.0967
-126.01495 -267.5956 9948.348 11160.045 -58.79654 89.69831 -875.2583 -80.10276
-582.79346 4749.691 -31.475372 5586.0293 -204.08705 178.22888 878.53015 223.72684
-133.53645 -52.747894 1043.1497 58.27402 207.05243 93.37349 -598.432 114.81388
2162.0217 75.18872 2.4637756 470.69855 3423.437 -43.40474 6045.267 -6269.3105
-90.32869 -18.301788 -62.77156 -27.100317 88.35712 -206.61455 -873.1306 303.48776
-938.0177 3562.984 -124.75003 -723.8996 4073.4534 3.0370483 -178.27597 -10527.313
1960.3329 45.293755 -474.99164 902.3125 670.7804 -368.9077 76.20372 617.4053
31.566666 201.81209 -90.777405 1820.4661 199.3353 157.77657 65.969025 -396.2419
220.39511 -83.19385 1500.439 2210.7703 -5411.459 4090.416 1088.3711 273.605
-592.97076 -3.3044128 3703.5042 -756.7799 68.471344 40.61331 11.00864 818.60645
-211.33044 580.49036 -19.774338 -254.22043 -790.20667 738.58887 295.6988 67.50574
800.29553 9.555969 -865.0547 -175.14606 -78.06649 -525.7928 -921.7992 -111.249084
1059.6614 -2972.704 4.979767 13.785616 1780.882 -548.9538 -4014.1003 755.7471
74.089005 206.67615 -5.384989 -213.37932 -7.509554 -343.34222 2780.7764 97.04641
287.61603 830.4781 401.57086 1126.4956 541.1499 3780.3555 -218.23999 259.11505

bn1.running_var f4 [128]
00000000: 3a25 024a 8178 2946 1660 f94a fb94 a04a
00000010: b0a8 b744 cde4 9247 9267 1148 be10 944b
00000020: 9cc6 5646 598e 1c48 1cb0 d04b 32e0 044c
00000030: 362a 3f48 32db 1b45 a8d2 5448 d17b 8146
00000040: 3799 fb47 4b05 e94a c2b0 fd47 5ab6 2d4b
00000050: bfcd 6e46 009c 8346 2225 6148 a375 6247
00000060: 89fd 9045 4764 b947 f3c9 8649 d27f 7545
00000070: a051 9146 e13c 6247 e8b7 ca47 183b e846
00000080: 38e8 9b49 0147 ad45 5678 cb47 e1ff 8447
00000090: cc49 044b c812 3a47 a0d3 184b 200e 3e4b
000000a0: 2fd1 aa45 1607 0445 bcb0 e244 81b3 7a44
000000b0: ae6a 7348 03d4 8046 bef2 5a48 eb98 8048
000000c0: 81d5 8048 8c9e 194b 47da 7547 6cff 0b48
000000d0: 6444 d64a e463 5348 9c33 ed45 d849 e94b
000000e0: 22e3 3e4a 5f55 ae46 31f1 8047 8af4 f548
000000f0: 703d ee47 26d3 7047 ba8f ad47 f923 4d49
00000100: 3778 cc44 6fbd 0948 f9af 0747 30e3 444a
00000110: d5ed 8646 13b2 8e47 2474 c347 64c3 2d47
00000120: f52a 8148 82ab 3945 a19b d549 0ed3 ab49
00000130: d94c 504b 25d7 ea4a 8b81 9449 716d 3548
00000140: faaf d947 0ae6 0b47 c881 9d4a 97f0 3948
00000150: 2899 c746 b3e6 4c45 1c47 1145 f21a 5948
00000160: 8bee 3a46 ea8b b647 d688 e644 dc3b 8f48
00000170: 9844 3d48 5c80 6c48 ff17 ab47 fc5a 3246
00000180: 56ba 2c48 7050 9248 8488 4d48 0475 ca46
00000190: 623b 5346 0fa3 aa47 e1f8 5a48 1a6e 6347
000001a0: 5808 f448 6beb 854a b4ad 3944 bc00 2545
000001b0: 76f6 1d4a 866d a747 6ebb e94a 3915 2a48
000001c0: 1cc0 8347 f371 3746 006d fd44 3a07 3647
000001d0: b647 9a44 2194 3647 9c53 c54a cd95 1746
000001e0: 9d38 3e47 2641 4f49 1a1d 4147 7c61 b248
000001f0: 80bc 9b47 57f5 7a4a 39c1 9b47 ca99 e147
2.1323025e+06 10846.126 8.171531e+06 5.2619495e+06 1469.2715 75209.6 148894.28 1.9407228e+07
13745.652 160313.39 2.7353144e+07 3.4832584e+07 195752.84 2493.6997 217930.62 16573.908
128818.43 7.6356215e+06 129889.516 1.138441e+07 15283.437 16846.0 230548.53 57973.637
4639.692 94920.555 1.1041904e+06 3927.9888 18600.812 57916.88 103791.81 29725.547
1.277191e+06 5544.8755 104176.67 68095.76 8.669644e+06 47634.78 1.0015648e+07 1.2455456e+07
5466.148 2112.4429 1813.523 1002.80475 249258.72 16490.006 224202.97 263367.34
263852.03 1.0067596e+07 62938.277 143357.69 7.021106e+06 216463.56 7590.451 3.0577584e+07
3.1274965e+06 22314.686 66018.38 503716.3 121978.875 61651.15 88863.45 840255.56
1635.7567 141045.73 34735.973 3.225804e+06 17270.916 73060.15 100072.28 44483.39
264535.66 2970.7192 1.7498761e+06 1.4075858e+06 1.3651161e+07 7.6952505e+06 1.2165614e+06 185781.77
111455.95 35814.04 5.161188e+06 190402.36 25548.578 3278.4187 2324.4443 222315.78
11963.636 93463.83 1844.2761 293342.88 193810.38 242177.44 87599.99 11414.746
176873.34 299651.5 210466.06 25914.508 13518.846 87366.12 224227.52 58222.1
499778.75 4.3882775e+06 742.7141 2640.046 2.5880615e+06 85723.05 7.658935e+06 174164.89
67456.22 11740.487 2027.4062 46599.227 1234.241 46740.13 6.465998e+06 9701.45
48696.613 848914.4 49437.1 365323.88 79737.0 4.1117018e+06 79746.445 115507.58

bn1.num_batches_tracked f8 []
00000000: 0000 0000 00e9 cb40
14290.0

fc2.weight f4 [64, 128]
00000000: fe4f 3cbd 228d 223d 4817 66bc 5a92 d8bd
00000010: 125c 2bbd 1e45 37bd eea0 a33d 409c b53d
00000020: ee5c 05bd dbee 90bd 6b63 3ebd f202 8cbd
00000030: bee5 84bc d813 dd3c 2545 f7bd 21bd b7bd
00000040: c084 16bd a15b 7abc 5710 27bd 72ac 17be
00000050: 307c d13a b87c 2ebd aa86 733d 2f24 9cbc
00000060: e139 b13d 479a 123d ef66 24be 4ef6 013d
00000070: 629d d3bc 9088 b03c d0b0 85bd f6a6 b9bc
00000080: 4684 22be 52ad d5bc 8182 8abc 9675 8b3d
00000090: eedb c73c 1a08 3d3c 765d 09be b43e e7bc
000000a0: 1ced 553d 1639 b53c b0b8 a13c 9555 e3bd
000000b0: ec8a 953c 781b 39bd 807f ed3d 38b7 dbbc
000000c0: 5cb2 7abb 2c93 af3c 3e03 973c 004c adbc
000000d0: 88f9 d1bd d530 f6bc 7553 9a3c 9580 bebc
000000e0: 46e5 46bd 6a92 0fbc 7cd9 7bbd 047c fbbd
000000f0: de54 9b3d eaee 9e3c df5a 64bd ea0c 95bd
00000100: 528e 8aba 4608 cc3d 8dd8 afbc 2b10 91bd
00000110: fa54 b33c 3e61 17bd 2f39 36bd e61d f9bc
00000120: a02f ccbd 202c 8cba 741f 023c dede 2fbe
00000130: f29e 7e3b 8a8c 00bc a112 ef3c e04d d83c
00000140: 58f7 303d bbf0 82bc ff59 e8bd 98ed 873d
00000150: 7d06 14bd 444a 033d 98e8 a1bd 7aa8 afbd
00000160: aa23 57bd 9e4d da3b 35fa d0bb e0aa 603c
00000170: 62d1 19bd 469c a9bd 5094 433d 7c5a 613c
00000180: 2c35 913b f0a9 bbbc 904a 1b3b ec30 3dbd
00000190: 3e7b a8bd 9340 f93d d879 063e 5c69 d7bc
000001a0: 1873 90bd 1814 94bd 62f9 503d c06f 91bd
000001b0: c2c2 a23d 3e87 bf3d 02f9 683d 2105 b13d
000001c0: 9641 6cbd 95e3 fe3c 26ca 603d fa76 5dbc
000001d0: 0c3e 3ebd 49d2 dcbc 04d8 0abe 19dd 663b
000001e0: 305c 32bc 3698 b1bd 717c 2ebd 7285 663d
000001f0: 6b3b 3d3d a482 a9bd ce7a 413d 3af5 fb3b
00000200: 5fc7 863c 3a4c 663d 3829 bb3c 9298 873d
00000210: 0238 cdbd 5b53 c43d c62b 363d 34d9 e1bd
00000220: 9fac 93bc df97 07bd 0aae b43d d656 5b3d
00000230: c84f f1bc 42c2 af3b d874 40bb 5cd4 5cbc
00000240: 42b0 aabd ae57 713d 049f d0bc de9d ed3c
00000250: c61b a7bd 4bc2 573c 43f6 103d 18eb d83c
00000260: 894b d1bd 59b7 24bd a254 263d 89d9 353c
00000270: 5c43 ab3b 4980 5d3c 9507 d5bb 4e71 4cbd
00000280: 308b 02bc 3f5f 5abd e6dd 943d 5893 1f38
00000290: 9695 633d 343c 153c 1733 473b 15cd 7abc
000002a0: 3b6e 2ebc f4b9 bd3d 6c89 28bd 0a52 05be
000002b0: 80eb 803c 6c8d 91bd c4bc 8ebc f85b a23d
000002c0: 6c72 293d 203f cd3d 8d8e de3c dc72 853d
000002d0: d282 fe3d 40fa 1abd 9e22 6dbd c8d8 78bb
000002e0: c694 873d 2cf9 2cbd a6b7 c93c d4aa 3d3d
000002f0: 7eb3 50bd 6d7a 05bc fd90 9fbd 3b60 1e3c
00000300: 495b 27bd 9abc d4bc 3383 34bd 40cf 59ba
00000310: eaa5 17bd 88a9 863c f37f 913d 1f4b 2a3d
00000320: f07c 8a3c 5029 97bd 494f 2dbd 4487 b03d
00000330: eb56 11bd c80d 9b3d b6c0 1e3d 27fa 33bc
00000340: 428b d43c 3ad8 3e3d a691 ccbc 8796 66bc
00000350: 9c14 203c e79a 863d ed53 84bd 746d 973b
00000360: 069d ccbc d617 38bb e7e0 10bd 630e 523d
00000370: be05 a93d d8d1 e43d 3804 8ebc 345a a93d
00000380: 7ec6 62bd fecb 173d d595 9d3d 3cbe 69bc
00000390: 6c8c c6bc ce8b 2bbd ae90 c0bd 7560 403d
000003a0: d4e9 d13d 0b56 37bd 1df2 fa3d 1242 31bc
000003b0: d390 50bd ac41 aabb c214 6cbc b7ad 8abd
000003c0: 9096 f23c 1607 69bd 43e9 f4bc c5a3 ddbb
000003d0: 308d 87bd 3c13 7abd ead9 723a 152b 0cbd
000003e0: 12fc ad3b 65c3 f33c 561b 3a3c 4e93 363d
000003f0: e7f9 9bbd 08fc 0bbd 28eb 7dbc fccb 6dbc
-0.045974724 0.039685376 -0.014043637 -0.10574789 -0.041835852 -0.04474365 0.07989679 0.08867693
-0.032559328 -0.07076808 -0.04648153 -0.06836499 -0.01622283 0.026987001 -0.12073735 -0.0897162
-0.036747694 -0.015280635 -0.040787067 -0.14811876 0.0015982445 -0.04259941 0.059454598 -0.019060222
0.08653618 0.03579166 -0.16054891 0.031729035 -0.025831882 0.021549493 -0.06527865 -0.022662621
-0.15870771 -0.026083622 -0.016907932 0.06809537 0.024396863 0.011537576 -0.13414559 -0.028228141
0.05222808 0.022121947 0.019741386 -0.11100308 0.01825472 -0.045192212 0.11596584 -0.026820764
-0.0038253283 0.021432482 0.018434163 -0.021154404 -0.102526724 -0.030052582 0.018838624 -0.023254672
-0.048558496 -0.008762935 -0.061486706 -0.122795135 0.075845465 0.019401032 -0.055750724 -0.07277854
-0.0010570979 0.099625155 -0.021465564 -0.07083162 0.021891106 -0.03695797 -0.04448813 -0.030409764
-0.09970021 -0.0010694303 0.007942069 -0.17174861 0.0038852063 -0.007846007 0.029183688 0.026404321
0.043204635 -0.01598393 -0.113452904 0.06637114 -0.036139 0.032053247 -0.07905692 -0.08577056
-0.052524246 0.0066620847 -0.0063774833 0.013712615 -0.0375532 -0.0828176 0.047748864 0.013754483
0.0044313874 -0.022908181 0.0023695566 -0.046189234 -0.082266316 0.1217052 0.13132417 -0.026295356
-0.070532024 -0.07230395 0.05101908 -0.07101393 0.07947303 0.09351967 0.056878097 0.086435564
-0.057679735 0.031114379 0.054880284 -0.013517136 -0.04644589 -0.02695574 -0.13558966 0.0035227
-0.010886237 -0.0867161 -0.042599145 0.056279607 0.046199244 -0.08276871 0.047236256 0.0076891454
0.01645249 0.05622504 0.022846803 0.06620897 -0.10020448 0.09586211 0.04447534 -0.11027756
-0.018026648 -0.03310382 0.08822258 0.05354961 -0.029456988 0.0053637335 -0.002936652 -0.013478365
-0.083344 0.05892151 -0.02546645 0.029005941 -0.08159594 0.013168882 0.035391103 0.026479289
-0.10219485 -0.040213916 0.040608056 0.011099228 0.0052265357 0.013519355 -0.006501148 -0.049912743
-0.007967755 -0.05331349 0.07268886 3.804578e-05 0.05556258 0.009108592 0.0030395442 -0.015307684
-0.010646398 0.09263983 -0.04114668 -0.13019577 0.015737295 -0.07107052 -0.017423995 0.07927698
0.041368887 0.10021806 0.027167583 0.06516048 0.12427296 -0.037836313 -0.05789434 -0.0037971009
0.06620173 -0.042229816 0.024623703 0.046305493 -0.050952427 -0.008146864 -0.07791326 0.009666498
-0.04085854 -0.025968838 -0.044070434 -0.0008308776 -0.037023462 0.01643826 0.071044825 0.041575547
0.016905278 -0.073809266 -0.04231194 0.0861955 -0.035483282 0.07570988 0.038758002 -0.010984934
0.02594531 0.04659293 -0.024971794 -0.014073974 0.009770539 0.06572514 -0.0646132 0.004621202
-0.024977218 -0.002809038 -0.035370734 0.05128325 0.08253048 0.11172837 -0.017335996 0.08269158
-0.05536508 0.037059776 0.07694594 -0.014266547 -0.02423688 -0.041881375 -0.094025955 0.04696699
0.10249677 -0.04475979 0.12253211 -0.010818975 -0.050919365 -0.005195817 -0.014409246 -0.06771415
0.02961281 -0.056891523 -0.029896384 -0.0067639076 -0.06618726 -0.0610535 0.0009264039 -0.034220774
0.00530959 0.029756257 0.011359056 0.044574074 -0.076160245 -0.034175903 -0.01549796 -0.014513966

fc2.bias f4 [64]
00000000: be99 28bc 0b68 7d3c cde1 7f3d ad3b 16bd
00000010: 32e3 39bd b6b8 ab3c 3e73 683d cec4 4a3d
00000020: 5ee0 f23c fcba 683d 5ce1 243c 3dc3 10bd
00000030: 41cb 66bd a87b 86bd 3eea 4c3c 7a6c 2cbc
00000040: 7860 9e3c 1ebc 2dbd a300 92bc 890c 96bd
00000050: 1ea1 873d a05b af3b 4b89 00bd 9842 073c
00000060: d715 b03c f002 2bbd d6c0 a23d 59d3 5cbc
00000070: 4bbc 873d 76e9 b1bd 827c 7f3d 27f9 b2bd
00000080: 5b5a 983d 81ed 30bc 7fb4 05bb fa29 bebb
00000090: 4e0d 9b3d 50db 8bbd c003 58bd 0bce 3fbd
000000a0: 4c62 8fbd 5caa fdbc c4cc 473d 909c a6bd
000000b0: e25b 8cbd 9faf a0bd 7866 6e3d f0ef e2bc
000000c0: faa4 fc3b 3ea7 703d 6e91 9dbd cedf 113d
000000d0: 06e9 10bc 95db c73c d292 5d3d 1a0d 90bd
000000e0: e882 9bbd a8d9 993d 58dc 1c3d 9adf 0d3b
000000f0: 236f 5fbd 8bb5 a6bd a40f c63c fbae 8c3d
-0.010290561 0.0154667 0.0624712 -0.036678005 -0.045382686 0.0209621 0.05675053 0.049504094
0.029648002 0.056818947 0.0100634955 -0.035342444 -0.05634618 -0.06566554 0.01250702 -0.01052391
0.01933311 -0.04241573 -0.01782257 -0.0732661 0.066225275 0.0053514987 -0.031380933 0.008255623
0.021494789 -0.04175085 0.07946937 -0.013478124 0.06627711 -0.08687107 0.0623746 -0.08738928
0.07439109 -0.010798813 -0.0020401774 -0.005803344 0.07570897 -0.0682894 -0.05273795 -0.046827357
-0.070011705 -0.030965023 0.048779264 -0.08135331 -0.06853463 -0.07845997 0.05820319 -0.027702302
0.0077100964 0.058753245 -0.07693754 0.035613827 -0.00884462 0.024396697 0.054095097 -0.07033749
-0.07593328 0.07512218 0.038296074 0.002164817 -0.054549348 -0.08140095 0.02417738 0.068693124

bn2.weight f4 [64]
00000000: b00c 7a3f fe9c 793f badc 893f bbb2 853f
00000010: df38 7b3f e42c 703f bdfe 793f a81b 7b3f
00000020: 08c0 663f 3426 8d3f bf02 823f d245 773f
00000030: f9c5 833f 661c 743f e664 823f 18e4 7b3f
00000040: ab7e 6e3f e134 753f da92 7b3f db99 7b3f
00000050: df67 813f ba1e 753f 365f 7b3f 5c14 843f
00000060: 8665 793f 322c 773f 3c24 783f d2ad 823f
00000070: 8c3c 7b3f b7a9 803f e1d5 833f 8c73 753f
00000080: ec8c 843f 92bb 793f c427 793f 222a 883f
00000090: b402 863f aa28 733f c6da 7c3f ac1f 833f
000000a0: ee39 873f 62ce 7f3f 02b5 823f 404c 823f
000000b0: e7db 6b3f c83c 703f 9157 813f 5e64 7b3f
000000c0: c4f7 7b3f aae2 763f 1c79 773f 8cb5 6f3f
000000d0: da7b 783f 9f54 7f3f 6ad9 7c3f 4a4b 843f
000000e0: e20b 7d3f 1294 803f cebe 723f bc85 803f
000000f0: 2050 7c3f 70b9 763f bac1 7a3f 1c53 613f
0.9767561 0.97505176 1.0770485 1.0445169 0.98133653 0.938185 0.97654325 0.98089075
0.90136766 1.1027284 1.0157088 0.9659091 1.0294791 0.9535583 1.0187042 0.9839492
0.9316203 0.9578381 0.9827095 0.9828164 1.0109824 0.9575001 0.98192155 1.0318713
0.9742054 0.9655181 0.9693029 1.0209296 0.9813926 1.0051793 1.0299646 0.95879436
1.0355506 0.97551835 0.973263 1.0637858 1.0469575 0.94983923 0.9877132 1.024404
1.0564554 0.9992429 1.0211489 1.017952 0.9213242 0.93842745 1.0104848 0.98200023
0.98424935 0.9643961 0.96669173 0.93636394 0.9706398 0.99738497 0.9876925 1.0335476
0.98846257 1.0045187 0.94822395 1.0040812 0.9855976 0.96376705 0.97951853 0.8801744

bn2.bias f4 [64]
00000000: 2267 743c 68bb 22bd f21c 0ebd be57 3f3c
00000010: 86f1 adbd 4df5 b3bd 7cf8 59bc 8f68 c1bd
00000020: 4636 15bc 9dd9 81bd 2ed7 42bd 3e07 4abd
00000030: ef82 b6bc 00c1 63bd 5561 063c a064 3abd
00000040: b431 293b a066 bfbd 77a6 68bd 9922 dbbd
00000050: a080 45bd e875 67ba 5989 10bd f8de a83c
00000060: b8af 513b bc20 9ebd 7350 37bd 6f12 523c
00000070: 4e8e f1bc 5029 26bd 205b bfbd cbfd 76bd
00000080: b899 2e3c 63e8 4bbd 8648 c03c 0ef2 7cbd
00000090: e0aa 9839 1e58 963d 3dfc 963c 1042 88bd
000000a0: d780 87bd de81 8dbc 9ce7 89bc 880b d6bd
000000b0: 1808 cebd 9c46 79bd f95b 7bbc 2603 bc3b
000000c0: 3a3e 71ba 4c20 ccbd ac57 0bbd 6ef6 4bbc
000000d0: 18a8 71bd e2ff cfbc 204d 0dbe 9c05 90bd
000000e0: c5b1 53bd 79e5 03bc 9586 ddbc 1806 65bd
000000f0: 6014 6b3c 719e 83bd 0bdb 51bc 08d2 a3bd
0.014917167 -0.039729506 -0.034695573 0.011678634 -0.084933326 -0.08787022 -0.013303872 -0.09443771
-0.009107178 -0.063403346 -0.047568493 -0.049323313 -0.02227923 -0.05560398 0.008201917 -0.04550612
0.002581698 -0.09345746 -0.05679938 -0.10699958 -0.04821837 -0.000882952 -0.035287235 0.020614132
0.0031995606 -0.07721087 -0.044754457 0.012821778 -0.029486801 -0.040566742 -0.093435526 -0.06030063
0.010656767 -0.049782168 0.023472082 -0.06175428 0.0002911901 0.07341026 0.018430823 -0.066532254
-0.06616371 -0.01727384 -0.016834073 -0.10451418 -0.100601375 -0.060858354 -0.015341752 0.00573768
-0.0009202693 -0.09967098 -0.034019157 -0.01244889 -0.058998197 -0.02539057 -0.13798952 -0.0703232
-0.051683206 -0.008050316 -0.027041713 -0.055914015 0.0143481195 -0.06426705 -0.012808572 -0.07999045

bn2.running_mean f4 [64]
00000000: c62c 44bf 3df9 473e ee6b 89be 7c7c 8abe
00000010: 5c80 253f 404a 9bba 5a85 63bf 0299 f63e
00000020: a83b 94bf 65ae adbe f0c1 b6be 5861 3e3e
00000030: b24e 763e 3166 e53e 28bb 963f 48e9 92bc
00000040: aa29 9bbf 0278 a3bd cc2e 9e3e 6336 31bd
00000050: 6207 963e 76b8 7dbe 2495 42bf 6310 c63e
00000060: 9b9b d3be 9812 a2be e1b7 1e3e 1761 0dbf
00000070: f346 0ebf 5801 733d 1dc0 dcbd 5d18 b93e
00000080: 2d2d dcbe f089 de3d 6829 8ebf a408 89be
00000090: 0a3e 71be fb75 0fbf 4450 46bf fad4 18bd
000000a0: ad4a d9be 71d1 893d 694d b9be 510f b83e
000000b0: 2162 c33e 99c3 9e3e 36a4 863e b2ea 64bf
000000c0: 41ae 29bf 2c5e d73e 4b8c f2be 216a 9dbf
000000d0: 1ac2 e7bc a68c 893e 2e85 2b3d 004c 0abf
000000e0: dec0 e6be 0741 0d3e 2693 37bf 12d5 37be
000000f0: bed5 49bf f0ed 353f f95b 1fbf e107 1dbf
-0.7663082 0.1952867 -0.26840156 -0.270481 0.64648986 -0.001184769 -0.88875353 0.4816361
-1.1580706 -0.33922115 -0.35694838 0.18591821 0.24053457 0.44804528 1.1775866 -0.017933503
-1.212209 -0.07981874 0.30895078 -0.043264758 0.29302508 -0.24777398 -0.7600882 0.38684377
-0.41329655 -0.3165481 0.15499832 -0.5522627 -0.5557701 0.059327453 -0.1077883 0.361514
-0.43003216 0.10866153 -1.1106386 -0.26764405 -0.23558822 -0.560394 -0.77466226 -0.037312485
-0.42439786 0.06729401 -0.36191872 0.35949185 0.38160804 0.31008604 0.26297158 -0.89420617
-0.66281515 0.42064035 -0.4737266 -1.2298013 -0.028290797 0.2686512 0.041875057 -0.54022217
-0.4506902 0.13794337 -0.71708906 -0.17952374 -0.7884177 0.7106619 -0.62249714 -0.6134015

bn2.running_var f4 [64]
00000000: 8e29 9a3f e6c7 c43e a86b 763f b262 463f
00000010: 1f1c b83e 5289 d33e 6f06 a03f 0275 2a3f
00000020: 8b5d 963f a42d 2a3f 8efa 423f 7829 b23e
00000030: 7455 283f 3eea 833e 8040 3b3f 428e cb3e
00000040: b4aa 193f bee3 5e3e ca36 1b3f 3537 323f
00000050: 2c10 413f 58eb cc3e 4876 6e3f c6f3 4c3f
00000060: 96ce 5c3f d289 9b3e e87c af3e 3168 913f
00000070: 840c 603e 90ea ed3e 3e0b 033f 7ffd fe3e
00000080: 807d 2d3f bf70 e73e c8ba 9b3f 52ce 1a3f
00000090: 6a50 2c3f 23ec 0f3f 0b7f 743f e6a2 c63e
000000a0: fe3a 3f3f 02a9 213f ed02 a93e 36bb ce3e
000000b0: d88e 113f 0102 083f 0eae 073f ef86 a33f
000000c0: f56e 5f3f 7693 a53e bb53 a13e 5b1f 9d3f
000000d0: 048d 333e 5c44 fd3e 0cbd 903e 00c8 163f
000000e0: 6ac3 d43e 9c51 e03e d973 5a3f b518 c63e
000000f0: 380f 553f 81e4 283f a01a f73e f409 053f
1.2043931 0.3843376 0.9625802 0.7749435 0.35958955 0.41315705 1.2501963 0.6658479
1.1747297 0.6647589 0.76163566 0.34797263 0.6575539 0.2576465 0.73145294 0.39756972
0.600261 0.21766564 0.60630476 0.6961549 0.754153 0.40023303 0.9314923 0.8005947
0.86252725 0.30378586 0.34274983 1.1359922 0.21879774 0.4646802 0.5118903 0.49802777
0.6776962 0.45203206 1.2166376 0.6047107 0.673102 0.5621969 0.9550635 0.38796157
0.7469939 0.6314851 0.33010045 0.40377206 0.5685859 0.5312806 0.5299996 1.2775553
0.8727868 0.32339066 0.31509194 1.2275194 0.17534262 0.49466217 0.2826923 0.58898926
0.4155534 0.43812263 0.8533302 0.38690725 0.83226347 0.6597367 0.482625 0.5196831

bn2.num_batches_tracked f8 []
00000000: 0000 0000 00e9 cb40
14290.0

fc3.weight f4 [32, 64]
00000000: 1a41 bdbd 3af9 e5bd eadc 223e ed76 0c3e
00000010: b483 4ebc 2067 913b 4ab9 a7bd 07bb ddbd
00000020: 34b7 a03c eb2c bbbd 7a3b c4bc ae4d 80bd
00000030: 80fa f73d b647 84bc 9e0e c9bd 719a c53c
00000040: b669 263d 6028 aebd 96f5 d23d 1fc0 063d
00000050: 75b0 d73d 4692 713d 1204 d53d ce04 f03c
00000060: 3655 0abc 2a47 41bd 7d55 c4bd ed17 a93d
00000070: 5149 eebd 577f bfbd ac9f 1cbb fe2f 6bbd
00000080: 1ec4 173d 6808 91bd 1481 ffbd b2df 35bd
00000090: fc5c 5d3d b70c 003d c091 f3bb c0ff 83bc
000000a0: dc4c 5e3d 8c5e 56bd d3c9 c23b 4c0c 083b
000000b0: 1755 29bd f278 a73d 40d2 0a3e bac9 fbbb
000000c0: fa21 843d 82cb 8e3c 8b60 e0bc 5a3c 473d
000000d0: d630 a03d f79f fe3d 09bc babd d362 59bc
000000e0: 8c8d c53d 65a1 64bb a0d7 1bbe 84e8 b4ba
000000f0: ecff 883c e223 97bd cdb1 6bbd 2b06 403d
00000100: 8e31 a6bc 3c5a f93c 26dc 633d ffad 86bc
00000110: 0d90 073d 6def daba d2d6 7cbb e2b1 20bd
00000120: 6286 d7bd ba2a 443e 28fd d53c 3a6f 19bc
00000130: a119 4bbd 0c33 8ebd 1ac8 cdbd 50a5 643d
00000140: c0d6 c33c c864 cb3c ce3f 9cbc 045c e73d
00000150: 6a5a dabd 5325 9f3c b681 dcbd 4ac4 c33d
00000160: f1ed 8b3c e044 a33d 90cb ba3d 06f0 b3bd
00000170: 179b 95bd c2f1 cabd daca f33d f1fa 343d
00000180: 087d 30bd 8d2e ac3d 9e16 2abd fd14 213d
00000190: 66ab e0bd 3489 63bd 340c 663c 3aa8 97bb
000001a0: a4df f53d 2618 90bd 3e77 da3d 17bd b53b
000001b0: 5ac1 08be d463 22bc 66b5 773d fa85 65bd
000001c0: b4fd f93c 1e95 aa3d 6fb3 19bc a28b fd3d
000001d0: 6c89 d33d 0a20 cfbd 769b 953d 6b43 053e
000001e0: 0397 973d 2b1c 1ebc e38e 863d 9ed0 163e
000001f0: ee92 313c 89e1 fbbd 2231 6a3d 5fae f5bb
00000200: c45b a8bc 2934 a2bd 7259 a5bd 3c82 e3bd
00000210: e576 bc3c 081c 973d 26e9 61bd 6b27 d23a
00000220: 01da c83b 5684 0f3e f427 40bc 280c 9e3d
00000230: b680 083d 1a58 1a3d 6768 e4bd 4a97 803c
00000240: c421 18be 7a57 753d 1dba 103d 20cf 0b3e
00000250: 6ddb 9a3d de58 adbd 7949 babd 9477 9b3d
00000260: e311 a43b 10b7 d33d daca 7d3d a9be d0bd
00000270: 22fa 163d 4894 d0bd e0da 753d 279d 05bd
00000280: b5aa 2b3d 2e14 ec3d e43a 9bbd dc77 f73d
00000290: 7a1e f3bd f1e7 063d 1eb5 bc3d 04f3 c8bb
000002a0: 6a6a 193e f614 c0bd 60c4 fd3c 0a91 b1bc
000002b0: 8a39 14bc ce1a 10bd 05b1 db3d efed afbd
000002c0: 07af 58bd 6803 103d dcf6 10bd 8dce c23c
000002d0: fbe4 e63c 4a49 5e3d 4279 db3d 08fe a53d
000002e0: b411 9bbd 9f79 03bc 7bd4 edbd 8310 fbbc
000002f0: e422 473a 2ba1 dbbc 5411 5ebd 8379 28bd
00000300: fd7c 92bd 5c89 65bd b483 a2bd 52b6 9abd
00000310: 760e c33c f60b fb3d d62d 013e a8b3 683d
00000320: c5ea 573d 544e cd3d c2aa 0e3e 68eb 843c
00000330: e489 f73c 5e06 6b3d 7a89 a33d ff8a 033d
00000340: 260e f43b 18d7 e83c 5b0e a1bc 9798 053d
00000350: 98aa 0ebe a8e8 7ebd bd39 9e3a 8157 dc3b
00000360: fc6c e13c 7223 ec3d 5402 dabd a080 c0bd
00000370: 4920 1a3d ccb0 25bd f8d3 073e 3d65 713d
00000380: 351c 86bd c87b 0d3e 6af9 d0bc 9e84 8b3d
00000390: 750f 73bd 5e1d 2abd 073b e73b 56d4 adbd
000003a0: 4def 2c3e c4e2 24bd 8873 723d 39d0 a53d
000003b0: 04e0 e3bd 8834 0b3d 72ab e9bc be4f 5e3a
000003c0: a1c4 e73c c917 7d3d 33d2 12bd 59ae ea3d
000003d0: 5eaa 4abd e610 a43d 7d84 053e 1014 9b3c
000003e0: e040 dd3d e868 91bd a81a ecbd 7a25 bd3d
000003f0: fbea cdbd 5136 5dbd 186d 933d 2015 3ebd
-0.09240933 -0.11229177 0.15904585 0.13717242 -0.012604643 0.0044373423 -0.08189638 -0.10826688
0.019618608 -0.09139427 -0.023954142 -0.06264816 0.12108326 -0.016147476 -0.09817241 0.024121495
0.040628158 -0.08503795 0.10300748 0.032898065 0.105317034 0.058977388 0.10401167 0.029299166
-0.008443167 -0.047187008 -0.09586618 0.082565166 -0.11635078 -0.0935046 -0.0023898883 -0.057418816
0.037052266 -0.070816815 -0.124757916 -0.044402786 0.054043755 0.031262126 -0.0074331462 -0.016113162
0.054272518 -0.05233626 0.0059444695 0.0020759283 -0.041340914 0.08177365 0.13556767 -0.00768396
0.06451793 0.017431024 -0.027389785 0.04864154 0.07821815 0.124328546 -0.09117896 -0.01326819
0.096461385 -0.0034886238 -0.15218973 -0.0013802205 0.016723596 -0.07379891 -0.05754261 0.046880882
-0.020287301 0.030438535 0.05562987 -0.01644039 0.033096362 -0.0016703435 -0.0038580191 -0.039232142
-0.10523678 0.19156924 0.02612169 -0.009364897 -0.04958499 -0.0694333 -0.10047932 0.055821717
0.023906112 0.02482833 -0.019073393 0.112968475 -0.10661776 0.019426977 -0.10766928 0.095589235
0.017081233 0.07972121 0.09120858 -0.08786015 -0.07304972 -0.09909393 0.11903925 0.04418463
-0.04308799 0.08407316 -0.041525476 0.039326657 -0.10970192 -0.05555077 0.014040995 -0.0046282085
0.12005547 -0.07035856 0.10667275 0.005546223 -0.13355008 -0.009911496 0.06047573 -0.056035973
0.030516483 0.08329223 -0.009381159 0.123801485 0.103289455 -0.10113533 0.073050424 0.13013999
0.0740185 -0.00965027 0.06570222 0.14728019 0.010838253 -0.12298877 0.057175763 -0.0074975933
-0.02055157 -0.07920105 -0.08073701 -0.111088246 0.023005912 0.073783934 -0.05515399 0.0016033476
0.0061295037 0.14015326 -0.011728276 0.07717162 0.033325873 0.037681676 -0.11152726 0.01569714
-0.1485663 0.059897877 0.03533374 0.1365323 0.075613834 -0.08464216 -0.09096045 0.07591167
0.005007015 0.10337651 0.061961032 -0.101926155 0.03685964 -0.101845324 0.06002319 -0.032620575
0.041910846 0.115272865 -0.07579592 0.12083408 -0.11871047 0.03293604 0.09214233 -0.0061324853
0.14982 -0.09378998 0.030977428 -0.021675605 -0.0090469215 -0.035181813 0.10727123 -0.08590304
-0.052901294 0.0351595 -0.035391673 0.023780132 0.028185358 0.054269113 0.107164875 0.08105093
-0.07571736 -0.008024602 -0.11612793 -0.030647522 0.00075964467 -0.02681025 -0.054215744 -0.041131508
-0.07152746 -0.0560392 -0.07935277 -0.07554306 0.023810606 0.12258141 0.12615141 0.05681196
0.052714128 0.100247055 0.13932326 0.016225532 0.030217119 0.05737912 0.07985206 0.03211498
0.0074479757 0.028422877 -0.019660166 0.032616224 -0.13932264 -0.062233597 0.0012071651 0.0067242985
0.027517788 0.11530198 -0.10644975 -0.09399533 0.037628446 -0.04045181 0.13264453 0.05893444
-0.06548349 0.1381675 -0.025509555 0.06812404 -0.059340913 -0.041531913 0.007056597 -0.084877655
0.16888161 -0.040255323 0.05919221 0.08096356 -0.11126712 0.033985645 -0.028524134 0.00084805104
0.028292002 0.06179026 -0.035844993 0.114590354 -0.04947888 0.080110356 0.13038822 0.018930465
0.108033895 -0.071000874 -0.11528522 0.09235664 -0.100545846 -0.05400688 0.07198542 -0.046406865

fc3.bias f4 [32]
00000000: f85d d2bc 4214 8cbc 7aa4 b7bd 6af7 33bd
00000010: fa38 ce3d d662 c3bd 3cc1 813d 9b40 3cbd
00000020: f00d 9cbb b9f9 d4bd 4cdb 43bd f441 b5bd
00000030: ea92 81bd 5a20 f43d 8df9 92bd 9959 a0bc
00000040: b24c b53c 0e3f 263d 0959 db3c 320a b3bd
00000050: dc3a fabd 64ab abbd fa9d 8f3d 402f 4a3b
00000060: 4ee2 643d 2e72 57bd 0b48 003e 3481 a8bd
00000070: 3692 433c 6bd0 babc 6e17 0bbe 826b 71bd
-0.025679573 -0.017099503 -0.08966918 -0.043937124 0.10069461 -0.09540336 0.06335685 -0.04596005
-0.0047624037 -0.10399193 -0.04781656 -0.0885047 -0.0632685 0.11920233 -0.07176504 -0.019573973
0.022131298 0.040587477 0.026775854 -0.08742179 -0.12218258 -0.083822995 0.070125535 0.0030850917
0.055879883 -0.052599125 0.12527482 -0.082277685 0.011936715 -0.02280446 -0.13583156 -0.058940418

bn3.weight f4 [32]
00000000: af0f ae3f fe2a af3f f0ba a23f 0609 a53f
00000010: 6672 b63f 406f 9a3f 701c b23f b608 a73f
00000020: b859 9b3f 8dce b53f 13d2 b13f 7edf a13f
00000030: ffdc a43f ce6d a63f c4a1 ba3f 04ce be3f
00000040: a4ac a53f 7877 9f3f e094 bd3f 320f af3f
00000050: c0f3 a63f 4449 af3f 53e7 a83f 02a6 ae3f
00000060: 330a a93f 50c6 b73f ea56 a63f 44d7 bf3f
00000070: 7643 9e3f a473 ab3f e2fa aa3f 2427 ae3f
1.3598536 1.3684995 1.2713299 1.2893379 1.4253662 1.2065201 1.3914928 1.3049533
1.2136755 1.4203659 1.3892235 1.2646329 1.2879943 1.300226 1.4580617 1.4906621
1.2943311 1.2458334 1.4811058 1.3676512 1.3043137 1.3694234 1.3195595 1.3644412
1.3206238 1.4357395 1.2995274 1.4987569 1.2364337 1.3394666 1.3357813 1.3605695

bn3.bias f4 [32]
00000000: 0430 773e 368a 643e 3a76 003e 68f1 1f3e
00000010: e0a7 8e3e 3cf8 ac3d b211 1e3e 2aeb 693e
00000020: 4c13 1f3e 58d8 713e f2ed 133e e8b4 0d3e
00000030: 101a 503e f9fd 173e fa16 583e 3dc0 743e
00000040: d059 4a3e 56a8 243e 0ca4 5d3e 1450 773e
00000050: 4768 5d3e 04f7 823e 89b5 8b3e 60db 1e3e
00000060: a8da 833e 9d60 963e d24f 4d3e 48b4 683e
00000070: 6842 413e 0622 553e 1ffe 5e3e 5f63 473e
0.2413941 0.22318348 0.125451 0.15619433 0.27862453 0.084457844 0.15436438 0.22843614
0.15534705 0.23617685 0.14446238 0.13838542 0.20322442 0.14842977 0.21102515 0.23901458
0.19760823 0.1607984 0.2164461 0.24151641 0.2162181 0.25579083 0.27286938 0.15513372
0.2575276 0.29370585 0.2004998 0.22725022 0.18872988 0.2081376 0.21776627 0.19471501

bn3.running_mean f4 [32]
00000000: b3ee 8cbd 9fa0 693e ae89 4cbd b402 873e
00000010: 2a8c 2bbe 1654 96be 8885 99be 167c a5be
00000020: 9d01 d73d 1940 81be 2425 a6be b315 be3d
00000030: 0ef3 fdbd dcc7 093f 1b21 1fbf bec9 dbbe
00000040: acec 93bd 2c34 453e ad10 14bf bfc2 8f3d
00000050: f249 b0be eeaf c7be 3c59 523e 063d 91be
00000060: a7c2 ecbd 622f 6cbe d6fa 293e 213e 8ebe
00000070: ce4e 783e 2236 0d3e 69a6 f4be 501e d13e
-0.06881466 0.22815178 -0.04993599 0.2636925 -0.16752687 -0.29361027 -0.2998469 -0.32321233
0.104983546 -0.25244215 -0.3245021 0.092814825 -0.12399875 0.53820586 -0.6215989 -0.42927355
-0.07222876 0.19258183 -0.57837945 0.07019567 -0.34431416 -0.3900141 0.20541853 -0.2836687
-0.115605645 -0.2306495 0.16599593 -0.27781776 0.24248812 0.13790181 -0.4778321 0.4084344

bn3.running_var f4 [32]
00000000: 51ad 6d3e 0fa2 e03e 2e64 3a3e ea38 a03e
00000010: 26c0 093e 63b8 4e3e d09f 6e3e 28d2 4c3e
00000020: 18c2 483e 7533 9e3e 543c 813e c845 bc3e
00000030: c441 b63e 9cf6 bd3e 63e4 d73e 083b 6d3e
00000040: 403d 853e e6d7 cb3e 00a0 a33e 14a2 ba3e
00000050: 3617 e03e 3ae3 ed3e 419e c23e 37a2 a33d
00000060: f04a 913e fe5b 9b3e 1ab9 4e3e c2b6 c23e
00000070: 7f29 c73e ab54 463e bc7b 543e 53c0 0d3f
0.23210646 0.4387364 0.18202278 0.31293422 0.13452205 0.20187525 0.23303151 0.20002043
0.19605291 0.30898634 0.2524134 0.3677199 0.3559705 0.3710221 0.42166433 0.2316705
0.26023293 0.39813155 0.31958008 0.3645178 0.4376771 0.46462423 0.38011363 0.079899244
0.28377485 0.30343622 0.20187798 0.38030058 0.38898847 0.19368236 0.20750326 0.5537159

bn3.num_batches_tracked f8 []
00000000: 0000 0000 00e9 cb40
14290.0

fc4.weight f4 [1, 32]
00000000: e6a4 a4be 56de 86be 0266 95be 1ed2 cfbe
00000010: 1814 b5be 3db1 91be 0c4b e23e fc2a e7be
00000020: a692 28be 0173 bcbe b959 f83e 3294 a3be
00000030: 4c84 dcbe 6a0b d2be 867b ff3e ce06 e63e
00000040: 6297 ccbe c9ae 82be 1d24 113f f5ab 99be
00000050: 44d5 d1be ad5e aabe 6eb7 68be 5e85 113e
00000060: 4553 99be 621e 98be 73ec 80be 5c7f 113f
00000070: 2697 c0be e46f 89be 3fc9 a5be 6cc3 74be
-0.32157058 -0.26341504 -0.29179388 -0.40589994 -0.35366893 -0.28455535 0.4419788 -0.45149982
-0.16462192 -0.3680649 0.48505953 -0.31949002 -0.43069685 -0.41024333 0.49898928 0.44927067
-0.39959246 -0.25523975 0.5669573 -0.30014005 -0.4098302 -0.33275357 -0.22726223 0.14211032
-0.29946342 -0.2971068 -0.25180396 0.5683496 -0.37615317 -0.26843178 -0.323801 -0.23902673
